checkpoint/GCN/Tree-Cycles.pth (torch, 98245 bytes, 27 tensors)

convs.0.weight f4 [10, 16]
000000 56 de 54 be f6 c1 94 3e b0 96 01 3d d6 28 c4 3e
       -0.2078794 0.2905423 0.031637847 0.38312405
000010 90 a0 23 be e0 80 66 3e 34 8f e8 3d ac 48 9f be
       -0.15979218 0.225101 0.11355439 -0.31110132
000020 8d d5 e6 be 38 b5 1e 3e ce 0c 75 be 65 06 ad 3e
       -0.450848 0.15498817 -0.23930666 0.3379394
000030 47 17 23 3e 2f 74 96 be c6 30 d3 3e a2 64 96 3e
       0.15926848 -0.29385516 0.4124815 0.29373652
000040 00 d4 35 3a d1 33 9e 3e 95 0c 7f be 02 bd d6 be
       0.00069361925 0.30898908 -0.24907143 -0.41941077
000050 5c 29 d3 bd 64 21 62 be bd 33 01 be 1e e1 36 be
       -0.10310623 -0.2208305 -0.12617393 -0.17859313
000060 00 5b 3c be 3a 6c cd be a2 e7 cf 3e 71 76 a2 3e
       -0.18394089 -0.40121633 0.4060641 0.3173099
000070 57 86 77 3e ba bf 84 be 38 48 ff bd f6 b5 c5 3e
       0.2417234 -0.25927526 -0.124649465 0.38615388
000080 80 0c 46 bb c8 ec 3d 3e d6 58 a9 be 00 78 1b bb
       -0.0030219853 0.18547356 -0.3307559 -0.0023722649
000090 1c a6 a6 bd 88 d5 f3 3d d2 0c 60 3e 8e 56 81 be
       -0.081371516 0.11905962 0.2187989 -0.25261348
0000a0 08 95 a3 3d 70 08 e1 3e 8d c6 d1 3c 0d 76 37 be
       0.0798741 0.4395175 0.025607372 -0.17916127
0000b0 f1 92 bf 3e 58 94 d9 3d 6c e2 41 be 44 44 00 3e
       0.37416795 0.106239974 -0.1893403 0.12526041
0000c0 ba bf ca be e0 31 41 3e 0c 48 3f 3e ea 0f a1 be
       -0.395994 0.18866682 0.18679827 -0.31457454
0000d0 c2 21 a2 be 1e 53 c9 3e 3c a1 97 3e fc 28 11 be
       -0.3166638 0.39321226 0.296152 -0.1417579
0000e0 56 9b 61 be 52 00 a5 be 3e 9e 11 3e b7 fb 20 bd
       -0.22031912 -0.32226807 0.14220521 -0.039302554
0000f0 90 1a e7 bd e0 01 aa be 1c 3f 04 be 64 0a 0c 3d
       -0.11284363 -0.33204556 -0.129147 0.034189597
000100 5c 0e 97 be 98 e0 be 3e 02 b4 c5 3e 25 38 cc be
       -0.29503143 0.37280726 0.38613898 -0.39886585
000110 90 df 75 3d 94 34 fc bd 3d 39 83 be d4 42 7d 3e
       0.06002766 -0.12314716 -0.25629607 0.24732524
000120 be 76 1e be 7e 89 06 be 6d cf b3 bc b1 61 2a 3e
       -0.15474984 -0.13138387 -0.021949494 0.16638829
000130 3d 97 99 3e 3b 57 a8 be 90 65 b2 3e 98 85 df bc
       0.29998198 -0.32879052 0.3484311 -0.027285382
000140 0a 39 23 be 98 8d f3 3c 98 d9 b7 3e 00 81 3e 3d
       -0.15939727 0.029730603 0.35908198 0.046509743
000150 a0 97 62 be 60 6d 2c 3e da 32 c8 3e e4 99 f9 bd
       -0.22128153 0.16838598 0.39101297 -0.121875554
000160 52 6a cc be 8a 7a 18 be 02 1f b0 be 35 e7 26 3e
       -0.39924866 -0.14890495 -0.34398657 0.16299136
000170 6c 11 50 3a ac b6 e7 be 72 1d 96 be ca 71 fc 3e
       0.00079371664 -0.45256555 -0.2931934 0.49305564
000180 38 0d d8 3e ad 3e a2 3e 72 4e 82 3e a0 a4 89 3d
       0.42197585 0.31688443 0.25450474 0.06720853
000190 74 b0 c2 be 52 12 dc be 17 97 f7 be 98 a3 45 bd
       -0.38025248 -0.42982727 -0.4835746 -0.04825172
0001a0 de 2a cd be 2c 3d d2 be f8 1a 6b 3e 1f 9c 02 3e
       -0.40071768 -0.41062295 0.22959507 0.12754868
0001b0 4d 7d 93 3e b0 fd 90 3e 6b 1a 97 be e9 ce be 3d
       0.28806534 0.28318548 -0.29512343 0.09316809
0001c0 92 62 71 be 34 5a 51 be cb 61 da be 67 61 a5 be
       -0.23572758 -0.20444566 -0.42652735 -0.32300875
0001d0 68 be bc 3d f2 dd 64 be 39 02 70 3e 1c 94 37 3e
       0.092160046 -0.2235029 0.23438348 0.17927593
0001e0 36 9c e0 be 58 e0 a2 be ac 23 10 bd dd 1f 66 3e
       -0.4386918 -0.31811786 -0.03519027 0.22473092
0001f0 3c 6a e1 3d 80 c5 66 3d 9e 47 ec 3e 46 0f 93 3e
       0.11006591 0.056340694 0.4614839 0.2872259
000200 28 76 c6 3d 7e cb b3 be e6 50 02 be b0 fe f2 bc
       0.09690505 -0.3511619 -0.12726173 -0.02966246
000210 20 c7 43 be 28 9a 5a 3e 76 6a 97 3e 96 a0 ba 3e
       -0.19118929 0.21347868 0.2957341 0.36450642
000220 e0 f6 59 bc d1 cc bb be da db 3c bd 09 38 30 be
       -0.0133034885 -0.366797 -0.046108104 -0.17208876
000230 a6 84 5d bb e0 bb 10 3c 98 7b 24 be 99 f9 e8 bd
       -0.0033800988 0.008833855 -0.16062772 -0.11375732
000240 30 1f d7 3d 56 77 03 be 10 e1 ed be 0a fd 05 be
       0.105039954 -0.12838492 -0.46460772 -0.13084808
000250 3c d1 b6 3e 2c 86 ea be dc 7f 9e be 0c 3f ab bd
       0.35706508 -0.4580549 -0.30956924 -0.083616346
000260 6a 0a 1f be 14 96 80 3e d2 04 51 be a5 30 77 3e
       -0.15531316 0.251145 -0.20411995 0.2413965
000270 53 3a 9a be 5c b6 36 3e 0a 2a 43 be f6 ee f7 3e
       -0.30122623 0.17843002 -0.19059005 0.484245

convs.0.bias f4 [16]
000000 00 00 00 00 6c 4f 15 bf 00 00 00 00 00 00 00 00
       0.0 -0.58324313 0.0 0.0
000010 00 00 00 00 00 00 00 00 22 23 15 3f 00 00 00 00
       0.0 0.0 0.58256733 0.0
000020 00 00 00 00 00 00 00 00 6d 01 10 3f b0 4b 2f bf
       0.0 0.0 0.56252176 -0.68474865
000030 02 c6 26 3f 00 00 00 00 00 00 00 00 98 23 1b bf
       0.65145886 0.0 0.0 -0.60601187

convs.1.weight f4 [16, 32]
000000 20 2d 90 bc 52 08 51 3e 53 84 8d 3e b8 46 c4 bd
       -0.017599642 0.2041333 0.27640018 -0.09583801
000010 03 f9 95 3e 26 a8 32 3e 00 6e 08 3b ec b4 f1 3d
       0.29291543 0.17446956 0.0020817518 0.11802086
000020 10 8d a0 bd b1 3e a7 be 73 ec 87 3e a0 68 cb 3d
       -0.078394055 -0.32665017 0.26547584 0.09932065
000030 b0 82 f8 3d d0 bb 79 3d eb 86 8f 3e 62 1d 25 be
       0.12134302 0.060970128 0.28032622 -0.1612449
000040 2d 4d af be 39 18 a9 3e 60 72 df 3c e2 34 66 3e
       -0.34238568 0.33026293 0.027276218 0.2248111
000050 21 14 a7 3e 80 e9 70 bd 6f a8 83 3e 61 4b 62 be
       0.32632545 -0.058816433 0.25714442 -0.22099067
000060 d8 ab 87 bd 60 cd 4a 3c be 1f 59 3e 68 9a 2a bd
       -0.066245735 0.012378067 0.21203515 -0.04165116
000070 98 13 11 3d 80 5d bd bb b1 f2 80 3e 7a 29 62 3e
       0.035419077 -0.0057789683 0.2518516 0.22086135
000080 90 f4 08 3e 77 62 3e bb 4e d1 48 3e 53 ba 8e 3e
       0.13374543 -0.002905039 0.19611093 0.2787653
000090 ab ca 90 be 73 b8 66 be 0f f3 21 3e fb 75 5b bf
       -0.28279623 -0.225313 0.15815376 -0.857269
0000a0 86 0e 29 3e 3f 0b 68 be da 82 a8 3e 15 88 15 3d
       0.16509447 -0.2266054 0.32912332 0.03650673
0000b0 d0 dd 80 bc 14 03 bf bd 0f e3 44 bf 53 26 2d 3f
       -0.015730768 -0.09326759 -0.76908964 0.67636603
0000c0 87 1a 91 3e 9c 3e ae 3d d4 3f 24 bf cc 8f 81 bf
       0.2834055 0.085080355 -0.64159894 -1.0122008
0000d0 d4 8b 58 3f b2 51 23 be 58 d8 55 3d 80 41 5d 3b
       0.8458836 -0.15949133 0.052208275 0.0033760965
0000e0 6f 7f a4 be af b1 ba 3e 40 be e0 bc 90 9f ac 3c
       -0.32128474 0.36463687 -0.027434468 0.02107218
0000f0 1b 50 db 3e 09 1c 6b 3e ce 93 05 3f 2c 9f 9c be
       0.42834553 0.22959913 0.5217866 -0.30590189
000100 98 53 a5 bd 55 49 02 be 8c 8e ac be 18 dc b5 bd
       -0.08072585 -0.12723286 -0.33702505 -0.0887987
000110 07 eb 8e 3e b0 b0 09 3d 93 0a 2a be 50 56 75 3d
       0.27913687 0.033615768 -0.16605596 0.059896767
000120 e8 d7 0a 3e dc f7 d4 3d 34 df d2 3d 00 a7 13 be
       0.13558924 0.10398838 0.10296479 -0.14419174
000130 8d 37 33 be 48 17 28 bd f4 d3 a5 3d 1c 62 2d be
       -0.1750166 -0.041037828 0.080970675 -0.16931957
000140 d0 28 90 bc cc dd 88 be 14 5d fb bd e9 cc 87 3e
       -0.017597586 -0.26731718 -0.122736126 0.26523522
000150 50 b7 15 3d 92 3e 5c 3e ca 5e 29 3e 0b 14 97 3e
       0.036551774 0.21508244 0.16540065 0.2950748
000160 4e 81 e4 bd 40 a0 72 3d 92 aa 66 3e 29 6f 76 be
       -0.111574754 0.059234858 0.22526005 -0.24065842
000170 30 39 74 be e0 fc 32 3d c5 ad a5 3e 3c 10 73 be
       -0.2384994 0.04369819 0.32359138 -0.23736662
000180 e7 02 9b be b8 81 78 bd 60 d4 5b bd 80 7f 42 3c
       -0.30275652 -0.060670584 -0.053669333 0.011871219
000190 78 7d 6e bd 3d ff ad 3e c4 a1 a3 be 60 d7 99 3d
       -0.058225125 0.33983794 -0.31959355 0.07511783
0001a0 71 f0 88 be c2 d5 33 3e 0b 62 83 3e 4b a9 36 be
       -0.26745942 0.17562011 0.25660738 -0.17838018
0001b0 20 54 ef 3d 40 38 f7 3c f2 2c 76 3e e2 83 68 3e
       0.116859674 0.03017819 0.24040583 0.2270656
0001c0 98 ba a8 bd 50 f7 84 bc 21 1e a3 be e2 f6 48 3e
       -0.08238715 -0.016231209 -0.31858924 0.19625428
0001d0 8e 0e 01 3e 94 af 84 bd 90 66 81 3c 6b 15 64 be
       0.12603208 -0.06478801 0.015795976 -0.22273795
0001e0 50 1e 6e 3d 9c e6 54 be ef 1c a1 3e 27 90 13 be
       0.058134377 -0.20791095 0.31467387 -0.14410459
0001f0 6b 5c 2b be 3b d5 89 be 0e 9f 6c 3e a0 24 73 bd
       -0.16734473 -0.26920494 0.2310755 -0.0593611
000200 60 7c 3e 3c 32 11 8c be 9e 9a 5b 3e 64 f4 07 be
       0.011626333 -0.2735687 0.214457 -0.13276821
000210 22 5a 32 3e 0c 39 a9 bd 20 cb 6f bc 16 29 16 be
       0.17417195 -0.08262834 -0.014635831 -0.1466411
000220 48 57 11 3e 58 0f a2 bd a0 06 d2 3d a4 ab e8 3d
       0.14193451 -0.07913083 0.1025517 0.11360863
000230 bd 80 a9 3e c2 f1 13 3e ca 56 55 3e de 80 2e 3e
       0.33106032 0.14447692 0.20833889 0.17041346
000240 fe 7b 3c 3e 33 b5 8a be af 17 9a 3e 95 2c 50 be
       0.18406674 -0.2709137 0.30096194 -0.20329507
000250 a0 be b2 3d 9f d4 50 be 2b aa 9d be 35 a0 ac 3e
       0.08727765 -0.20393609 -0.3079389 0.33715978
000260 90 79 29 3d c0 8b e3 3d 22 e2 4e 3e 01 ac 91 be
       0.041375697 0.111106396 0.2020345 -0.2845154
000270 3c 5d 84 bd a8 1b 2d 3d 92 a1 05 3e 0e 79 5e be
       -0.064630955 0.042262703 0.13049915 -0.21725866
000280 1a b8 2a 3e 80 69 8d 3b da d8 3a 3e 7c 06 b4 3d
       0.16671792 0.004315555 0.18246785 0.08790299
000290 b0 c8 ff 3d 58 89 05 bd 6a f7 2c 3e 1a b6 27 3e
       0.1248945 -0.032601684 0.16891256 0.1637806
0002a0 10 41 92 3c cc 82 9c be 19 6b 2c be 5c 8d a8 bd
       0.01785329 -0.3056854 -0.1683773 -0.08230087
0002b0 20 5e 1b bd e6 7e 70 3e 3a 2d 7b 3e d3 e2 46 be
       -0.03793156 0.23485908 0.24528971 -0.19422464
0002c0 ce 32 73 be 78 e8 c9 3d 58 73 86 bd cc 0c 98 3d
       -0.23749849 0.09858793 -0.06564969 0.07424316
0002d0 00 d8 85 b9 9a d6 66 3e 48 e6 00 3d a0 26 d7 3d
       -0.0002552867 0.22542801 0.031469613 0.10505414
0002e0 cc a2 07 3e 60 86 ce bd 05 03 00 be ec 0a 8a bd
       0.13245696 -0.10084224 -0.12501152 -0.067403644
0002f0 d8 b4 37 3d b8 a3 9b be c5 d4 ab 3e 9c 74 d3 3d
       0.0448502 -0.30398345 0.33560768 0.10324976
000300 ce 29 0f bc 31 3f 9e 3e f0 c5 dd 3d d8 8f 73 3e
       -0.008737994 0.30907586 0.10828769 0.23785341
000310 c8 5f 87 be 5d 7a 3e 3f 2c 82 b1 be 91 08 6d 3e
       -0.26440263 0.7440546 -0.34669626 0.23147799
000320 4d d1 96 be 95 f7 95 be f0 0b 84 3d a6 41 26 3e
       -0.2945656 -0.29290453 0.064475894 0.1623598
000330 94 7d dc 3d b8 d7 aa bd 5b f5 e6 3d bd 1e 7a be
       0.107661396 -0.08341926 0.112772666 -0.24425788
000340 ab 8d 38 bd 30 7c 10 3d 3e bd 13 be 14 0e 2a 3f
       -0.04505698 0.035274684 -0.14427659 0.6642773
000350 7c db fd be f2 4d 1b 3e 0b 49 4e be d0 9b c2 bc
       -0.49581516 0.15166453 -0.20145051 -0.023755938
000360 ab b1 98 be d6 18 44 be a3 da 2f be c9 05 a5 be
       -0.2982305 -0.19150099 -0.17173247 -0.32230976
000370 34 93 a1 3e e0 11 a6 be eb 59 ac 3e e6 2e 0f 3f
       0.3155762 -0.32435513 0.33662352 0.55930936
000380 c5 38 b4 3e 88 41 fd 3d 30 34 3c 3d ca 62 85 be
       0.35199562 0.12366015 0.045948207 -0.26051933
000390 6d b3 81 be 06 0a 45 3e 30 d7 cc 3c 2e b3 71 be
       -0.25332204 0.19242105 0.025004953 -0.23603508
0003a0 c0 1f da 3d 66 8f 31 3e 50 3b ab 3d af f5 9c 3e
       0.10650587 0.17339858 0.08360922 0.30656192
0003b0 70 5a 7c bd 88 0d 70 3d 9b 62 18 be 66 fd 5c 3e
       -0.061609685 0.058606654 -0.14881365 0.21581039
0003c0 a2 08 7b 3e 7a f5 04 3e 20 c8 78 3d 95 40 28 be
       0.24515012 0.12984267 0.06073773 -0.16430886
0003d0 a5 f6 9d be 90 79 6d bd 10 d8 f1 3d 70 a5 09 bd
       -0.30852237 -0.05797726 0.11808789 -0.03360504
0003e0 2c 16 ff bd 2c 17 94 be 6c c3 f5 bd aa da 57 3e
       -0.12455401 -0.2892393 -0.120001644 0.21079507
0003f0 83 df 82 3e a6 3b 09 be b0 cf d2 3c ab 6c 98 3e
       0.2556115 -0.1340166 0.025733799 0.29770407

convs.1.bias f4 [32]
000000 93 73 26 be a7 10 14 3e 00 00 00 00 a6 02 d1 3e
       -0.16255026 0.14459477 0.0 0.40822333
000010 00 00 00 00 ff 0e 83 3c 7f fe 0f bc 6e 59 00 bd
       0.0 0.015998362 -0.008788704 -0.031335287
000020 00 00 00 00 00 00 00 00 a5 23 d4 3e af 27 40 bd
       0.0 0.0 0.41433445 -0.046912845
000030 00 00 00 00 00 00 00 00 fb 55 34 bd 10 77 d3 bd
       0.0 0.0 -0.04402731 -0.10325444
000040 7c 59 f5 bc 00 00 00 00 09 19 06 3e 08 69 d7 be
       -0.029949896 0.0 0.13095488 -0.4207232
000050 87 62 86 3e 1b 7c fe bc 00 00 00 00 00 00 00 00
       0.26247045 -0.031065037 0.0 0.0
000060 00 00 00 00 93 4d 4a be 00 00 00 00 d3 17 67 be
       0.0 -0.19756155 0.0 -0.22567682
000070 70 f6 e2 3e 05 06 8b bc 5c 27 a7 3e f8 80 6b 3e
       0.44328642 -0.016970644 0.32647216 0.22998416

convs.2.weight f4 [32, 16]
000000 4a 06 28 3e a8 12 b7 3e 6b 58 f3 3e eb 6d f1 bd
       0.16408649 0.3575642 0.47528395 -0.11788543
000010 84 91 c3 be ea e6 8f be e5 31 84 be 59 22 8c be
       -0.38196957 -0.2810586 -0.25819317 -0.27369955
000020 d4 62 5d be 48 ea 9f be 59 bd 6e 3e 26 52 7d 3e
       -0.21619731 -0.3123343 0.23314418 0.24738368
000030 45 44 86 3e 16 0a fe bd 06 bf 8b be 44 44 a5 be
       0.2622396 -0.124042675 -0.27294177 -0.32278645
000040 30 85 af bd 5d 23 0b be 73 85 f7 3d 2d 15 e5 3e
       -0.085703254 -0.13587709 0.12086 0.44742718
000050 b5 24 5b 3e ab f6 e9 3e 48 86 04 3f 6a 1d 33 3f
       0.21400721 0.45696005 0.51767397 0.6996676
000060 61 4e 3d be 8d 73 1b be e1 44 bb be 05 34 22 3e
       -0.1848693 -0.15180798 -0.36575988 0.15840156
000070 e1 dd 1e 3e 81 3c ab 3e 24 07 83 3d 14 95 2c 3e
       0.15514328 0.33444598 0.06397846 0.16853744
000080 1e fe 7e be 09 57 47 be 60 1e ee 3c ca 50 82 be
       -0.24901626 -0.19466795 0.029067218 -0.25452262
000090 48 e3 13 3e 8c 41 fe 3d 5d 17 a5 be d8 76 3c be
       0.1444217 0.12414846 -0.32244387 -0.1840471
0000a0 e0 53 61 3d e8 c1 fd 3d a8 ea a2 3d a4 1f 72 be
       0.05501163 0.123905 0.079549134 -0.23644882
0000b0 c2 72 fb bd 9f 35 b2 be 8c 99 85 bd f8 f5 03 be
       -0.12277748 -0.34806535 -0.06523427 -0.12886798
0000c0 9b de b4 be 30 32 0c 3e e6 b7 68 3e 0a d7 7e 3e
       -0.35326084 0.1369102 0.22726402 0.24886718
0000d0 6f ef d1 3e a0 d9 11 3e 03 77 82 be b2 dd d3 be
       0.41002986 0.14243174 -0.25481424 -0.41380078
0000e0 9e a4 74 3e e3 34 3e be d6 d0 98 3e 6e 55 06 be
       0.23890921 -0.18574862 0.2984683 -0.13118526
0000f0 c0 44 90 3e 5c 03 90 3d 36 e0 5d 3e c4 1c d2 3d
       0.28177452 0.07031891 0.21667561 0.10259393
000100 d8 05 ff bd 5c e6 f8 3d 20 62 d4 bc e2 8e ac be
       -0.124522865 0.121533126 -0.025925696 -0.3370276
000110 d7 00 a4 3e 41 b3 85 3e 38 83 3d 3d bd e4 8f 3e
       0.3203189 0.26113322 0.046267718 0.281042
000120 9d 77 2e be f0 b6 c1 bd 3a 3a 6b 3e 4a bf 7c 3e
       -0.17037816 -0.09458721 0.2297143 0.24682346
000130 6a 2a 4b 3e 00 f8 ed 3a 4d d0 95 be a2 ed f0 bd
       0.19840398 0.0018155575 -0.29260483 -0.11764075
000140 98 6a ec 3d f9 1e ac 3e 93 71 8d 3d f4 fe 76 3e
       0.11543769 0.3361738 0.06906428 0.24120694
000150 4e 5a 8d bd 32 ad 59 3e e1 25 21 3f fa ad 0c 3f
       -0.0690199 0.21257475 0.62948424 0.5495297
000160 5a 30 6e 3e 50 e6 cb bd 72 23 87 be b7 f0 b0 3e
       0.23260632 -0.09956038 -0.2639423 0.3455865
000170 2a d6 d9 3e 83 39 0f 3e 5e 3a e5 bd a4 18 95 3e
       0.42546207 0.13986783 -0.11192773 0.29120362
000180 00 bc 85 be 9c c4 84 3e 80 48 6e be 42 ee 82 be
       -0.26119995 0.2593125 -0.23269844 -0.255724
000190 af 8b 4b bd 29 e2 76 3a 9d 64 80 3e 7c 28 81 be
       -0.04969376 0.0009417856 0.25076762 -0.252262
0001a0 04 ce 8d bd 6c 4a ac be 6a b2 af be 45 f2 66 be
       -0.0692406 -0.3365053 -0.34315807 -0.22553356
0001b0 88 a9 b5 bd 65 51 1c be 2c 7a 09 be 90 23 89 be
       -0.08870226 -0.15265425 -0.13425511 -0.26784945
0001c0 78 86 4f be 22 6a e5 3e b5 dc 73 3f f8 7f 55 bf
       -0.2026614 0.44807535 0.9525865 -0.8339839
0001d0 0d cc 3b bf 97 d2 57 bf 66 c8 9e 3f 9e cf 79 3f
       -0.7335823 -0.8430571 1.2404907 0.97582424
0001e0 5c ad 9b be a4 3d e8 3d 1a d3 4a 3e 90 68 75 bf
       -0.304057 0.11339882 0.19807091 -0.95862675
0001f0 27 2c 95 bc ff 6e fc be 68 74 81 be ca 59 0c bf
       -0.01820953 -0.49303433 -0.25284123 -0.5482451
000200 5e aa 41 3e cc 22 94 bd e5 a4 ac 3e 8c ce 92 be
       0.18912646 -0.072331995 0.33719555 -0.28673208
000210 12 fb 49 3e 30 cc ee 3d 4f 8d 94 3e ae 7e 8c be
       0.19724682 0.116600394 0.2901406 -0.274404
000220 71 ed ab be 9a 18 35 3e f9 fd 93 3e 32 aa 5a 3e
       -0.3357959 0.17685166 0.28904703 0.21353987
000230 b7 fa 17 be 45 0b 35 be 7d a4 8b 3e f2 2d f3 bd
       -0.14841734 -0.1768008 0.27273932 -0.11873998
000240 48 cb 8c bd 7a 3b 7b 3e 78 f9 ad 3d e0 a3 1d bc
       -0.0687471 0.24534407 0.08494848 -0.00962159
000250 80 64 b3 3b 4b 5f ad 3e 31 c5 b4 3e 27 b1 af 3e
       0.005474627 0.33861765 0.35306695 0.34314844
000260 28 42 62 3d 02 e7 60 3e d2 eb 2e 3e 0c 15 2f be
       0.055238873 0.21963122 0.17082146 -0.17097872
000270 bd 4f 8f 3e 2c 7a cb bd b2 b4 5d 3e e9 a8 a5 be
       0.27990523 -0.09935412 0.21650961 -0.3235543
000280 c0 9f e7 bc a0 e7 94 3e ca ed 35 bd 39 6b 26 bd
       -0.028274417 0.29082966 -0.044416226 -0.0406296
000290 a1 b6 73 3e 57 03 f5 3d e1 e0 b2 be 05 f2 bf be
       0.23800136 0.11963528 -0.34937194 -0.37489334
0002a0 c8 5b 84 3d 03 57 97 3e d1 87 41 bd 89 09 02 3f
       0.064628184 0.29558572 -0.047248665 0.507958
0002b0 97 0d 25 3e ae 87 f4 3e 6e cf 86 be a6 fa 8c b9
       0.16118465 0.47759765 -0.2633013 -0.00026889628
0002c0 55 01 73 be 23 c6 5f be 71 ff 9f 3e 44 26 a2 3d
       -0.23730977 -0.21852927 0.31249574 0.07917455
0002d0 43 d9 a7 3d 20 15 07 3c 09 e0 9c be 25 98 7b be
       0.08195736 0.008244783 -0.30639675 -0.24569757
0002e0 db 2a 87 3e 4d 32 aa be c5 ef 8e be 5a ee 79 be
       0.26399884 -0.332415 -0.27917305 -0.2440733
0002f0 b3 26 28 bd 3f f2 a1 3e fc 5e 26 be 4d a7 9f 3e
       -0.04105253 0.31630132 -0.16247171 0.31182328
000300 fe 69 55 3e 50 49 56 bd 18 47 80 bd 80 c3 b2 bc
       0.20841214 -0.05231601 -0.0626356 -0.021821737
000310 19 32 a0 3e 53 cf 55 be 48 36 86 be 98 db 21 be
       0.3128822 -0.20879869 -0.26213288 -0.15806425
000320 e0 60 7a be 96 aa 50 3e 8a 36 4f 3e ae 0f 1a 3e
       -0.24451017 0.20377573 0.20235649 0.15045044
000330 d8 1d 83 3d 93 d6 92 3e 08 f1 2d bd 34 1a 7f be
       0.064021766 0.28679332 -0.042466193 -0.2491234
000340 bc 25 e5 bd 88 cd 8f bd 97 89 90 3e 8b f5 96 3e
       -0.11188838 -0.07021624 0.28229973 0.2948421
000350 08 80 04 bd 94 71 ae bd d8 c6 92 3d cc fc b9 bd
       -0.032348663 -0.08517757 0.07166833 -0.0908142
000360 3c e4 99 bd 28 c3 8d 3d 3b 3f 8d be 36 38 f5 bd
       -0.075142354 0.06921989 -0.27587304 -0.11973612
000370 05 a2 96 be 3f 55 a2 be 0f fb 02 be c3 64 b0 3e
       -0.29420486 -0.31705663 -0.12791084 0.34451875
000380 da 50 82 be f3 20 d7 3e 40 58 3f 3e 65 8e a5 be
       -0.2545231 0.42017326 0.18686008 -0.323352
000390 bf 8b 14 bf 9e 75 e9 be 9b f6 d4 3f f5 15 ab 3f
       -0.58025736 -0.45597547 1.6637758 1.3366076
0003a0 64 2c dc 3d 35 33 ad 3e 98 ea be 3d 0e 27 48 bf
       0.10750654 0.3382813 0.09322089 -0.7818459
0003b0 7b 16 8a be 6a 1d 29 bf de 64 a8 be 03 3f c3 be
       -0.26970276 -0.6606051 -0.32889456 -0.38134012
0003c0 13 ec 8f 3e 70 d4 24 3f 53 bb fa 3e a0 17 40 bf
       0.28109798 0.64386654 0.48971042 -0.7503605
0003d0 92 97 02 be b0 d7 34 bf 62 ac 47 bf 60 0d 00 bf
       -0.12753132 -0.70641613 -0.7799741 -0.5002041
0003e0 a0 9e 95 bd ee f2 fd bd 25 40 24 3d b2 db f2 be
       -0.07305646 -0.12399851 0.040100235 -0.4743324
0003f0 15 44 2b bf 4a 85 fb be cc ef ad 3d 01 6d ad be
       -0.6690076 -0.4912513 0.08493003 -0.33872226

convs.2.bias f4 [16]
000000 00 00 00 00 bd 88 2e bc 86 98 35 3d 73 fa 60 3e
       0.0 -0.010652718 0.04433491 0.21970539
000010 c5 71 cf 3d 8d 3d 9c 3d 8e 72 4f 3e 3e 96 9d 3e
       0.10129122 0.076289274 0.20258543 0.30778688
000020 00 00 00 00 00 00 00 00 94 7b a1 bc 50 ff d0 3d
       0.0 0.0 -0.019712247 0.10204947
000030 62 b4 4f 3e ef a5 bf 3d 00 00 00 00 80 41 9b bc
       0.20283654 0.09357821 0.0 -0.018952131

classify.weight f4 [2, 16]
000000 da ea 53 be f9 6e 88 3f b2 f1 63 3f 1a 6b 8a bf
       -0.20695058 1.0658866 0.8904067 -1.0813935
000010 b4 84 68 bf c9 83 88 bf 5e f8 95 3f 2f 35 60 3f
       -0.9082749 -1.0665218 1.1716421 0.8758115
000020 30 29 b2 3c f2 54 63 be b4 c7 62 be b0 2e 76 bf
       0.021748155 -0.22200373 -0.22146493 -0.9616499
000030 94 b2 2b bf 08 72 8e bf 24 2c 4e be 37 d9 0b bf
       -0.67069364 -1.112855 -0.20134026 -0.5462832
000040 26 2d 5a 3e 8a f3 87 bf 99 d8 1a bf 29 08 96 3f
       0.21306285 -1.0621197 -0.6048675 1.172124
000050 8a fd 4b 3f 64 63 15 3f c7 8a 9a bf 17 19 5a bf
       0.79683745 0.58354783 -1.2073601 -0.85194534
000060 20 26 4c 3d c0 8f 8f 3c 6b 2a 05 3e c8 91 85 3f
       0.049841046 0.0175246 0.13004462 1.0435114
000070 7e f9 80 3f 77 4c 81 3f 84 de c9 bd 54 3f 62 3f
       1.0076139 1.010146 -0.098568946 0.8837788

classify.bias f4 [2]
000000 a4 78 13 3e c8 3b 90 be
       0.1440149 -0.2817061

exp_avg f4 [10, 16]
000000 00 00 00 00 bf d7 8d 3b 00 00 00 00 00 00 00 00
       0.0 0.0043286975 0.0 0.0
000010 00 00 00 00 00 00 00 00 6b c5 ac ba 00 00 00 00
       0.0 0.0 -0.0013181394 0.0
000020 00 00 00 00 00 00 00 00 4a 13 1b bb 5a f7 d1 3a
       0.0 0.0 -0.002366262 0.0016019151
000030 f5 48 2a bb 00 00 00 00 00 00 00 00 a5 17 24 3a
       -0.0025983427 0.0 0.0 0.0006259627
000040 00 00 00 00 bf d7 8d 3b 00 00 00 00 00 00 00 00
       0.0 0.0043286975 0.0 0.0
000050 00 00 00 00 00 00 00 00 6b c5 ac ba 00 00 00 00
       0.0 0.0 -0.0013181394 0.0
000060 00 00 00 00 00 00 00 00 4a 13 1b bb 5a f7 d1 3a
       0.0 0.0 -0.002366262 0.0016019151
000070 f5 48 2a bb 00 00 00 00 00 00 00 00 a5 17 24 3a
       -0.0025983427 0.0 0.0 0.0006259627
000080 00 00 00 00 bf d7 8d 3b 00 00 00 00 00 00 00 00
       0.0 0.0043286975 0.0 0.0
000090 00 00 00 00 00 00 00 00 6b c5 ac ba 00 00 00 00
       0.0 0.0 -0.0013181394 0.0
0000a0 00 00 00 00 00 00 00 00 4a 13 1b bb 5a f7 d1 3a
       0.0 0.0 -0.002366262 0.0016019151
0000b0 f5 48 2a bb 00 00 00 00 00 00 00 00 a5 17 24 3a
       -0.0025983427 0.0 0.0 0.0006259627
0000c0 00 00 00 00 bf d7 8d 3b 00 00 00 00 00 00 00 00
       0.0 0.0043286975 0.0 0.0
0000d0 00 00 00 00 00 00 00 00 6b c5 ac ba 00 00 00 00
       0.0 0.0 -0.0013181394 0.0
0000e0 00 00 00 00 00 00 00 00 4a 13 1b bb 5a f7 d1 3a
       0.0 0.0 -0.002366262 0.0016019151
0000f0 f5 48 2a bb 00 00 00 00 00 00 00 00 a5 17 24 3a
       -0.0025983427 0.0 0.0 0.0006259627
000100 00 00 00 00 bf d7 8d 3b 00 00 00 00 00 00 00 00
       0.0 0.0043286975 0.0 0.0
000110 00 00 00 00 00 00 00 00 6b c5 ac ba 00 00 00 00
       0.0 0.0 -0.0013181394 0.0
000120 00 00 00 00 00 00 00 00 4a 13 1b bb 5a f7 d1 3a
       0.0 0.0 -0.002366262 0.0016019151
000130 f5 48 2a bb 00 00 00 00 00 00 00 00 a5 17 24 3a
       -0.0025983427 0.0 0.0 0.0006259627
000140 00 00 00 00 bf d7 8d 3b 00 00 00 00 00 00 00 00
       0.0 0.0043286975 0.0 0.0
000150 00 00 00 00 00 00 00 00 6b c5 ac ba 00 00 00 00
       0.0 0.0 -0.0013181394 0.0
000160 00 00 00 00 00 00 00 00 4a 13 1b bb 5a f7 d1 3a
       0.0 0.0 -0.002366262 0.0016019151
000170 f5 48 2a bb 00 00 00 00 00 00 00 00 a5 17 24 3a
       -0.0025983427 0.0 0.0 0.0006259627
000180 00 00 00 00 bf d7 8d 3b 00 00 00 00 00 00 00 00
       0.0 0.0043286975 0.0 0.0
000190 00 00 00 00 00 00 00 00 6b c5 ac ba 00 00 00 00
       0.0 0.0 -0.0013181394 0.0
0001a0 00 00 00 00 00 00 00 00 4a 13 1b bb 5a f7 d1 3a
       0.0 0.0 -0.002366262 0.0016019151
0001b0 f5 48 2a bb 00 00 00 00 00 00 00 00 a5 17 24 3a
       -0.0025983427 0.0 0.0 0.0006259627
0001c0 00 00 00 00 bf d7 8d 3b 00 00 00 00 00 00 00 00
       0.0 0.0043286975 0.0 0.0
0001d0 00 00 00 00 00 00 00 00 6b c5 ac ba 00 00 00 00
       0.0 0.0 -0.0013181394 0.0
0001e0 00 00 00 00 00 00 00 00 4a 13 1b bb 5a f7 d1 3a
       0.0 0.0 -0.002366262 0.0016019151
0001f0 f5 48 2a bb 00 00 00 00 00 00 00 00 a5 17 24 3a
       -0.0025983427 0.0 0.0 0.0006259627
000200 00 00 00 00 bf d7 8d 3b 00 00 00 00 00 00 00 00
       0.0 0.0043286975 0.0 0.0
000210 00 00 00 00 00 00 00 00 6b c5 ac ba 00 00 00 00
       0.0 0.0 -0.0013181394 0.0
000220 00 00 00 00 00 00 00 00 4a 13 1b bb 5a f7 d1 3a
       0.0 0.0 -0.002366262 0.0016019151
000230 f5 48 2a bb 00 00 00 00 00 00 00 00 a5 17 24 3a
       -0.0025983427 0.0 0.0 0.0006259627
000240 00 00 00 00 bf d7 8d 3b 00 00 00 00 00 00 00 00
       0.0 0.0043286975 0.0 0.0
000250 00 00 00 00 00 00 00 00 6b c5 ac ba 00 00 00 00
       0.0 0.0 -0.0013181394 0.0
000260 00 00 00 00 00 00 00 00 4a 13 1b bb 5a f7 d1 3a
       0.0 0.0 -0.002366262 0.0016019151
000270 f5 48 2a bb 00 00 00 00 00 00 00 00 a5 17 24 3a
       -0.0025983427 0.0 0.0 0.0006259627

exp_avg_sq f4 [10, 16]
000000 00 00 00 00 22 d0 df 3a 00 00 00 00 00 00 00 00
       0.0 0.0017075578 0.0 0.0
000010 00 00 00 00 00 00 00 00 e6 72 10 3a 00 00 00 00
       0.0 0.0 0.0005510285 0.0
000020 00 00 00 00 00 00 00 00 4c 2f 82 3a a6 85 15 3a
       0.0 0.0 0.0009932308 0.0005703814
000030 75 b6 7b 39 00 00 00 00 00 00 00 00 0c af 18 3a
       0.00024005196 0.0 0.0 0.0005824424
000040 00 00 00 00 22 d0 df 3a 00 00 00 00 00 00 00 00
       0.0 0.0017075578 0.0 0.0
000050 00 00 00 00 00 00 00 00 e6 72 10 3a 00 00 00 00
       0.0 0.0 0.0005510285 0.0
000060 00 00 00 00 00 00 00 00 4c 2f 82 3a a6 85 15 3a
       0.0 0.0 0.0009932308 0.0005703814
000070 75 b6 7b 39 00 00 00 00 00 00 00 00 0c af 18 3a
       0.00024005196 0.0 0.0 0.0005824424
000080 00 00 00 00 22 d0 df 3a 00 00 00 00 00 00 00 00
       0.0 0.0017075578 0.0 0.0
000090 00 00 00 00 00 00 00 00 e6 72 10 3a 00 00 00 00
       0.0 0.0 0.0005510285 0.0
0000a0 00 00 00 00 00 00 00 00 4c 2f 82 3a a6 85 15 3a
       0.0 0.0 0.0009932308 0.0005703814
0000b0 75 b6 7b 39 00 00 00 00 00 00 00 00 0c af 18 3a
       0.00024005196 0.0 0.0 0.0005824424
0000c0 00 00 00 00 22 d0 df 3a 00 00 00 00 00 00 00 00
       0.0 0.0017075578 0.0 0.0
0000d0 00 00 00 00 00 00 00 00 e6 72 10 3a 00 00 00 00
       0.0 0.0 0.0005510285 0.0
0000e0 00 00 00 00 00 00 00 00 4c 2f 82 3a a6 85 15 3a
       0.0 0.0 0.0009932308 0.0005703814
0000f0 75 b6 7b 39 00 00 00 00 00 00 00 00 0c af 18 3a
       0.00024005196 0.0 0.0 0.0005824424
000100 00 00 00 00 22 d0 df 3a 00 00 00 00 00 00 00 00
       0.0 0.0017075578 0.0 0.0
000110 00 00 00 00 00 00 00 00 e6 72 10 3a 00 00 00 00
       0.0 0.0 0.0005510285 0.0
000120 00 00 00 00 00 00 00 00 4c 2f 82 3a a6 85 15 3a
       0.0 0.0 0.0009932308 0.0005703814
000130 75 b6 7b 39 00 00 00 00 00 00 00 00 0c af 18 3a
       0.00024005196 0.0 0.0 0.0005824424
000140 00 00 00 00 22 d0 df 3a 00 00 00 00 00 00 00 00
       0.0 0.0017075578 0.0 0.0
000150 00 00 00 00 00 00 00 00 e6 72 10 3a 00 00 00 00
       0.0 0.0 0.0005510285 0.0
000160 00 00 00 00 00 00 00 00 4c 2f 82 3a a6 85 15 3a
       0.0 0.0 0.0009932308 0.0005703814
000170 75 b6 7b 39 00 00 00 00 00 00 00 00 0c af 18 3a
       0.00024005196 0.0 0.0 0.0005824424
000180 00 00 00 00 22 d0 df 3a 00 00 00 00 00 00 00 00
       0.0 0.0017075578 0.0 0.0
000190 00 00 00 00 00 00 00 00 e6 72 10 3a 00 00 00 00
       0.0 0.0 0.0005510285 0.0
0001a0 00 00 00 00 00 00 00 00 4c 2f 82 3a a6 85 15 3a
       0.0 0.0 0.0009932308 0.0005703814
0001b0 75 b6 7b 39 00 00 00 00 00 00 00 00 0c af 18 3a
       0.00024005196 0.0 0.0 0.0005824424
0001c0 00 00 00 00 22 d0 df 3a 00 00 00 00 00 00 00 00
       0.0 0.0017075578 0.0 0.0
0001d0 00 00 00 00 00 00 00 00 e6 72 10 3a 00 00 00 00
       0.0 0.0 0.0005510285 0.0
0001e0 00 00 00 00 00 00 00 00 4c 2f 82 3a a6 85 15 3a
       0.0 0.0 0.0009932308 0.0005703814
0001f0 75 b6 7b 39 00 00 00 00 00 00 00 00 0c af 18 3a
       0.00024005196 0.0 0.0 0.0005824424
000200 00 00 00 00 22 d0 df 3a 00 00 00 00 00 00 00 00
       0.0 0.0017075578 0.0 0.0
000210 00 00 00 00 00 00 00 00 e6 72 10 3a 00 00 00 00
       0.0 0.0 0.0005510285 0.0
000220 00 00 00 00 00 00 00 00 4c 2f 82 3a a6 85 15 3a
       0.0 0.0 0.0009932308 0.0005703814
000230 75 b6 7b 39 00 00 00 00 00 00 00 00 0c af 18 3a
       0.00024005196 0.0 0.0 0.0005824424
000240 00 00 00 00 22 d0 df 3a 00 00 00 00 00 00 00 00
       0.0 0.0017075578 0.0 0.0
000250 00 00 00 00 00 00 00 00 e6 72 10 3a 00 00 00 00
       0.0 0.0 0.0005510285 0.0
000260 00 00 00 00 00 00 00 00 4c 2f 82 3a a6 85 15 3a
       0.0 0.0 0.0009932308 0.0005703814
000270 75 b6 7b 39 00 00 00 00 00 00 00 00 0c af 18 3a
       0.00024005196 0.0 0.0 0.0005824424

exp_avg f4 [16]
000000 00 00 00 00 a0 da ab 3b 00 00 00 00 00 00 00 00
       0.0 0.005244568 0.0 0.0
000010 00 00 00 00 00 00 00 00 e2 6f d6 ba 00 00 00 00
       0.0 0.0 -0.0016360248 0.0
000020 00 00 00 00 00 00 00 00 7b a1 37 bb 40 1a ae 3a
       0.0 0.0 -0.0028019834 0.001328297
000030 c7 4c 28 bb 00 00 00 00 00 00 00 00 83 24 4c 3a
       -0.0025680528 0.0 0.0 0.0007787423

exp_avg_sq f4 [16]
000000 00 00 00 00 bb c8 23 3b 00 00 00 00 00 00 00 00
       0.0 0.002499147 0.0 0.0
000010 00 00 00 00 00 00 00 00 4b cc 0d 3a 00 00 00 00
       0.0 0.0 0.0005409165 0.0
000020 00 00 00 00 00 00 00 00 1a 20 92 3a 99 80 50 3a
       0.0 0.0 0.0011148483 0.0007953733
000030 fe f0 a3 39 00 00 00 00 00 00 00 00 ac f3 26 3a
       0.00031269336 0.0 0.0 0.00063687074

exp_avg f4 [16, 32]
000000 00 00 00 00 00 00 00 00 00 00 00 00 00 00 00 00
       0.0 0.0 0.0 0.0
000010 00 00 00 00 00 00 00 00 00 00 00 00 00 00 00 00
       0.0 0.0 0.0 0.0
000020 00 00 00 00 00 00 00 00 00 00 00 00 00 00 00 00
       0.0 0.0 0.0 0.0
000030 00 00 00 00 00 00 00 00 00 00 00 00 00 00 00 00
       0.0 0.0 0.0 0.0
000040 00 00 00 00 00 00 00 00 00 00 00 00 00 00 00 00
       0.0 0.0 0.0 0.0
000050 00 00 00 00 00 00 00 00 00 00 00 00 00 00 00 00
       0.0 0.0 0.0 0.0
000060 00 00 00 00 00 00 00 00 00 00 00 00 00 00 00 00
       0.0 0.0 0.0 0.0
000070 00 00 00 00 00 00 00 00 00 00 00 00 00 00 00 00
       0.0 0.0 0.0 0.0
000080 a0 d0 93 36 11 27 61 b8 00 00 00 00 f1 8a cc 38
       4.4052285e-06 -5.3680564e-05 0.0 9.753358e-05
000090 00 00 00 00 8f 7c b9 b8 04 00 00 00 4e 0a f4 b9
       0.0 -8.844688e-05 6e-45 -0.00046546984
0000a0 00 00 00 00 00 00 00 00 aa b4 02 39 04 00 00 00
       0.0 0.0 0.00012465069 6e-45
0000b0 00 00 00 00 00 00 00 00 c2 62 a5 b9 e3 26 a4 b8
       0.0 0.0 -0.00031544833 -7.8273726e-05
0000c0 e4 88 ea 30 00 00 00 00 0c 9f 7d 39 f6 83 16 ba
       1.7064647e-09 0.0 0.0002418721 -0.00057417096
0000d0 18 24 3e 39 04 00 00 00 00 00 00 00 00 00 00 00
       0.00018133258 6e-45 0.0 0.0
0000e0 00 00 00 00 89 b6 1b b9 00 00 00 00 e7 bd c6 37
       0.0 -0.00014849952 0.0 2.369187e-05
0000f0 2b a1 48 39 df b2 1e b9 4c 06 09 39 1c b9 03 b8
       0.00019133526 -0.00015134689 0.00013067684 -3.140523e-05
000100 00 00 00 00 00 00 00 00 00 00 00 00 00 00 00 00
       0.0 0.0 0.0 0.0
000110 00 00 00 00 00 00 00 00 00 00 00 00 00 00 00 00
       0.0 0.0 0.0 0.0
000120 00 00 00 00 00 00 00 00 00 00 00 00 00 00 00 00
       0.0 0.0 0.0 0.0
000130 00 00 00 00 00 00 00 00 00 00 00 00 00 00 00 00
       0.0 0.0 0.0 0.0
000140 00 00 00 00 00 00 00 00 00 00 00 00 00 00 00 00
       0.0 0.0 0.0 0.0
000150 00 00 00 00 00 00 00 00 00 00 00 00 00 00 00 00
       0.0 0.0 0.0 0.0
000160 00 00 00 00 00 00 00 00 00 00 00 00 00 00 00 00
       0.0 0.0 0.0 0.0
000170 00 00 00 00 00 00 00 00 00 00 00 00 00 00 00 00
       0.0 0.0 0.0 0.0
000180 00 00 00 00 00 00 00 00 00 00 00 00 00 00 00 00
       0.0 0.0 0.0 0.0
000190 00 00 00 00 00 00 00 00 00 00 00 00 00 00 00 00
       0.0 0.0 0.0 0.0
0001a0 00 00 00 00 00 00 00 00 00 00 00 00 00 00 00 00
       0.0 0.0 0.0 0.0
0001b0 00 00 00 00 00 00 00 00 00 00 00 00 00 00 00 00
       0.0 0.0 0.0 0.0
0001c0 00 00 00 00 00 00 00 00 00 00 00 00 00 00 00 00
       0.0 0.0 0.0 0.0
0001d0 00 00 00 00 00 00 00 00 00 00 00 00 00 00 00 00
       0.0 0.0 0.0 0.0
0001e0 00 00 00 00 00 00 00 00 00 00 00 00 00 00 00 00
       0.0 0.0 0.0 0.0
0001f0 00 00 00 00 00 00 00 00 00 00 00 00 00 00 00 00
       0.0 0.0 0.0 0.0
000200 00 00 00 00 00 00 00 00 00 00 00 00 00 00 00 00
       0.0 0.0 0.0 0.0
000210 00 00 00 00 00 00 00 00 00 00 00 00 00 00 00 00
       0.0 0.0 0.0 0.0
000220 00 00 00 00 00 00 00 00 00 00 00 00 00 00 00 00
       0.0 0.0 0.0 0.0
000230 00 00 00 00 00 00 00 00 00 00 00 00 00 00 00 00
       0.0 0.0 0.0 0.0
000240 00 00 00 00 00 00 00 00 00 00 00 00 00 00 00 00
       0.0 0.0 0.0 0.0
000250 00 00 00 00 00 00 00 00 00 00 00 00 00 00 00 00
       0.0 0.0 0.0 0.0
000260 00 00 00 00 00 00 00 00 00 00 00 00 00 00 00 00
       0.0 0.0 0.0 0.0
000270 00 00 00 00 00 00 00 00 00 00 00 00 00 00 00 00
       0.0 0.0 0.0 0.0
000280 00 00 00 00 00 00 00 00 00 00 00 00 00 00 00 00
       0.0 0.0 0.0 0.0
000290 00 00 00 00 00 00 00 00 00 00 00 00 00 00 00 00
       0.0 0.0 0.0 0.0
0002a0 00 00 00 00 00 00 00 00 00 00 00 00 00 00 00 00
       0.0 0.0 0.0 0.0
0002b0 00 00 00 00 00 00 00 00 00 00 00 00 00 00 00 00
       0.0 0.0 0.0 0.0
0002c0 00 00 00 00 00 00 00 00 00 00 00 00 00 00 00 00
       0.0 0.0 0.0 0.0
0002d0 00 00 00 00 00 00 00 00 00 00 00 00 00 00 00 00
       0.0 0.0 0.0 0.0
0002e0 00 00 00 00 00 00 00 00 00 00 00 00 00 00 00 00
       0.0 0.0 0.0 0.0
0002f0 00 00 00 00 00 00 00 00 00 00 00 00 00 00 00 00
       0.0 0.0 0.0 0.0
000300 04 35 09 b9 a6 68 ff 38 00 00 00 00 c2 4d 58 39
       -0.00013085088 0.0001217884 0.0 0.00020628332
000310 00 00 00 00 64 4b 6b b7 04 00 00 00 c5 36 9f ba
       0.0 -1.4024645e-05 6e-45 -0.001214706
000320 00 00 00 00 00 00 00 00 c2 1a 98 39 04 00 00 00
       0.0 0.0 0.00029011635 6e-45
000330 00 00 00 00 00 00 00 00 14 aa fc ba 67 cd 2f ba
       0.0 0.0 -0.0019276761 -0.00067063275
000340 13 57 87 32 00 00 00 00 05 f3 6b 3a d5 6a 5c bb
       1.5755665e-08 0.0 0.00090007513 -0.0033633013
000350 6e dd 1b 38 04 00 00 00 00 00 00 00 00 00 00 00
       3.7161102e-05 6e-45 0.0 0.0
000360 00 00 00 00 ae c0 7a ba 00 00 00 00 79 99 77 ba
       0.0 -0.00095654547 0.0 -0.00094451715
000370 1b 6d cb 39 94 b0 a3 ba cc 73 b4 39 fa e8 99 38
       0.00038800467 -0.0012488537 0.0003441855 7.339004e-05
000380 00 00 00 00 00 00 00 00 00 00 00 00 00 00 00 00
       0.0 0.0 0.0 0.0
000390 00 00 00 00 00 00 00 00 00 00 00 00 00 00 00 00
       0.0 0.0 0.0 0.0
0003a0 00 00 00 00 00 00 00 00 00 00 00 00 00 00 00 00
       0.0 0.0 0.0 0.0
0003b0 00 00 00 00 00 00 00 00 00 00 00 00 00 00 00 00
       0.0 0.0 0.0 0.0
0003c0 00 00 00 00 00 00 00 00 00 00 00 00 00 00 00 00
       0.0 0.0 0.0 0.0
0003d0 00 00 00 00 00 00 00 00 00 00 00 00 00 00 00 00
       0.0 0.0 0.0 0.0
0003e0 00 00 00 00 00 00 00 00 00 00 00 00 00 00 00 00
       0.0 0.0 0.0 0.0
0003f0 00 00 00 00 00 00 00 00 00 00 00 00 00 00 00 00
       0.0 0.0 0.0 0.0

exp_avg_sq f4 [16, 32]
000000 00 00 00 00 00 00 00 00 00 00 00 00 00 00 00 00
       0.0 0.0 0.0 0.0
000010 00 00 00 00 00 00 00 00 00 00 00 00 00 00 00 00
       0.0 0.0 0.0 0.0
000020 00 00 00 00 00 00 00 00 00 00 00 00 00 00 00 00
       0.0 0.0 0.0 0.0
000030 00 00 00 00 00 00 00 00 00 00 00 00 00 00 00 00
       0.0 0.0 0.0 0.0
000040 00 00 00 00 00 00 00 00 00 00 00 00 00 00 00 00
       0.0 0.0 0.0 0.0
000050 00 00 00 00 00 00 00 00 00 00 00 00 00 00 00 00
       0.0 0.0 0.0 0.0
000060 00 00 00 00 00 00 00 00 00 00 00 00 00 00 00 00
       0.0 0.0 0.0 0.0
000070 00 00 00 00 00 00 00 00 00 00 00 00 00 00 00 00
       0.0 0.0 0.0 0.0
000080 48 9b 66 36 a8 94 83 36 00 00 00 00 7b d9 77 35
       3.4363056e-06 3.92141e-06 0.0 9.2331146e-07
000090 00 00 00 00 1c f4 83 35 62 de 54 2c 41 8e 5d 38
       0.0 9.831306e-07 3.025046e-12 5.282299e-05
0000a0 00 00 00 00 00 00 00 00 6f 93 2f 36 62 95 42 29
       0.0 0.0 2.616285e-06 4.3206222e-14
0000b0 00 00 00 00 00 00 00 00 fd fc 1b 38 7a 69 1b 38
       0.0 0.0 3.7190493e-05 3.7053112e-05
0000c0 3d bf ca 2e 00 00 00 00 e1 3a 1e 35 d1 1a db 38
       9.219867e-11 0.0 5.8945267e-07 0.00010447729
0000d0 09 4a 80 35 9a 3e 21 2b 00 00 00 00 00 00 00 00
       9.55829e-07 5.728557e-13 0.0 0.0
0000e0 00 00 00 00 4b d7 db 37 00 00 00 00 7c 2a 45 38
       0.0 2.6207088e-05 0.0 4.7008027e-05
0000f0 53 8a 72 36 c6 c5 4f 38 29 fd 94 36 ef b7 d0 35
       3.6141325e-06 4.9536837e-05 4.4402154e-06 1.5550739e-06
000100 00 00 00 00 00 00 00 00 00 00 00 00 00 00 00 00
       0.0 0.0 0.0 0.0
000110 00 00 00 00 00 00 00 00 00 00 00 00 00 00 00 00
       0.0 0.0 0.0 0.0
000120 00 00 00 00 00 00 00 00 00 00 00 00 00 00 00 00
       0.0 0.0 0.0 0.0
000130 00 00 00 00 00 00 00 00 00 00 00 00 00 00 00 00
       0.0 0.0 0.0 0.0
000140 00 00 00 00 00 00 00 00 00 00 00 00 00 00 00 00
       0.0 0.0 0.0 0.0
000150 00 00 00 00 00 00 00 00 00 00 00 00 00 00 00 00
       0.0 0.0 0.0 0.0
000160 00 00 00 00 00 00 00 00 00 00 00 00 00 00 00 00
       0.0 0.0 0.0 0.0
000170 00 00 00 00 00 00 00 00 00 00 00 00 00 00 00 00
       0.0 0.0 0.0 0.0
000180 00 00 00 00 00 00 00 00 00 00 00 00 00 00 00 00
       0.0 0.0 0.0 0.0
000190 00 00 00 00 00 00 00 00 00 00 00 00 00 00 00 00
       0.0 0.0 0.0 0.0
0001a0 00 00 00 00 00 00 00 00 00 00 00 00 00 00 00 00
       0.0 0.0 0.0 0.0
0001b0 00 00 00 00 00 00 00 00 00 00 00 00 00 00 00 00
       0.0 0.0 0.0 0.0
0001c0 00 00 00 00 00 00 00 00 00 00 00 00 00 00 00 00
       0.0 0.0 0.0 0.0
0001d0 00 00 00 00 00 00 00 00 00 00 00 00 00 00 00 00
       0.0 0.0 0.0 0.0
0001e0 00 00 00 00 00 00 00 00 00 00 00 00 00 00 00 00
       0.0 0.0 0.0 0.0
0001f0 00 00 00 00 00 00 00 00 00 00 00 00 00 00 00 00
       0.0 0.0 0.0 0.0
000200 00 00 00 00 00 00 00 00 00 00 00 00 00 00 00 00
       0.0 0.0 0.0 0.0
000210 00 00 00 00 00 00 00 00 00 00 00 00 00 00 00 00
       0.0 0.0 0.0 0.0
000220 00 00 00 00 00 00 00 00 00 00 00 00 00 00 00 00
       0.0 0.0 0.0 0.0
000230 00 00 00 00 00 00 00 00 00 00 00 00 00 00 00 00
       0.0 0.0 0.0 0.0
000240 00 00 00 00 00 00 00 00 00 00 00 00 00 00 00 00
       0.0 0.0 0.0 0.0
000250 00 00 00 00 00 00 00 00 00 00 00 00 00 00 00 00
       0.0 0.0 0.0 0.0
000260 00 00 00 00 00 00 00 00 00 00 00 00 00 00 00 00
       0.0 0.0 0.0 0.0
000270 00 00 00 00 00 00 00 00 00 00 00 00 00 00 00 00
       0.0 0.0 0.0 0.0
000280 00 00 00 00 00 00 00 00 00 00 00 00 00 00 00 00
       0.0 0.0 0.0 0.0
000290 00 00 00 00 00 00 00 00 00 00 00 00 00 00 00 00
       0.0 0.0 0.0 0.0
0002a0 00 00 00 00 00 00 00 00 00 00 00 00 00 00 00 00
       0.0 0.0 0.0 0.0
0002b0 00 00 00 00 00 00 00 00 00 00 00 00 00 00 00 00
       0.0 0.0 0.0 0.0
0002c0 00 00 00 00 00 00 00 00 00 00 00 00 00 00 00 00
       0.0 0.0 0.0 0.0
0002d0 00 00 00 00 00 00 00 00 00 00 00 00 00 00 00 00
       0.0 0.0 0.0 0.0
0002e0 00 00 00 00 00 00 00 00 00 00 00 00 00 00 00 00
       0.0 0.0 0.0 0.0
0002f0 00 00 00 00 00 00 00 00 00 00 00 00 00 00 00 00
       0.0 0.0 0.0 0.0
000300 be b8 4a 37 d1 4f 60 37 00 00 00 00 63 b5 83 36
       1.2083152e-05 1.3370024e-05 0.0 3.9252204e-06
000310 00 00 00 00 39 71 63 36 37 24 46 2f a8 a6 c2 39
       0.0 3.389154e-06 1.8020861e-10 0.00037126732
000320 00 00 00 00 00 00 00 00 6d 21 33 37 da 35 4d 2c
       0.0 0.0 1.0677014e-05 2.9162146e-12
000330 00 00 00 00 00 00 00 00 6b 7e 96 39 6e a0 0f 39
       0.0 0.0 0.00028704418 0.00013697307
000340 ae e1 c4 31 00 00 00 00 10 fb 8c 37 b2 1d f4 39
       5.7300076e-09 0.0 1.680621e-05 0.0004656143
000350 84 f3 85 36 be d4 c7 2d 00 00 00 00 00 00 00 00
       3.992058e-06 2.2718157e-11 0.0 0.0
000360 00 00 00 00 21 53 cb 38 00 00 00 00 71 73 32 39
       0.0 9.695278e-05 0.0 0.00017018408
000370 4a 83 85 37 30 b4 41 39 32 f8 94 37 c1 ef b0 36
       1.5915972e-05 0.0001847304 1.775855e-05 5.2731198e-06
000380 00 00 00 00 00 00 00 00 00 00 00 00 00 00 00 00
       0.0 0.0 0.0 0.0
000390 00 00 00 00 00 00 00 00 00 00 00 00 00 00 00 00
       0.0 0.0 0.0 0.0
0003a0 00 00 00 00 00 00 00 00 00 00 00 00 00 00 00 00
       0.0 0.0 0.0 0.0
0003b0 00 00 00 00 00 00 00 00 00 00 00 00 00 00 00 00
       0.0 0.0 0.0 0.0
0003c0 00 00 00 00 00 00 00 00 00 00 00 00 00 00 00 00
       0.0 0.0 0.0 0.0
0003d0 00 00 00 00 00 00 00 00 00 00 00 00 00 00 00 00
       0.0 0.0 0.0 0.0
0003e0 00 00 00 00 00 00 00 00 00 00 00 00 00 00 00 00
       0.0 0.0 0.0 0.0
0003f0 00 00 00 00 00 00 00 00 00 00 00 00 00 00 00 00
       0.0 0.0 0.0 0.0

exp_avg f4 [32]
000000 ea 84 c6 b9 b7 14 14 3a 00 00 00 00 4b 4d 14 39
       -0.00037864532 0.00056488387 0.0 0.00014143174
000010 00 00 00 00 90 d1 b3 39 04 00 00 00 50 eb 0f bb
       0.0 0.00034297677 6e-45 -0.0021960326
000020 00 00 00 00 00 00 00 00 31 f1 85 39 04 00 00 00
       0.0 0.0 0.00025547438 6e-45
000030 00 00 00 00 00 00 00 00 ad 0f 11 bb 11 60 ae ba
       0.0 0.0 -0.0022134588 -0.0013303777
000040 75 1a 5b 32 00 00 00 00 54 df 08 3a f5 81 60 3b
       1.2753493e-08 0.0 0.0005221267 0.0034257148
000050 bc bb ec b9 04 00 00 00 00 00 00 00 00 00 00 00
       -0.000451533 6e-45 0.0 0.0
000060 00 00 00 00 b6 72 bc ba 00 00 00 00 78 51 f6 b8
       0.0 -0.0014377448 0.0 -0.00011745369
000070 ae 55 77 39 ca 5f f7 ba d1 59 c5 39 aa be b0 39
       0.00023587674 -0.0018873152 0.00037641687 0.00033711392

exp_avg_sq f4 [32]
000000 5c 89 90 37 8a fe 9b 37 00 00 00 00 0a 72 a9 36
       1.72301e-05 1.8595969e-05 0.0 5.0498684e-06
000010 00 00 00 00 dd 75 99 36 b5 d5 c7 2f 40 90 d8 39
       0.0 4.5734764e-06 3.6349737e-10 0.00041306205
000020 00 00 00 00 00 00 00 00 46 2d 6f 37 0d cf 7f 2c
       0.0 0.0 1.4256051e-05 3.6352616e-12
000030 00 00 00 00 00 00 00 00 cc 32 98 39 2c 87 46 39
       0.0 0.0 0.00029029546 0.00018933107
000040 24 55 e7 31 00 00 00 00 41 7a 30 37 e3 88 23 3a
       6.732664e-09 0.0 1.0518882e-05 0.0006238354
000050 c9 08 b1 36 19 e3 a4 2d 00 00 00 00 00 00 00 00
       5.276034e-06 1.8745493e-11 0.0 0.0
000060 00 00 00 00 e5 05 0c 39 00 00 00 00 4f 7a 7c 39
       0.0 0.00013353636 0.0 0.00024078156
000070 6e 59 b0 37 e9 da 85 39 1b 20 cb 37 73 0c f7 36
       2.1022479e-05 0.00025530838 2.4214436e-05 7.362623e-06

exp_avg f4 [32, 16]
000000 00 00 00 00 cc d4 f6 b8 7c 6f ad b8 3a d1 01 39
       0.0 -0.000117698306 -8.2700484e-05 0.00012380342
000010 b7 ef c5 38 fe 8f bc 38 45 ea 04 b9 5e 4f bf b8
       9.4383424e-05 8.991359e-05 -0.00012675773 -9.122373e-05
000020 00 00 00 00 00 00 00 00 04 00 00 00 82 b6 e8 38
       0.0 0.0 6e-45 0.00011096617
000030 ed a6 bf 38 9c 55 f6 38 00 00 00 00 23 f1 a5 38
       9.138682e-05 0.0001174614 0.0 7.912728e-05
000040 00 00 00 00 26 b7 14 b9 7d e8 d0 b8 e6 78 1c 39
       0.0 -0.00014182608 -9.961517e-05 0.00014922358
000050 2a 66 ee 38 d3 26 e3 38 70 b1 30 b9 95 56 fa b8
       0.00011367754 0.00010831435 -0.00016850769 -0.00011937056
000060 00 00 00 00 00 00 00 00 04 00 00 00 79 29 0c 39
       0.0 0.0 6e-45 0.0001336689
000070 5f 7c e7 38 8a 7b 14 39 00 00 00 00 85 1e c8 38
       0.00011038104 0.00014160402 0.0 9.542428e-05
000080 00 00 00 00 00 00 00 00 00 00 00 00 00 00 00 00
       0.0 0.0 0.0 0.0
000090 00 00 00 00 00 00 00 00 00 00 00 00 00 00 00 00
       0.0 0.0 0.0 0.0
0000a0 00 00 00 00 00 00 00 00 00 00 00 00 00 00 00 00
       0.0 0.0 0.0 0.0
0000b0 00 00 00 00 00 00 00 00 00 00 00 00 00 00 00 00
       0.0 0.0 0.0 0.0
0000c0 00 00 00 00 0e dc b7 b9 f3 2f 81 b9 01 76 c1 39
       0.0 -0.00035068433 -0.00024640522 0.00036899748
0000d0 11 6f 93 39 7b 8c 8c 39 45 76 3b b9 b6 c3 04 b9
       0.00028120776 0.00026807547 -0.00017877769 -0.00012661409
0000e0 00 00 00 00 00 00 00 00 04 00 00 00 23 56 ad 39
       0.0 0.0 6e-45 0.00033061308
0000f0 47 e5 8e 39 ca 80 b7 39 00 00 00 00 bd 3b 77 39
       0.00027255176 0.00035000435 0.0 0.0002357801
000100 00 00 00 00 00 00 00 00 00 00 00 00 00 00 00 00
       0.0 0.0 0.0 0.0
000110 00 00 00 00 00 00 00 00 00 00 00 00 00 00 00 00
       0.0 0.0 0.0 0.0
000120 00 00 00 00 00 00 00 00 00 00 00 00 00 00 00 00
       0.0 0.0 0.0 0.0
000130 00 00 00 00 00 00 00 00 00 00 00 00 00 00 00 00
       0.0 0.0 0.0 0.0
000140 00 00 00 00 a9 d2 ac b9 7d d0 72 b9 be 2a b6 39
       0.0 -0.0003296335 -0.00023156586 0.0003474559
000150 ed 8b 8a 39 78 8f 84 39 be d8 91 b9 e8 ff 4e b9
       0.00026425664 0.00025283895 -0.0002781804 -0.00019741023
000160 00 00 00 00 00 00 00 00 04 00 00 00 c0 e7 a2 39
       0.0 0.0 6e-45 0.00031071715
000170 a5 eb 86 39 3c 81 ac 39 00 00 00 00 3f 75 68 39
       0.0002573404 0.00032902684 0.0 0.00022168922
000180 00 00 00 00 04 00 00 00 04 00 00 00 00 00 00 00
       0.0 6e-45 6e-45 0.0
000190 04 00 00 80 04 00 00 00 00 00 00 00 00 00 00 00
       -6e-45 6e-45 0.0 0.0
0001a0 00 00 00 00 00 00 00 00 00 00 00 00 04 00 00 80
       0.0 0.0 0.0 -6e-45
0001b0 00 00 00 00 04 00 00 80 00 00 00 00 04 00 00 00
       0.0 -6e-45 0.0 6e-45
0001c0 00 00 00 00 ae cb a8 39 df 43 6d 39 ac b9 b2 b9
       0.0 0.0003219521 0.00022627365 -0.00034089142
0001d0 db 59 87 b9 5b e3 82 b9 bc b7 0d ba d4 fe cd b9
       -0.00025816154 -0.00024964925 -0.00054061017 -0.0003929051
0001e0 00 00 00 00 00 00 00 00 00 00 00 00 c5 22 9f b9
       0.0 0.0 0.0 -0.0003035275
0001f0 b6 e2 84 b9 0f 66 a8 b9 00 00 00 00 8f d6 62 b9
       -0.00025345915 -0.00032119497 0.0 -0.00021632969
000200 00 00 00 00 00 00 00 00 00 00 00 00 00 00 00 00
       0.0 0.0 0.0 0.0
000210 00 00 00 00 00 00 00 00 00 00 00 00 00 00 00 00
       0.0 0.0 0.0 0.0
000220 00 00 00 00 00 00 00 00 00 00 00 00 00 00 00 00
       0.0 0.0 0.0 0.0
000230 00 00 00 00 00 00 00 00 00 00 00 00 00 00 00 00
       0.0 0.0 0.0 0.0
000240 00 00 00 00 00 00 00 00 00 00 00 00 00 00 00 00
       0.0 0.0 0.0 0.0
000250 00 00 00 00 00 00 00 00 00 00 00 00 00 00 00 00
       0.0 0.0 0.0 0.0
000260 00 00 00 00 00 00 00 00 00 00 00 00 00 00 00 00
       0.0 0.0 0.0 0.0
000270 00 00 00 00 00 00 00 00 00 00 00 00 00 00 00 00
       0.0 0.0 0.0 0.0
000280 00 00 00 00 a7 b6 85 b9 8d e6 3b b9 af b0 8c 39
       0.0 -0.00025503823 -0.00017919597 0.0002683452
000290 7e 6f 56 39 0c 63 4c 39 30 d9 e6 b8 78 74 a2 b8
       0.00020450164 0.00019491854 -0.00011007709 -7.746456e-05
0002a0 00 00 00 00 00 00 00 00 04 00 00 00 7d 1e 7c 39
       0.0 0.0 6e-45 0.0002404395
0002b0 7e d1 4f 39 a7 73 85 39 00 00 00 00 77 cd 33 39
       0.000198191 0.00025453905 0.0 0.00017147312
0002c0 00 00 00 00 04 00 00 80 04 00 00 80 04 00 00 00
       0.0 -6e-45 -6e-45 6e-45
0002d0 04 00 00 00 04 00 00 00 04 00 00 80 04 00 00 80
       6e-45 6e-45 -6e-45 -6e-45
0002e0 00 00 00 00 00 00 00 00 00 00 00 00 04 00 00 00
       0.0 0.0 0.0 6e-45
0002f0 04 00 00 00 04 00 00 00 00 00 00 00 04 00 00 00
       6e-45 6e-45 0.0 6e-45
000300 00 00 00 00 00 00 00 00 00 00 00 00 00 00 00 00
       0.0 0.0 0.0 0.0
000310 00 00 00 00 00 00 00 00 00 00 00 00 00 00 00 00
       0.0 0.0 0.0 0.0
000320 00 00 00 00 00 00 00 00 00 00 00 00 00 00 00 00
       0.0 0.0 0.0 0.0
000330 00 00 00 00 00 00 00 00 00 00 00 00 00 00 00 00
       0.0 0.0 0.0 0.0
000340 00 00 00 00 00 00 00 00 00 00 00 00 00 00 00 00
       0.0 0.0 0.0 0.0
000350 00 00 00 00 00 00 00 00 00 00 00 00 00 00 00 00
       0.0 0.0 0.0 0.0
000360 00 00 00 00 00 00 00 00 00 00 00 00 00 00 00 00
       0.0 0.0 0.0 0.0
000370 00 00 00 00 00 00 00 00 00 00 00 00 00 00 00 00
       0.0 0.0 0.0 0.0
000380 00 00 00 00 42 11 af 39 c3 14 76 39 b1 5d b9 b9
       0.0 0.0003339146 0.00023468123 -0.00035355755
000390 57 61 8c b9 5d c0 87 b9 25 a6 15 ba aa 86 d9 b9
       -0.00026775405 -0.00025892528 -0.00057086564 -0.00041489798
0003a0 00 00 00 00 00 00 00 00 00 00 00 00 81 0c a5 b9
       0.0 0.0 0.0 -0.0003148057
0003b0 9e d2 89 b9 de a7 ae b9 00 00 00 00 38 44 6b b9
       -0.00026287598 -0.00033312937 0.0 -0.0002243676
0003c0 00 00 00 00 56 19 48 b9 59 9d 0c b9 75 7d 52 39
       0.0 -0.00019082925 -0.00013410057 0.00020073897
0003d0 88 7a 20 39 2f ea 18 39 d3 fc 14 b9 b6 aa d6 b8
       0.00015304436 0.0001458309 -0.00014208564 -0.000102361126
0003e0 00 00 00 00 00 00 00 00 04 00 00 00 85 aa 3c 39
       0.0 0.0 6e-45 0.000179926
0003f0 d6 54 1b 39 bf ad 47 39 00 00 00 00 23 80 06 39
       0.00014813556 0.00019042844 0.0 0.0001282697
