checkpoint/GCN/Tree-Grid.pth (torch, 139205 bytes, 27 tensors)

convs.0.weight f4 [10, 16]
00000000: 07ba 0a3f d606 f43e 0d10 df3e 1eb5 a8be
00000010: f884 bebe ef53 243e 35b4 f0be b34a 5cbd
00000020: 5084 173d 1cd3 a0be 6a1c 9bbe 312d a13e
00000030: 1ead 95be 502a 20be b8ba d2be de4d db3e
00000040: 7f05 0b3f 467b 943e 0aa8 8f3e e08e d1be
00000050: 9ef8 cb3e 0f53 9e3e 4a0e 93be e268 4d3e
00000060: 40e6 df3d d26a f3be 38c5 463e dd47 03be
00000070: f60d 473e 5c1c babe 8850 bd3e 6c54 eebe
00000080: e515 493e 1aae 89be 6fa1 e73e e094 f13c
00000090: acce ffbd 443a 0d3f 7429 383e 0770 ef3e
000000a0: 0ad7 3bbe a815 aebd 94e6 8b3e c8a6 913e
000000b0: aa12 c63e 4a1c 83be 9d0f 5c3e 309d 683e
000000c0: 9d6f e53d ec91 e03e 76b1 813e d0e6 02be
000000d0: 541d 9ebe 4ab2 38bd ce77 c1be 6025 05be
000000e0: 7271 17be 1a84 30be a0f0 ebbe abcf bbbd
000000f0: d690 9cbe 80bf b43e da30 d33e d0f8 74bd
00000100: 302d 5dbe fa40 9b3e ec25 8f3e 3075 663d
00000110: 0075 cf3d bb44 fbbd 7c24 373e 50aa f6bd
00000120: 1358 90be 14a6 463e 243a b6bd ce2e f93e
00000130: 6605 6c3e 8c31 c5be 0dd0 17be 28db bbbe
00000140: 5afe 5d3e ccde 76be 0b9f 81be 5854 a23d
00000150: 8045 cb3e b5f7 ff3e 96b1 38be 3ec6 903e
00000160: e047 21bc 3b8c e0be 540c 863e 2c62 94be
00000170: 3af1 d23e 0f4c 85be 6948 473e 8893 bfbe
00000180: e01e bbbe a6b0 77be b9c9 55be 34df e73e
00000190: 5c87 28be 494a 103f c80b e83e ee0e 1dbe
000001a0: ccc5 5d3e 8068 efbb c0c2 eebb 4075 a53e
000001b0: 8624 94be a425 a5be 49ad 2b3e 6062 f63c
000001c0: cb4f 063f 6617 aabe 04e2 9f3e 5436 acbd
000001d0: a368 a5be f1ec c3be b60a 97be 192e a13e
000001e0: af83 cdbe 3885 4d3e 9c22 88be 0b7d 953e
000001f0: 0e69 f63d 043b b3be da5d d93d 00a2 44bd
00000200: 6e9c 26bd 20ae 983c 79fd 183f a89d 00be
00000210: 2556 e3be 84b4 e93d b844 cdbe e2cc 6e3e
00000220: a4db b13e 580e 743e b83f c23d e5e2 8d3d
00000230: af8b c4bd 206e 52bd ce3f 9fbe 9cb4 0f3e
00000240: 824c 7a3d e499 e4be 5c02 07bd 48fe cb3d
00000250: 9493 443e 2649 e63d 901b a33d e15c d1bd
00000260: 4030 3f3e 2814 a03d b4da 6d3e 9c56 28bd
00000270: f8d1 d3be 60d8 c43c dd00 0e3e 3cd7 513e
0.54190105 0.47661465 0.43566933 -0.3295068 -0.37210822 0.16047643 -0.47012487 -0.053782176
0.036991417 -0.31411064 -0.30295116 0.3147979 -0.2923364 -0.15641141 -0.4115808 0.42832845
0.5430526 0.290003 0.2805789 -0.40929317 0.39838117 0.30922744 -0.2872184 0.20059541
0.109325886 -0.47542435 0.1941117 -0.12820382 0.1943892 -0.3634976 0.36975503 -0.46548784
0.19637258 -0.2689064 0.45240352 0.029489934 -0.124905914 0.5516703 0.17984563 0.46765158
-0.1834375 -0.08500224 0.27324355 0.28447556 0.38686115 -0.2560752 0.21490331 0.22716212
0.11202929 0.4386133 0.25330704 -0.1278336 -0.3088175 -0.045091905 -0.37786716 -0.13002539
-0.1478937 -0.17237893 -0.4608202 -0.09170469 -0.3057925 0.35302353 0.41248208 -0.0598076
-0.21599269 0.3032301 0.2795862 0.056264102 0.10129738 -0.12268969 0.17885011 -0.12044203
-0.28192195 0.19399291 -0.08897808 0.48668522 0.23048934 -0.38514364 -0.14825459 -0.3669064
0.21679059 -0.24108428 -0.25316653 0.079262435 0.39701462 0.49993673 -0.18036494 0.28276247
-0.0098437965 -0.43856987 0.2618128 -0.2898115 0.41199666 -0.2603459 0.19461216 -0.37417245
-0.36546993 -0.2418848 -0.20877732 0.45287478 -0.16457886 0.5636335 0.45321488 -0.15337726
0.21657485 -0.0073061585 -0.0072863996 0.32316017 -0.28934115 -0.3225528 0.16765322 0.030076206
0.52465504 -0.33220977 0.31227124 -0.084088 -0.32306394 -0.3826671 -0.2950036 0.31480482
-0.4013953 0.2007035 -0.26588905 0.29196963 0.12031756 -0.35005963 0.10613604 -0.048006058
-0.040676527 0.018637717 0.5976177 -0.12560141 -0.4440166 0.11411384 -0.4009149 0.23320344
0.34737885 0.23833597 0.0948481 0.06928042 -0.09596955 -0.051374555 -0.31103367 0.14033741
0.06110812 -0.4464866 -0.032961234 0.0996061 0.19196922 0.11244421 0.079642415 -0.10222793
0.1867075 0.078163445 0.2322796 -0.041098222 -0.4137113 0.024028957 0.13867517 0.20492262

convs.0.bias f4 [16]
00000000: f87f 24bf 0000 0000 cf75 69bf 0000 0000
00000010: 0000 0000 79bf 3abf 0000 0000 a382 b63e
00000020: 0000 0000 0000 0000 0000 0000 3871 0e3f
00000030: f1fa b6bc 0000 0000 08b2 5a3f 0000 0000
-0.64257765 0.0 -0.91195387 0.0 0.0 -0.72948414 0.0 0.35646543
0.0 0.0 0.0 0.5564151 -0.022336455 0.0 0.85427904 0.0

convs.1.weight f4 [16, 32]
00000000: 974f 8a3e d544 1d3e 8d4c 2d3e 0d21 3fbe
00000010: 3b3b 8e3e a6d7 2ebe 38c6 ab3e 6e89 4ebf
00000020: d35c e4bd a08f cbbd 6334 12bf 843c 8c3d
00000030: 5a76 503d 5437 493f d646 f63e c926 423f
00000040: 53a2 b73e 5446 27be 60ab f5bc a764 0fbf
00000050: eb6b 14be b0c8 d43c 409b 7c3c a8c5 74be
00000060: 14ff d5bd 9382 b8be 80b3 e23b b762 a63e
00000070: 6884 31bf 09e1 a1be 70fc c6bc 818e 373e
00000080: dc96 3fbe fa4d 97be 0026 a7ba 13b2 953e
00000090: 89dd 923e 6015 8a3d 219d 14be 5664 82be
000000a0: 3caa d2bd 5e6f 4c3e 00c7 07bb e2b4 60be
000000b0: fad7 90be 0004 33bd 933d a0be a7d5 843e
000000c0: a9e1 88be 2cde 1cbe 82a3 553e f56a 9b3e
000000d0: 4021 16bd ffe0 a83e a0f2 813c fc73 68be
000000e0: bccb 143e d895 863d 2021 f2bc a5fc 953e
000000f0: 80ec 2abb d62b a6be 14b0 ddbd df43 933e
00000100: 20b6 4a3d fb08 1abf 8c9a 213f 2e80 423e
00000110: f9c6 e03e 7fc1 6dbe cb5b 1f3f 977c 3abf
00000120: 9fc9 dfbd e661 0c3e a6a5 1bbf 1c0e 113e
00000130: e5de 3b3e 27ef 903f 7362 363f 8805 683f
00000140: add1 e0bd 4cfc eabd 2d14 91be 437d 87bf
00000150: b674 b1be 424f 063e eb4f 71be d854 0fbe
00000160: e74a a43e 698c fbbd b44f 2fbe b3dc 25be
00000170: 2108 49bf 77df b3be 9597 a8be 9bc5 0d3f
00000180: 0c41 c73d 6c80 cf3d 9ce6 43be 608e 59bc
00000190: 84de e73d 3caa ac3d d2cf 9fbe 27e3 b43e
000001a0: c041 42bd 982b 023d 9853 3b3d 11bc 9cbe
000001b0: dadf 233e a214 5d3e 14eb 05be 622c 3e3e
000001c0: c07e 9a3d 2ec8 333e 3a5a 643e 3020 d0bd
000001d0: 3e08 623e fca5 bfbd f31d 7bbe 2c9d 903d
000001e0: 65d1 11be e434 b3bd 70a5 b5bc ab16 9d3e
000001f0: 3845 8cbe 6280 363e 369a 3f3e 10ca 063e
00000200: d7d6 803e a818 7f3d 08c7 b1bd 89d1 813e
00000210: bac2 5f3e 76f6 2d3e c8d7 8bbd 0f74 ab3e
00000220: 3220 a2be aa13 6abe c47a b3bd eab5 493e
00000230: 52c7 d5bd 1079 3cbd 035d a23e 7655 433e
00000240: a12d a83e 1dee 9f3e a82c 313d fed4 a3be
00000250: f617 96be 000e 043a 28ec 083d c538 4ebe
00000260: f0ba 9b3d edab a73e b3e3 8c3e 18a9 1cbd
00000270: d004 cbbd 781d a7be 7064 fcbc b0da 123e
00000280: 9224 b2be 9925 ebbd e07e d73e 5918 913e
00000290: 61a6 123f 833e 4ebe d3b1 f33e 29f4 02be
000002a0: 164e 9ebe 1701 14be 5664 373e 4ab0 833e
000002b0: 0fe6 51bc 0b03 fe3e d406 4b3e ff2f e83e
000002c0: dcd3 9dbd db7a 9c3e 2502 a33e 7db0 75bf
000002d0: 3555 74be 7b0a a5be 6c0f 95be d28c a8be
000002e0: d02b 7fbd 9833 c0be 802e 4ebb c4ba be3e
000002f0: 10b2 ddbe 969f 80be 8c61 d93d a9f0 833e
00000300: 7044 82bd 9457 2dbe 0c27 f53d b866 36bd
00000310: 3f77 953e 9064 e43c faf1 493e 3092 79be
00000320: 18ff cd3d 3087 1ebd 00c4 1f3b 3bc3 81be
00000330: 409b d0bc 52f2 673e 8f9b 2bbe 3848 1bbd
00000340: 698b 933e 89e5 863e 8cfe f6bd 6c74 85be
00000350: 0316 9e3e c18c 34be 14be f43d 80bd 53bb
00000360: 705f 703d 80d6 2cbc a37e 8a3e 3a8d 523e
00000370: 9557 893e 78cd 60bd 32c7 243e a06f d0bd
00000380: 20d6 8cbc cab0 ca3e f922 b23e 69e9 9b3e
00000390: 30e1 94bd 4df3 4abe 7624 74be 282a c3bc
000003a0: ec9d 413d f3e9 aebe 0a3d 633e 7b16 6b3d
000003b0: b6cc c9bd 47f3 45be f034 fdbd daf8 8abe
000003c0: 5101 673e e7d0 553d d854 83be 9e88 5b3e
000003d0: 1ec5 00be b9ab 0cbe 2ed2 edbd 3a89 06be
000003e0: 000d 7f3d 8ff1 b7be e884 63bd 8137 35be
000003f0: 5fad 973e 4851 773d 2be9 5dbe 2e5f 37bd
0.27013847 0.15358289 0.16923733 -0.18664952 0.27779564 -0.17074451 0.33549666 -0.8067845
-0.11150517 -0.09939504 -0.57111186 0.0684748 0.05089412 0.7860005 0.4810092 0.7584043
0.3586603 -0.16335422 -0.029988945 -0.5601296 -0.14494292 0.025974602 0.015417874 -0.23903525
-0.10449043 -0.3603712 0.0069183707 0.32497188 -0.6934266 -0.31617 -0.024290293 0.17925455
-0.18709892 -0.2955168 -0.0012752414 0.29237422 0.28684643 0.06742358 -0.14513065 -0.25467175
-0.10286376 0.19964358 -0.0020717978 -0.21944001 -0.28289777 -0.043704987 -0.31296977 0.25944254
-0.26734665 -0.15319127 0.20863155 0.3035504 -0.036652803 0.32984158 0.015862763 -0.22700495
0.14530843 0.06571549 -0.02955681 0.29294315 -0.0026080906 -0.3245532 -0.108246 0.2876272
0.049490094 -0.60169953 0.63126445 0.18994209 0.43901804 -0.23218344 0.6224944 -0.7284636
-0.10927128 0.1370922 -0.60799634 0.14165539 0.18346746 1.1322984 0.7124397 0.9063344
-0.109774925 -0.11473903 -0.28335705 -1.0585102 -0.34659356 0.13116172 -0.23565643 -0.13997209
0.32088396 -0.122826405 -0.17120248 -0.16197471 -0.7852803 -0.35131428 -0.32928148 0.55379647
0.097292036 0.101319164 -0.19130939 -0.013278574 0.11321738 0.08430907 -0.31213242 0.35329553
-0.047425985 0.031779855 0.045734018 -0.30612233 0.16003361 0.21589902 -0.13077956 0.18571618
0.07543707 0.17556831 0.22300044 -0.10162389 0.22073457 -0.09357831 -0.24523143 0.07061228
-0.14240034 -0.087503225 -0.022173613 0.30681357 -0.2739656 0.17822412 0.1871117 0.13163018
0.2516391 0.062279373 -0.0868054 0.25355175 0.21851626 0.16988549 -0.068282664 0.33486983
-0.31665188 -0.22859064 -0.0876365 0.19698301 -0.10438408 -0.04601389 0.31711587 0.1907557
0.32847312 0.31236354 0.04325548 -0.31998438 -0.29315156 0.00050374866 0.03342834 -0.20138843
0.07604015 0.32748356 0.2751747 -0.038247198 -0.09913027 -0.3263967 -0.030809611 0.14341235
-0.34793526 -0.114817806 0.42088985 0.28338888 0.57285124 -0.20141034 0.47596607 -0.12788452
-0.3091895 -0.1445354 0.17909369 0.25720435 -0.012811198 0.49611697 0.19826823 0.45349118
-0.077064246 0.3056248 0.31837574 -0.95972425 -0.23860629 -0.32234558 -0.29113328 -0.32919937
-0.062297642 -0.37539363 -0.0031460822 0.37251866 -0.43299913 -0.25121754 0.10614309 0.25769547
-0.0636071 -0.1692794 0.11970338 -0.044531554 0.2919254 0.027879983 0.19721213 -0.24372172
0.10058421 -0.038703144 0.00243783 -0.25344262 -0.025464654 0.22651032 -0.1675856 -0.03791067
0.288173 0.26346996 -0.1206027 -0.26065385 0.3087617 -0.17631818 0.11950317 -0.0032308996
0.058684766 -0.010549188 0.2704974 0.20561686 0.26824632 -0.05488345 0.16091612 -0.10177541
-0.017191947 0.39588004 0.34792307 0.30451515 -0.072695136 -0.19819374 -0.23842034 -0.023823813
0.047269747 -0.34162864 0.22191253 0.057394486 -0.09853499 -0.19331084 -0.12363613 -0.27142984
0.22559096 0.052201178 -0.25650668 0.21438834 -0.12575194 -0.13737382 -0.11612354 -0.13138285
0.062268257 -0.35926482 -0.05554667 -0.17696954 0.2962446 0.06038025 -0.21670978 -0.044768505

convs.1.bias f4 [32]
00000000: 0000 0000 c554 d33d be2c e33c 8054 8a3d
00000010: 33b2 94be 0000 0000 3851 14be fad7 b7be
00000020: 219d 10be 0000 0000 9cb3 713e fa78 863e
00000030: 8c81 b8ba 4268 b73e 8ed3 8a3e 1305 00bc
00000040: f362 a2bd ac28 f33c 0000 0000 1b6e 56bf
00000050: 0000 0000 0000 0000 0000 0000 0000 0000
00000060: 0000 0000 0a6d 4bbd 0000 0000 c015 97bd
00000070: e412 ccbe 0000 0000 0000 0000 6d18 b43e
0.0 0.10318903 0.027731296 0.06754398 -0.29042205 0.0 -0.14484107 -0.35906965
-0.1412244 0.0 0.23603672 0.26264173 -0.0014076694 0.3582173 0.27114528 -0.00781371
-0.07929029 0.02968248 0.0 -0.8376176 0.0 0.0 0.0 0.0
0.0 -0.049664535 0.0 -0.07377195 -0.39858162 0.0 0.0 0.35174885

convs.2.weight f4 [32, 16]
00000000: 9db5 833e d054 57bd 7b08 993e f7b8 2abe
00000010: ecae 7ebe 6c4b 9f3d 80c1 81bb b1d5 a43e
00000020: c9e4 a13e f34c 01be 6005 12be 4004 d23d
00000030: 1535 8d3e a086 d23c 0038 5f39 4dbc 983e
00000040: 43fa 13bf e43f 823d 07fe cc3d ebb8 0bbf
00000050: a529 d33e d188 13bf 1061 2c3f cf4e 093d
00000060: f3d4 e2bc 6bde c23d 39e7 2fbf e761 623e
00000070: 210f debd efc6 2a3d 64e3 68be 4198 923d
00000080: f815 893e 6bde 4b3e c196 723d bb40 383e
00000090: 2bc2 113f fe54 ee3d 4596 1d3f 871a 2abd
000000a0: fc71 d13d 7d64 983e ae58 b03e 37cd 72be
000000b0: ca61 eb3e fb94 72bd 084e 03be f9df 7b3e
000000c0: ea03 4dbe 1bb9 76bd 5bf5 8fbe 8629 b4be
000000d0: 6a99 9f3e 5b92 ab3e 6a10 7fbd 2d68 aabe
000000e0: 224f 323d fe8f c33e d63b 333e 59f1 70be
000000f0: 9097 183e 4a6f ea3e 6f62 0e3e fcb5 64be
00000100: eba8 833e 0225 f63e 7922 9fbe 24f9 323e
00000110: 445a 33bf 25eb f7bd b26e a63f 079d a53e
00000120: 89bd 7fbf 99df abbe 0e4e 473f 0f20 983e
00000130: df82 713f a5af 76bf 410b 8a3e 4cc1 43bf
00000140: 7479 f73d 746c 7ebe 4a1d 693e a6c0 463e
00000150: 38b2 c4bd 21ac abbe 0c16 88be e13e 11be
00000160: 4a81 2e3e 5083 2cbd cf5c 9b3e e878 5bbd
00000170: c85a 6cbe 61bc 63be 457c 29be 986b c23d
00000180: 5bac a73e 3be8 bc3e 24ec 863e af16 a3bd
00000190: d922 dd3e bca2 4c3e c968 c53e 5276 8b3e
000001a0: cea5 eebe f6b7 963e 3308 e83e 1b03 92be
000001b0: 31e3 313f 68bd 50be 5d48 b5bd f06f 4cbd
000001c0: 4c6e 5d3f 55f8 5c3f 701f cfbd c34e 973f
000001d0: f86a 02bf 016c 603f a1f4 8f3f 85e9 55be
000001e0: 6d65 9cbf 5ed5 48bf 84cc 0b3f 5d50 b63f
000001f0: 880d f0be 8945 89bf ee1d 5e3e 96d0 94bf
00000200: 5d0d 02bf 26dd 663e 0971 1cbc ae24 0fbf
00000210: ceda aebe c34b 26bf 1aee d43e 6077 c0bc
00000220: 09eb c63e 924c 27bd 782e a9be daf3 023e
00000230: ac23 c3be f92b a33e c84e 633d bce8 653e
00000240: 808b 65be fb43 ab3e ddfe 2dbe cb69 adbe
00000250: 71c3 b1be 2b02 a83e d85d 94be f095 9d3c
00000260: e19f 8f3e b883 f13d 62be 9cbe 98f8 a4be
00000270: 400d afbc 0776 b43e b83f 0c3e 00ae 903b
00000280: 1959 2dbf 6d48 3d3e 0388 b73d 9a1d 7ebe
00000290: fab6 29bd 0707 eabe eaf1 1f3f 3aaf e43d
000002a0: 19b0 123e 1352 5b3d 1903 55bf 9a51 9abe
000002b0: 95a0 07bf 679b ee3e 8115 26be 793f a93e
000002c0: f01e 9cbc 54aa c0bd 93ed aebe 113e 023f
000002d0: a7cf d43e bc55 a63d 159b 5cbe c045 803e
000002e0: 09b5 0d3e 39a5 243e 5dc1 18bc 9d37 313e
000002f0: 7e0a 643e 4d56 1b3f 9cae 81be cada c93d
00000300: d927 b1be 373b 72be fef1 6cbe 4e4f c7bd
00000310: efbc 103e 5e0f 11be 2181 883e 42e8 82be
00000320: 8194 173e d596 fabd 5dcd cd3d fea2 483e
00000330: e35c 8ebd a309 1fbe 70fd 8bbe adff 3dbe
00000340: b323 3b3f 6678 1cbf e447 783d fa10 6c3f
00000350: 279d 813f a179 333f 5ca6 47bf ab4f 563c
00000360: 2062 273f b752 533f 6aa3 6a3f e2d3 30bf
00000370: e6de 973f c129 6d3f b15a c43d 6696 2d3f
00000380: e733 ea3d 813f 803d 236e 263d 30e4 0b3f
00000390: cdbd 2e3f 17ae 233f 9702 09bf ebbf 30bd
000003a0: 3b0d 543e f072 c03e d00e 143e 625c 82bd
000003b0: 3407 403f 0ad7 303f c606 103d e108 603e
000003c0: 06eb 443f 2ca3 6b3f 3c56 8f3e f1bc fb3e
000003d0: b885 b0bf 7465 573f 5c28 343f 6769 0bbe
000003e0: 337b 83bf 09ac 1dbf 7d9f d73e c002 043e
000003f0: e065 803f 8237 4fbf 635b ffbd 02fe 80bf
0.25724497 -0.052571118 0.29889283 -0.16672121 -0.24871415 0.077780575 -0.0039598346 0.32194284
0.31619862 -0.1262701 -0.14259863 0.10254717 0.2757956 0.02569896 0.00021287799 0.29831162
-0.57803744 0.063598424 0.10009389 -0.5457904 0.4124271 -0.5763064 0.67335606 0.033522423
-0.027689433 0.09515079 -0.6871219 0.2210766 -0.10842729 0.041693624 -0.22742993 0.071579464
0.26774573 0.19909064 0.0592258 0.17993443 0.569369 0.11637305 0.6155742 -0.041529205
0.10226819 0.29764166 0.34442657 -0.23711096 0.45973045 -0.05922411 -0.12822735 0.24597158
-0.20021024 -0.060235124 -0.2811688 -0.3518793 0.31171733 0.33510098 -0.062271513 -0.33282605
0.0435325 0.38195795 0.17503294 -0.23529567 0.14901567 0.45788032 0.13904737 -0.22335047
0.25714812 0.4807511 -0.31080988 0.17477852 -0.7005961 -0.12105397 1.3002532 0.32346365
-0.9989858 -0.3356903 0.77853477 0.2971196 0.9434032 -0.9636176 0.2696171 -0.7646682
0.12083712 -0.24846059 0.22765079 0.19409427 -0.09604305 -0.3352976 -0.2657932 -0.14184143
0.17041507 -0.042117417 0.30344245 -0.053582102 -0.23081505 -0.2223983 -0.16551311 0.09493178
0.32748684 0.36895928 0.26352036 -0.07963311 0.4319065 0.19983953 0.38556507 0.2723871
-0.46610874 0.29437226 0.45318756 -0.28517994 0.6948729 -0.20384753 -0.08851693 -0.04991144
0.86496425 0.86316425 -0.10113418 1.1820911 -0.5094447 0.876648 1.124653 -0.20889862
-1.2218453 -0.7845057 0.5460894 1.4243275 -0.46885324 -1.0724345 0.21691105 -1.1626155
-0.5080164 0.22545299 -0.009548434 -0.55915344 -0.3415131 -0.64959353 0.41587907 -0.023494422
0.38851193 -0.040844508 -0.33043265 0.12788334 -0.38113153 0.31869486 0.055495054 0.22452062
-0.22416496 0.33450302 -0.16991754 -0.33869776 -0.34719422 0.32814154 -0.28977847 0.019236535
0.28051665 0.117927015 -0.30614 -0.32220912 -0.021368623 0.35246298 0.13696182 0.0044152737
-0.6771408 0.1848466 0.08961489 -0.2481598 -0.041434266 -0.45708486 0.62478507 0.11166234
0.14324988 0.05354507 -0.8320785 -0.30140382 -0.52979404 0.46602938 -0.1621914 0.33056238
-0.01905772 -0.094074875 -0.3416563 0.50875956 0.41564676 0.08121821 -0.21543534 0.25053215
0.1383859 0.16078652 -0.009323445 0.17306371 0.22269627 0.6067856 -0.2532853 0.09856184
-0.34600714 -0.23655401 -0.23139188 -0.09731923 0.14134572 -0.14166018 0.26661018 -0.25567824
0.14802743 -0.122358 0.100489356 0.19593427 -0.069513105 -0.1553102 -0.27341795 -0.18554564
0.7310135 -0.61121213 0.060615435 0.92213404 1.0126084 0.70107466 -0.7798822 0.013080518
0.653841 0.8254809 0.916556 -0.6907331 1.1864898 0.92641836 0.095876105 0.67807615
0.11435681 0.062621124 0.04063238 0.5464506 0.68258363 0.63937515 -0.53519577 -0.043151777
0.20708172 0.3758769 0.14458776 -0.06365277 0.7501099 0.69078124 0.03516271 0.21878387
0.7692112 0.92045856 0.2799548 0.49167588 -1.3790808 0.8413918 0.70374084 -0.13614427
-1.0271972 -0.6159063 0.42113867 0.12891674 1.003109 -0.80944073 -0.124686025 -1.0077517

convs.2.bias f4 [16]
00000000: c08e 9dbe 17f6 2e3d b802 18bd c79f a3be
00000010: aafb 2bbe 332b 3abe e379 2d3e 8020 8cbc
00000020: 8f17 e43b ac8e 80bd 2ce7 ccbe 362f 0abc
00000030: f532 33bf 418d 18bd d668 29bc 1435 a9bd
-0.30772972 0.04271516 -0.037111968 -0.31957838 -0.16795221 -0.18180542 0.16941027 -0.017105341
0.006960816 -0.062772125 -0.4002012 -0.0084341075 -0.6999963 -0.037244085 -0.010339936 -0.08262077

classify.weight f4 [2, 16]
00000000: ee70 183f 9451 103f f136 4dbd 3481 043f
00000010: ba7e 81bf 02ad f43e 2e3d 873f c7d2 223d
00000020: 7d95 dfbe 49f6 d1be 1014 2e3f b413 673e
00000030: a2ed 3a3f d778 89bf 9cff 703e 4eba e8be
00000040: 0750 e6be d492 fdbe 14a4 11bc 5227 42bf
00000050: df32 9f3f 78b7 4dbf 5e4c 42bf 225c a3bd
00000060: 6a59 9b3e c506 963e fdb1 20bf 55a1 a3be
00000070: 241c 57bf 7642 3d3f 7018 13be 6951 143f
0.5954732 0.5637448 -0.050101224 0.5175965 -1.0116799 0.47788244 1.0565546 0.039751794
-0.43668738 -0.41008213 0.6799936 0.2256611 0.7301885 -1.0740002 0.23535007 -0.4545464
-0.4498293 -0.49526083 -0.008889217 -0.7584125 1.24374 -0.80358076 -0.7589778 -0.07976557
0.30341655 0.2930204 -0.6277159 -0.31959024 -0.84027314 0.73929536 -0.14364791 0.5793672

classify.bias f4 [2]
00000000: 24d0 9b3e 5eed 7dbd
0.30432236 -0.06199395

exp_avg f4 [10, 16]
00000000: df88 463a 0000 0000 bf1c 433a 0000 0000
00000010: 0000 0000 721a 3c3a 0000 0000 7b6a 06ba
00000020: 0000 0000 0000 0000 0000 0000 62d8 13ba
00000030: 0400 0000 0000 0000 38fe 37ba 0000 0000
00000040: df88 463a 0000 0000 bf1c 433a 0000 0000
00000050: 0000 0000 721a 3c3a 0000 0000 7b6a 06ba
00000060: 0000 0000 0000 0000 0000 0000 62d8 13ba
00000070: 0400 0000 0000 0000 38fe 37ba 0000 0000
00000080: df88 463a 0000 0000 bf1c 433a 0000 0000
00000090: 0000 0000 721a 3c3a 0000 0000 7b6a 06ba
000000a0: 0000 0000 0000 0000 0000 0000 62d8 13ba
000000b0: 0400 0000 0000 0000 38fe 37ba 0000 0000
000000c0: df88 463a 0000 0000 bf1c 433a 0000 0000
000000d0: 0000 0000 721a 3c3a 0000 0000 7b6a 06ba
000000e0: 0000 0000 0000 0000 0000 0000 62d8 13ba
000000f0: 0400 0000 0000 0000 38fe 37ba 0000 0000
00000100: df88 463a 0000 0000 bf1c 433a 0000 0000
00000110: 0000 0000 721a 3c3a 0000 0000 7b6a 06ba
00000120: 0000 0000 0000 0000 0000 0000 62d8 13ba
00000130: 0400 0000 0000 0000 38fe 37ba 0000 0000
00000140: df88 463a 0000 0000 bf1c 433a 0000 0000
00000150: 0000 0000 721a 3c3a 0000 0000 7b6a 06ba
00000160: 0000 0000 0000 0000 0000 0000 62d8 13ba
00000170: 0400 0000 0000 0000 38fe 37ba 0000 0000
00000180: df88 463a 0000 0000 bf1c 433a 0000 0000
00000190: 0000 0000 721a 3c3a 0000 0000 7b6a 06ba
000001a0: 0000 0000 0000 0000 0000 0000 62d8 13ba
000001b0: 0400 0000 0000 0000 38fe 37ba 0000 0000
000001c0: df88 463a 0000 0000 bf1c 433a 0000 0000
000001d0: 0000 0000 721a 3c3a 0000 0000 7b6a 06ba
000001e0: 0000 0000 0000 0000 0000 0000 62d8 13ba
000001f0: 0400 0000 0000 0000 38fe 37ba 0000 0000
00000200: df88 463a 0000 0000 bf1c 433a 0000 0000
00000210: 0000 0000 721a 3c3a 0000 0000 7b6a 06ba
00000220: 0000 0000 0000 0000 0000 0000 62d8 13ba
00000230: 0400 0000 0000 0000 38fe 37ba 0000 0000
00000240: df88 463a 0000 0000 bf1c 433a 0000 0000
00000250: 0000 0000 721a 3c3a 0000 0000 7b6a 06ba
00000260: 0000 0000 0000 0000 0000 0000 62d8 13ba
00000270: 0400 0000 0000 0000 38fe 37ba 0000 0000
0.0007573496 0.0 0.0007442943 0.0 0.0 0.00071755715 0.0 -0.0005127561
0.0 0.0 0.0 -0.00056398485 6e-45 0.0 -0.00070187775 0.0
0.0007573496 0.0 0.0007442943 0.0 0.0 0.00071755715 0.0 -0.0005127561
0.0 0.0 0.0 -0.00056398485 6e-45 0.0 -0.00070187775 0.0
0.0007573496 0.0 0.0007442943 0.0 0.0 0.00071755715 0.0 -0.0005127561
0.0 0.0 0.0 -0.00056398485 6e-45 0.0 -0.00070187775 0.0
0.0007573496 0.0 0.0007442943 0.0 0.0 0.00071755715 0.0 -0.0005127561
0.0 0.0 0.0 -0.00056398485 6e-45 0.0 -0.00070187775 0.0
0.0007573496 0.0 0.0007442943 0.0 0.0 0.00071755715 0.0 -0.0005127561
0.0 0.0 0.0 -0.00056398485 6e-45 0.0 -0.00070187775 0.0
0.0007573496 0.0 0.0007442943 0.0 0.0 0.00071755715 0.0 -0.0005127561
0.0 0.0 0.0 -0.00056398485 6e-45 0.0 -0.00070187775 0.0
0.0007573496 0.0 0.0007442943 0.0 0.0 0.00071755715 0.0 -0.0005127561
0.0 0.0 0.0 -0.00056398485 6e-45 0.0 -0.00070187775 0.0
0.0007573496 0.0 0.0007442943 0.0 0.0 0.00071755715 0.0 -0.0005127561
0.0 0.0 0.0 -0.00056398485 6e-45 0.0 -0.00070187775 0.0
0.0007573496 0.0 0.0007442943 0.0 0.0 0.00071755715 0.0 -0.0005127561
0.0 0.0 0.0 -0.00056398485 6e-45 0.0 -0.00070187775 0.0
0.0007573496 0.0 0.0007442943 0.0 0.0 0.00071755715 0.0 -0.0005127561
0.0 0.0 0.0 -0.00056398485 6e-45 0.0 -0.00070187775 0.0

exp_avg_sq f4 [10, 16]
00000000: 3ac7 ec39 0000 0000 190a 3c3a 0000 0000
00000010: 0000 0000 0a9a 9e39 0000 0000 2b02 d638
00000020: 0000 0000 0000 0000 0000 0000 739f 0739
00000030: 22ff cc33 0000 0000 9eba c739 0000 0000
00000040: 3ac7 ec39 0000 0000 190a 3c3a 0000 0000
00000050: 0000 0000 0a9a 9e39 0000 0000 2b02 d638
00000060: 0000 0000 0000 0000 0000 0000 739f 0739
00000070: 22ff cc33 0000 0000 9eba c739 0000 0000
00000080: 3ac7 ec39 0000 0000 190a 3c3a 0000 0000
00000090: 0000 0000 0a9a 9e39 0000 0000 2b02 d638
000000a0: 0000 0000 0000 0000 0000 0000 739f 0739
000000b0: 22ff cc33 0000 0000 9eba c739 0000 0000
000000c0: 3ac7 ec39 0000 0000 190a 3c3a 0000 0000
000000d0: 0000 0000 0a9a 9e39 0000 0000 2b02 d638
000000e0: 0000 0000 0000 0000 0000 0000 739f 0739
000000f0: 22ff cc33 0000 0000 9eba c739 0000 0000
00000100: 3ac7 ec39 0000 0000 190a 3c3a 0000 0000
00000110: 0000 0000 0a9a 9e39 0000 0000 2b02 d638
00000120: 0000 0000 0000 0000 0000 0000 739f 0739
00000130: 22ff cc33 0000 0000 9eba c739 0000 0000
00000140: 3ac7 ec39 0000 0000 190a 3c3a 0000 0000
00000150: 0000 0000 0a9a 9e39 0000 0000 2b02 d638
00000160: 0000 0000 0000 0000 0000 0000 739f 0739
00000170: 22ff cc33 0000 0000 9eba c739 0000 0000
00000180: 3ac7 ec39 0000 0000 190a 3c3a 0000 0000
00000190: 0000 0000 0a9a 9e39 0000 0000 2b02 d638
000001a0: 0000 0000 0000 0000 0000 0000 739f 0739
000001b0: 22ff cc33 0000 0000 9eba c739 0000 0000
000001c0: 3ac7 ec39 0000 0000 190a 3c3a 0000 0000
000001d0: 0000 0000 0a9a 9e39 0000 0000 2b02 d638
000001e0: 0000 0000 0000 0000 0000 0000 739f 0739
000001f0: 22ff cc33 0000 0000 9eba c739 0000 0000
00000200: 3ac7 ec39 0000 0000 190a 3c3a 0000 0000
00000210: 0000 0000 0a9a 9e39 0000 0000 2b02 d638
00000220: 0000 0000 0000 0000 0000 0000 739f 0739
00000230: 22ff cc33 0000 0000 9eba c739 0000 0000
00000240: 3ac7 ec39 0000 0000 190a 3c3a 0000 0000
00000250: 0000 0000 0a9a 9e39 0000 0000 2b02 d638
00000260: 0000 0000 0000 0000 0000 0000 739f 0739
00000270: 22ff cc33 0000 0000 9eba c739 0000 0000
0.00045161863 0.0 0.00071731355 0.0 0.0 0.00030250876 0.0 0.00010204719
0.0 0.0 0.0 0.00012934003 9.545899e-08 0.0 0.00038095278 0.0
0.00045161863 0.0 0.00071731355 0.0 0.0 0.00030250876 0.0 0.00010204719
0.0 0.0 0.0 0.00012934003 9.545899e-08 0.0 0.00038095278 0.0
0.00045161863 0.0 0.00071731355 0.0 0.0 0.00030250876 0.0 0.00010204719
0.0 0.0 0.0 0.00012934003 9.545899e-08 0.0 0.00038095278 0.0
0.00045161863 0.0 0.00071731355 0.0 0.0 0.00030250876 0.0 0.00010204719
0.0 0.0 0.0 0.00012934003 9.545899e-08 0.0 0.00038095278 0.0
0.00045161863 0.0 0.00071731355 0.0 0.0 0.00030250876 0.0 0.00010204719
0.0 0.0 0.0 0.00012934003 9.545899e-08 0.0 0.00038095278 0.0
0.00045161863 0.0 0.00071731355 0.0 0.0 0.00030250876 0.0 0.00010204719
0.0 0.0 0.0 0.00012934003 9.545899e-08 0.0 0.00038095278 0.0
0.00045161863 0.0 0.00071731355 0.0 0.0 0.00030250876 0.0 0.00010204719
0.0 0.0 0.0 0.00012934003 9.545899e-08 0.0 0.00038095278 0.0
0.00045161863 0.0 0.00071731355 0.0 0.0 0.00030250876 0.0 0.00010204719
0.0 0.0 0.0 0.00012934003 9.545899e-08 0.0 0.00038095278 0.0
0.00045161863 0.0 0.00071731355 0.0 0.0 0.00030250876 0.0 0.00010204719
0.0 0.0 0.0 0.00012934003 9.545899e-08 0.0 0.00038095278 0.0
0.00045161863 0.0 0.00071731355 0.0 0.0 0.00030250876 0.0 0.00010204719
0.0 0.0 0.0 0.00012934003 9.545899e-08 0.0 0.00038095278 0.0

exp_avg f4 [16]
00000000: bfb0 813a 0000 0000 2627 693a 0000 0000
00000010: 0000 0000 4ba1 823a 0000 0000 b0a3 f8b9
00000020: 0000 0000 0000 0000 0000 0000 fe4e 19ba
00000030: 0400 0000 0000 0000 7b21 aaba 0000 0000
0.0009894593 0.0 0.0008894078 0.0 0.0 0.0009966282 0.0 -0.00047424203
0.0 0.0 0.0 -0.00058482576 6e-45 0.0 -0.0012979949 0.0

exp_avg_sq f4 [16]
00000000: 8907 e639 0000 0000 4a38 483a 0000 0000
00000010: 0000 0000 6f7e 9739 0000 0000 fea6 be38
00000020: 0000 0000 0000 0000 0000 0000 058c 0639
00000030: 2605 b733 0000 0000 0a4a e539 0000 0000
0.00043874633 0.0 0.0007637782 0.0 0.0 0.00028895165 0.0 9.091011e-05
0.0 0.0 0.0 0.00012831397 8.522538e-08 0.0 0.00043733447 0.0

exp_avg f4 [16, 32]
00000000: 0000 0000 ed4d 52b9 519b 2e37 bdfe 57b9
00000010: 7d02 da39 0000 0000 f85e c738 ba51 3439
00000020: f8c5 aab8 0000 0000 72d4 46b9 b490 13b9
00000030: 0400 0000 00c8 eab9 4439 8cb9 4390 ba3a
00000040: 9af0 fcb8 cbfd 75b8 0000 0000 d5ac 16b9
00000050: 0000 0000 0000 0000 0000 0000 0000 0000
00000060: 0000 0000 9eef fc09 0000 0000 1102 ae38
00000070: 1ca2 5e39 0000 0000 0000 0000 99e6 09ba
00000080: 0000 0000 0000 0000 0000 0000 0000 0000
00000090: 0000 0000 0000 0000 0000 0000 0000 0000
000000a0: 0000 0000 0000 0000 0000 0000 0000 0000
000000b0: 0000 0000 0000 0000 0000 0000 0000 0000
000000c0: 0000 0000 0000 0000 0000 0000 0000 0000
000000d0: 0000 0000 0000 0000 0000 0000 0000 0000
000000e0: 0000 0000 0000 0000 0000 0000 0000 0000
000000f0: 0000 0000 0000 0000 0000 0000 0000 0000
00000100: 0000 0000 8874 8ab9 39e8 4f37 d5a7 8db9
00000110: a873 023a 0000 0000 efa2 fe38 6178 6b39
00000120: d29c e0b8 0000 0000 0f6d 82b9 47bf 41b9
00000130: 0400 0000 3a9a 1aba 6152 b9b9 e2c7 f43a
00000140: a92b 26b9 e866 a1b8 0000 0000 841d 40b9
00000150: 0000 0000 0000 0000 0000 0000 0000 0000
00000160: 0000 0000 60a3 190a 0000 0000 7f2f e038
00000170: df6e 8d39 0000 0000 0000 0000 514f 34ba
00000180: 0000 0000 0000 0000 0000 0000 0000 0000
00000190: 0000 0000 0000 0000 0000 0000 0000 0000
000001a0: 0000 0000 0000 0000 0000 0000 0000 0000
000001b0: 0000 0000 0000 0000 0000 0000 0000 0000
000001c0: 0000 0000 0000 0000 0000 0000 0000 0000
000001d0: 0000 0000 0000 0000 0000 0000 0000 0000
000001e0: 0000 0000 0000 0000 0000 0000 0000 0000
000001f0: 0000 0000 0000 0000 0000 0000 0000 0000
00000200: 0000 0000 0000 0000 0000 0000 0000 0000
00000210: 0000 0000 0000 0000 0000 0000 0000 0000
00000220: 0000 0000 0000 0000 0000 0000 0000 0000
00000230: 0000 0000 0000 0000 0000 0000 0000 0000
00000240: 0000 0000 0000 0000 0000 0000 0000 0000
00000250: 0000 0000 0000 0000 0000 0000 0000 0000
00000260: 0000 0000 0000 0000 0000 0000 0000 0000
00000270: 0000 0000 0000 0000 0000 0000 0000 0000
00000280: 0000 0000 a901 6ab9 0c7f 3d37 c952 70b9
00000290: 6646 ed39 0000 0000 8d74 dc38 41e5 4839
000002a0: 2fe3 bdb8 0000 0000 dd18 5db9 fb5a 24b9
000002b0: 0400 0000 63d3 02ba 5364 9cb9 1476 cf3a
000002c0: d5c2 0cb9 bdc6 88b8 0000 0000 6874 26b9
000002d0: 0000 0000 0000 0000 0000 0000 0000 0000
000002e0: 0000 0000 926f 160a 0000 0000 85ff c038
000002f0: b812 7639 0000 0000 0000 0000 cb60 19ba
00000300: 0000 0000 0000 0000 0000 0000 0000 0000
00000310: 0000 0000 0000 0000 0000 0000 0000 0000
00000320: 0000 0000 0000 0000 0000 0000 0000 0000
00000330: 0000 0000 0000 0000 0000 0000 0000 0000
00000340: 0000 0000 0000 0000 0000 0000 0000 0000
00000350: 0000 0000 0000 0000 0000 0000 0000 0000
00000360: 0000 0000 0000 0000 0000 0000 0000 0000
00000370: 0000 0000 0000 0000 0000 0000 0000 0000
00000380: 0000 0000 f80f 57b9 283f bd37 cb23 49b9
00000390: 5349 9c3a 0000 0000 d27c ee38 140b c537
000003a0: 8179 b6b8 0000 0000 3bcc 47b9 93e4 1fb9
000003b0: 0400 0000 0e3b a8b9 b203 3eb9 4879 cb3a
000003c0: 62a6 e8b8 6d44 7bb8 0000 0000 17aa 7cb9
000003d0: 0000 0000 0000 0000 0000 0000 0000 0000
000003e0: 0000 0000 a8b8 bf0a 0000 0000 ade8 a338
000003f0: caec 4d39 0000 0000 0000 0000 b4ec f4b9
0.0 -0.0002005619 1.0407371e-05 -0.00020598895 0.00041582054 0.0 9.506749e-05 0.00017196583
-8.143106e-05 0.0 -0.00018961894 -0.00014072919 6e-45 -0.0004478097 -0.00026745547 0.0014233667
-0.00012061112 -5.8648915e-05 0.0 -0.000143695 0.0 0.0 0.0 0.0
0.0 6.089213e-33 0.0 8.2973515e-05 0.0002123196 0.0 0.0 -0.0005260497
0.0 0.0 0.0 0.0 0.0 0.0 0.0 0.0
0.0 0.0 0.0 0.0 0.0 0.0 0.0 0.0
0.0 0.0 0.0 0.0 0.0 0.0 0.0 0.0
0.0 0.0 0.0 0.0 0.0 0.0 0.0 0.0
0.0 -0.00026408234 1.239223e-05 -0.0002701866 0.00049763406 0.0 0.000121420126 0.00022456191
-0.000107103624 0.0 -0.00024876787 -0.0001847717 6e-45 -0.00058976153 -0.00035347327 0.0018675292
-0.00015847258 -7.696246e-05 0.0 -0.00018321542 0.0 0.0 0.0 0.0
0.0 7.3974095e-33 0.0 0.00010689999 0.0002697622 0.0 0.0 -0.0006878274
0.0 0.0 0.0 0.0 0.0 0.0 0.0 0.0
0.0 0.0 0.0 0.0 0.0 0.0 0.0 0.0
0.0 0.0 0.0 0.0 0.0 0.0 0.0 0.0
0.0 0.0 0.0 0.0 0.0 0.0 0.0 0.0
0.0 0.0 0.0 0.0 0.0 0.0 0.0 0.0
0.0 0.0 0.0 0.0 0.0 0.0 0.0 0.0
0.0 0.0 0.0 0.0 0.0 0.0 0.0 0.0
0.0 0.0 0.0 0.0 0.0 0.0 0.0 0.0
0.0 -0.00022316597 1.1294858e-05 -0.00022919023 0.00045256614 0.0 0.00010512127 0.0001915889
-9.0545385e-05 0.0 -0.00021085465 -0.00015674152 6e-45 -0.00049906055 -0.00029829386 0.0015828037
-0.00013424021 -6.522003e-05 0.0 -0.00015874358 0.0 0.0 0.0 0.0
0.0 7.243221e-33 0.0 9.202868e-05 0.00023467361 0.0 0.0 -0.000585091
0.0 0.0 0.0 0.0 0.0 0.0 0.0 0.0
0.0 0.0 0.0 0.0 0.0 0.0 0.0 0.0
0.0 0.0 0.0 0.0 0.0 0.0 0.0 0.0
0.0 0.0 0.0 0.0 0.0 0.0 0.0 0.0
0.0 -0.00020509947 2.2559965e-05 -0.00019182188 0.0011923708 0.0 0.00011371974 2.3489389e-05
-8.701068e-05 0.0 -0.000190542 -0.00015248572 6e-45 -0.00032087456 -0.00018121189 0.0015523816
-0.00011093613 -5.990679e-05 0.0 -0.00024095956 0.0 0.0 0.0 0.0
0.0 1.8462091e-32 0.0 7.815785e-05 0.00019638534 0.0 0.0 -0.00046715664

exp_avg_sq f4 [16, 32]
00000000: 0000 0000 d5f0 2c37 5a83 4a36 2938 d636
00000010: c1c4 6b39 0000 0000 131d 8237 ba6f fb36
00000020: 1e16 9036 0000 0000 e907 9937 e1b9 2737
00000030: 83ec 521f 4aa6 ee37 6337 2837 dcdf cb39
00000040: a1ea ff35 5f9f dd35 0000 0000 2c4b 8f35
00000050: 0000 0000 0000 0000 0000 0000 0000 0000
00000060: 0000 0000 cf2b a629 0000 0000 a12d 9d36
00000070: f4e6 f436 0000 0000 0000 0000 ba3f 8238
00000080: 0000 0000 0000 0000 0000 0000 0000 0000
00000090: 0000 0000 0000 0000 0000 0000 0000 0000
000000a0: 0000 0000 0000 0000 0000 0000 0000 0000
000000b0: 0000 0000 0000 0000 0000 0000 0000 0000
000000c0: 0000 0000 0000 0000 0000 0000 0000 0000
000000d0: 0000 0000 0000 0000 0000 0000 0000 0000
000000e0: 0000 0000 0000 0000 0000 0000 0000 0000
000000f0: 0000 0000 0000 0000 0000 0000 0000 0000
00000100: 0000 0000 b6ef 9c37 3f5e b636 d395 2937
00000110: 6cb9 cb39 0000 0000 15cf e137 931a 6037
00000120: c819 ff36 0000 0000 517e 0738 a366 8f37
00000130: d834 cb1f 6584 5a38 2f7a 9137 6b88 323a
00000140: 222b 4836 8998 1136 0000 0000 76fb e635
00000150: 0000 0000 0000 0000 0000 0000 0000 0000
00000160: 0000 0000 7b76 9b2a 0000 0000 7f84 f736
00000170: 173b 6737 0000 0000 0000 0000 47ab df38
00000180: 0000 0000 0000 0000 0000 0000 0000 0000
00000190: 0000 0000 0000 0000 0000 0000 0000 0000
000001a0: 0000 0000 0000 0000 0000 0000 0000 0000
000001b0: 0000 0000 0000 0000 0000 0000 0000 0000
000001c0: 0000 0000 0000 0000 0000 0000 0000 0000
000001d0: 0000 0000 0000 0000 0000 0000 0000 0000
000001e0: 0000 0000 0000 0000 0000 0000 0000 0000
000001f0: 0000 0000 0000 0000 0000 0000 0000 0000
00000200: 0000 0000 0000 0000 0000 0000 0000 0000
00000210: 0000 0000 0000 0000 0000 0000 0000 0000
00000220: 0000 0000 0000 0000 0000 0000 0000 0000
00000230: 0000 0000 0000 0000 0000 0000 0000 0000
00000240: 0000 0000 0000 0000 0000 0000 0000 0000
00000250: 0000 0000 0000 0000 0000 0000 0000 0000
00000260: 0000 0000 0000 0000 0000 0000 0000 0000
00000270: 0000 0000 0000 0000 0000 0000 0000 0000
00000280: 0000 0000 1ca3 8837 91e2 9536 4381 2637
00000290: 1300 a139 0000 0000 09ff b237 c8d8 3937
000002a0: 5311 cf36 0000 0000 3f43 dd37 a545 6337
000002b0: 012c af1f 6019 2738 36f6 6237 7549 0e3a
000002c0: 39ef 4a36 d3e5 4936 0000 0000 bfff c935
000002d0: 0000 0000 0000 0000 0000 0000 0000 0000
000002e0: 0000 0000 8492 352c 0000 0000 6009 e236
000002f0: 06e6 3637 0000 0000 0000 0000 057d ae38
00000300: 0000 0000 0000 0000 0000 0000 0000 0000
00000310: 0000 0000 0000 0000 0000 0000 0000 0000
00000320: 0000 0000 0000 0000 0000 0000 0000 0000
00000330: 0000 0000 0000 0000 0000 0000 0000 0000
00000340: 0000 0000 0000 0000 0000 0000 0000 0000
00000350: 0000 0000 0000 0000 0000 0000 0000 0000
00000360: 0000 0000 0000 0000 0000 0000 0000 0000
00000370: 0000 0000 0000 0000 0000 0000 0000 0000
00000380: 0000 0000 42e0 9f37 98eb b436 c58b 4337
00000390: 2a50 cf39 0000 0000 b7d4 e437 0ed4 a137
000003a0: 62d3 f836 0000 0000 21e3 0638 7afb 9437
000003b0: cb90 741f 12d7 6238 ad3d 9b37 6d6f 343a
000003c0: f332 6a36 4c23 4636 0000 0000 e30a 5136
000003d0: 0000 0000 0000 0000 0000 0000 0000 0000
000003e0: 0000 0000 93a5 d52c 0000 0000 c87a 0f37
000003f0: f49d 9537 0000 0000 0000 0000 6b15 e738
0.0 1.0308072e-05 3.0176802e-06 6.384235e-06 0.00022484643 0.0 1.5510746e-05 7.4933896e-06
4.294109e-06 0.0 1.8242705e-05 9.997254e-06 4.4664868e-20 2.8449245e-05 1.0026476e-05 0.00038885965
1.9067267e-06 1.6512166e-06 0.0 1.0676208e-06 0.0 0.0 0.0 0.0
0.0 7.3794805e-14 0.0 4.6842765e-06 7.298653e-06 0.0 0.0 6.210753e-05
0.0 0.0 0.0 0.0 0.0 0.0 0.0 0.0
0.0 0.0 0.0 0.0 0.0 0.0 0.0 0.0
0.0 0.0 0.0 0.0 0.0 0.0 0.0 0.0
0.0 0.0 0.0 0.0 0.0 0.0 0.0 0.0
0.0 1.8708273e-05 5.4349944e-06 1.0108069e-05 0.00038857327 0.0 2.691852e-05 1.3357628e-05
7.6025935e-06 0.0 3.230415e-05 1.7094722e-05 8.606127e-20 5.2098552e-05 1.7342243e-05 0.0006810489
2.982743e-06 2.169547e-06 0.0 1.720952e-06 0.0 0.0 0.0 0.0
0.0 2.7615743e-13 0.0 7.376598e-06 1.3782431e-05 0.0 0.0 0.000106653715
0.0 0.0 0.0 0.0 0.0 0.0 0.0 0.0
0.0 0.0 0.0 0.0 0.0 0.0 0.0 0.0
0.0 0.0 0.0 0.0 0.0 0.0 0.0 0.0
0.0 0.0 0.0 0.0 0.0 0.0 0.0 0.0
0.0 0.0 0.0 0.0 0.0 0.0 0.0 0.0
0.0 0.0 0.0 0.0 0.0 0.0 0.0 0.0
0.0 0.0 0.0 0.0 0.0 0.0 0.0 0.0
0.0 0.0 0.0 0.0 0.0 0.0 0.0 0.0
0.0 1.6288417e-05 4.466922e-06 9.924467e-06 0.00030708368 0.0 2.1338014e-05 1.1077333e-05
6.1710975e-06 0.0 2.6376567e-05 1.354647e-05 7.418818e-20 3.9839535e-05 1.3527975e-05 0.0005427816
3.0239592e-06 3.008511e-06 0.0 1.5050099e-06 0.0 0.0 0.0 0.0
0.0 2.580298e-12 0.0 6.7364163e-06 1.0901602e-05 0.0 0.0 8.320253e-05
0.0 0.0 0.0 0.0 0.0 0.0 0.0 0.0
0.0 0.0 0.0 0.0 0.0 0.0 0.0 0.0
0.0 0.0 0.0 0.0 0.0 0.0 0.0 0.0
0.0 0.0 0.0 0.0 0.0 0.0 0.0 0.0
0.0 1.9058705e-05 5.3918448e-06 1.1655448e-05 0.00039541844 0.0 2.7278771e-05 1.9291441e-05
7.415584e-06 0.0 3.215962e-05 1.7760078e-05 5.178878e-20 5.40829e-05 1.850616e-05 0.0006883059
3.4898374e-06 2.9524845e-06 0.0 3.1149764e-06 0.0 0.0 0.0 0.0
0.0 6.0722065e-12 0.0 8.552051e-06 1.7835737e-05 0.0 0.0 0.00011018928

exp_avg f4 [32]
00000000: 0000 0000 60af 003a c5e8 64b9 b744 7039
00000010: d095 153a 0000 0000 913f 19b9 a44a 3c39
00000020: 9346 2d3a 0000 0000 4b97 ab39 a7f1 18ba
00000030: 0400 0000 30e7 7cba b3fa 28ba 3882 a5ba
00000040: b5e1 ab39 f17f 8639 0000 0000 5ffc 993a
00000050: 0000 0000 0000 0000 0000 0000 0000 0000
00000060: 0000 0000 016c 830a 0000 0000 0b5d bc38
00000070: 0586 8839 0000 0000 0000 0000 983c 6fba
0.0 0.00049089454 -0.00021830488 0.00022913782 0.0005706223 0.0 -0.00014614897 0.00017956883
0.00066099426 0.0 0.00032728384 -0.0005834349 6e-45 -0.0009647487 -0.00064460485 -0.0012627309
0.00032783826 0.00025653795 0.0 0.0011748186 0.0 0.0 0.0 0.0
0.0 1.2655468e-32 0.0 8.981869e-05 0.00026039794 0.0 0.0 -0.00091261556

exp_avg_sq f4 [32]
00000000: 0000 0000 febf 7337 f90b 8436 304a 3137
00000010: ecf6 8a39 0000 0000 7004 9a37 5421 3937
00000020: 08c8 b236 0000 0000 f187 bd37 174e 4d37
00000030: e817 b71f 1738 1438 ecfa 4f37 be5e f739
00000040: 6fb2 5d36 446d 6e36 0000 0000 cd17 3936
00000050: 0000 0000 0000 0000 0000 0000 0000 0000
00000060: 0000 0000 8caa c32c 0000 0000 57ac e136
00000070: aa28 3237 0000 0000 0000 0000 7979 9b38
0.0 1.452863e-05 3.9353004e-06 1.0567295e-05 0.00026505382 0.0 1.8360297e-05 1.1034619e-05
5.3281e-06 0.0 2.2593858e-05 1.2237134e-05 7.7543064e-20 3.5338187e-05 1.2396584e-05 0.000471821
3.3035428e-06 3.5528365e-06 0.0 2.7581002e-06 0.0 0.0 0.0 0.0
0.0 5.561168e-12 0.0 6.7255855e-06 1.0619095e-05 0.0 0.0 7.413602e-05

exp_avg f4 [32, 16]
00000000: 0000 0000 0000 0000 0000 0000 0000 0000
00000010: 0000 0000 0000 0000 0000 0000 0000 0000
00000020: 0000 0000 0000 0000 0000 0000 0000 0000
00000030: 0000 0000 0000 0000 0000 0000 0000 0000
00000040: 6f97 3838 a439 dd38 1816 0000 061c b537
00000050: 3a5a 6bb9 dccf 2a38 0aa0 3d39 0400 0000
00000060: 0971 9ab8 dbad 92b8 d956 4339 693a 9a35
00000070: 28ae 8fb8 ca34 3db9 0400 0000 89c0 d7b8
00000080: 24ac b438 8517 2539 ac15 0000 58f1 1b39
00000090: 86bc afb9 f4d0 c438 1c85 8d39 0400 0000
000000a0: 7a8f e6b8 350e dbb8 5828 6b39 34de a438
000000b0: fc9c f7b8 a045 8db9 0400 0000 1b11 21b9
000000c0: eb0e 7e37 a73a 5638 3109 0000 b6a1 2137
000000d0: a4fd e3b8 be45 5d37 8ea4 b738 0400 0000
000000e0: 0698 15b8 aa1b 0eb8 d53d c638 74ad c637
000000f0: 9323 59b8 2d4c b7b8 0400 0000 68fc 50b8
00000100: d7b7 f938 c2ca 80b8 b206 0000 64c1 9739
00000110: 0c2f 0939 5dc8 1839 a6cb dcb8 0400 0000
00000120: 47d8 3338 00fc 2a38 1480 0738 d272 afb7
00000130: 0cce b3b8 7782 dc38 0400 0000 eb5d 7b38
00000140: 0000 0000 0000 0000 0000 0000 0000 0000
00000150: 0000 0000 0000 0000 0000 0000 0000 0000
00000160: 0000 0000 0000 0000 0000 0000 0000 0000
00000170: 0000 0000 0000 0000 0000 0000 0000 0000
00000180: f46d 0b39 8569 3439 7e13 0000 ffc3 8d39
00000190: 130d c0b9 4856 2139 04a6 9a39 0400 0000
000001a0: bcf4 fbb8 cc65 efb8 35ab 4039 2429 a838
000001b0: 8c7b b2b8 1e62 9ab9 0400 0000 dc04 30b9
000001c0: 8a5a 7cb7 17f6 95b7 0000 0000 4fc1 99b7
000001d0: e6bb 1f38 4086 9ab7 d68b 00b8 0000 0000
000001e0: 706e 5137 8418 4737 08d1 c3b7 3790 c2b8
000001f0: df3f 2e39 9461 0038 0000 0000 2e5a 9237
00000200: 84c3 8738 e61f 5738 a008 0000 c3e4 0239
00000210: 26ea e4b8 ad38 a038 da65 b838 0000 0000
00000220: c535 16b8 83aa 0eb8 4a36 d837 fb81 5bb7
00000230: ccca 9137 1405 b8b8 0000 0000 ded2 51b8
00000240: 0000 0000 0000 0000 0000 0000 0000 0000
00000250: 0000 0000 0000 0000 0000 0000 0000 0000
00000260: 0000 0000 0000 0000 0000 0000 0000 0000
00000270: 0000 0000 0000 0000 0000 0000 0000 0000
00000280: 8ecc 43b8 af52 9336 b209 0000 c5f7 24b9
00000290: 6a12 1bb7 88db 87b8 287d fc36 0400 0000
000002a0: 7b59 4db6 4d9a 41b6 264a c238 5bff cab7
000002b0: f9e4 31b8 ea30 fab6 0400 0000 dacb 8eb6
000002c0: 9e61 6cb8 af58 0938 cc03 0000 70b3 18b9
000002d0: c537 92b8 3a96 9bb8 8576 6b38 0400 0000
000002e0: 6ad5 bfb7 4945 b6b7 94bc d338 a69a c637
000002f0: 6904 bab7 0015 6bb8 0400 0000 8803 06b8
00000300: 0400 0080 0400 0080 0000 0000 0400 0080
00000310: 0400 0000 0400 0080 0400 0080 0000 0000
00000320: 0400 0000 0400 0000 0400 0080 0000 0000
00000330: 0400 0080 0400 0000 0000 0000 0400 0000
00000340: ce6b feb5 61b0 2439 5f12 0000 05e1 54b8
00000350: ca51 afb9 8cc9 8db7 eb29 8d39 0400 0000
00000360: c800 e6b8 dd8b dab8 b771 a439 38a7 0639
00000370: 9728 2bb9 97ee 8cb9 0400 0000 b7af 20b9
00000380: 6c27 89b7 40ad c238 df0a 0000 aeb4 8fb8
00000390: b43d 4fb9 50a4 f7b7 cfdf 2639 0400 0000
000003a0: 36f2 87b8 fc2a 81b8 ce3f 5339 4c5b a638
000003b0: f177 ddb8 ed98 26b9 0400 0000 ecf2 bdb8
000003c0: c2e7 4238 f7db d738 cc09 0000 ee76 fc38
000003d0: 9cd5 65b9 5ad9 5a38 3e08 3939 0400 0000
000003e0: a4be 96b8 fa3f 8fb8 fe4d 0039 44ea b0b7
000003f0: 5724 1039 f8bf 38b9 0400 0000 94a2 d2b8
0.0 0.0 0.0 0.0 0.0 0.0 0.0 0.0
0.0 0.0 0.0 0.0 0.0 0.0 0.0 0.0
4.4010052e-05 0.000105488376 7.926e-42 2.158993e-05 -0.00022444958 4.0724743e-05 0.00018084064 6e-45
-7.364347e-05 -6.9942056e-05 0.00018629002 1.1490894e-06 -6.8512105e-05 -0.0001804411 6e-45 -0.000102878614
8.6151325e-05 0.00015744388 7.774e-42 0.0001487186 -0.00033519062 9.384929e-05 0.0002699279 6e-45
-0.00010993979 -0.0001044538 0.00022426376 7.861518e-05 -0.000118071184 -0.0002694549 6e-45 -0.00015360529
1.5143053e-05 5.10762e-05 3.297e-42 9.633999e-06 -0.00010871448 1.3188865e-05 8.756771e-05 6e-45
-3.566595e-05 -3.3881202e-05 9.452893e-05 2.368421e-05 -5.1769963e-05 -8.740309e-05 6e-45 -4.9826136e-05
0.00011907488 -6.141282e-05 2.402e-42 0.00028945052 0.00013082864 0.00014570491 -0.0001052835 6e-45
4.287835e-05 4.076585e-05 3.230579e-05 -2.0915093e-05 -8.573764e-05 0.000105147185 6e-45 5.993053e-05
0.0 0.0 0.0 0.0 0.0 0.0 0.0 0.0
0.0 0.0 0.0 0.0 0.0 0.0 0.0 0.0
0.00013297034 0.00017205447 6.992e-42 0.00027039644 -0.00036630835 0.00015386299 0.0002949686 6e-45
-0.00012014198 -0.00011415369 0.00018374326 8.018527e-05 -8.510714e-05 -0.00029446272 6e-45 -0.00016786478
-1.5041451e-05 -1.7876779e-05 0.0 -1.8329038e-05 3.8083548e-05 -1.8420746e-05 -3.064781e-05 0.0
1.2483084e-05 1.1867032e-05 -2.334315e-05 -9.277503e-05 0.00016617727 3.0608455e-05 0.0 1.744655e-05
6.473719e-05 5.1289702e-05 3.094e-42 0.00012482986 -0.00010915501 7.639951e-05 8.792775e-05 0.0
-3.5812864e-05 -3.401424e-05 2.5774487e-05 -1.3083681e-05 1.7379782e-05 -8.7747496e-05 0.0 -5.002587e-05
0.0 0.0 0.0 0.0 0.0 0.0 0.0 0.0
0.0 0.0 0.0 0.0 0.0 0.0 0.0 0.0
-4.668213e-05 4.390567e-06 3.478e-42 -0.0001573256 -9.243007e-06 -6.4781925e-05 7.5247553e-06 6e-45
-3.0599465e-06 -2.8849056e-06 9.264452e-05 -2.4199186e-05 -4.2413336e-05 -7.456275e-06 6e-45 -4.255661e-06
-5.6357698e-05 3.274594e-05 1.362e-42 -0.00014562695 -6.9722104e-05 -7.418958e-05 5.6138746e-05 6e-45
-2.2868353e-05 -2.1728354e-05 0.000100963895 2.3675453e-05 -2.2174981e-05 -5.6047924e-05 6e-45 -3.195138e-05
-6e-45 -6e-45 0.0 -6e-45 6e-45 -6e-45 -6e-45 0.0
6e-45 6e-45 -6e-45 0.0 -6e-45 6e-45 0.0 6e-45
-1.895585e-06 0.00015705965 6.59e-42 -5.0754305e-05 -0.0003343954 -1.6902362e-05 0.00026924847 6e-45
-0.000109674 -0.000104211016 0.00031365242 0.0001284153 -0.00016322952 -0.00026880644 6e-45 -0.00015324248
-1.635003e-05 9.282911e-05 3.9e-42 -6.8524256e-05 -0.00019764045 -2.9521208e-05 0.00015914369 6e-45
-6.482417e-05 -6.159206e-05 0.00020146297 7.932502e-05 -0.00010560442 -0.00015887963 6e-45 -9.05747e-05
4.6469046e-05 0.000102929705 3.514e-42 0.00012038449 -0.00021918718 5.2177675e-05 0.00017646045 6e-45
-7.188067e-05 -6.830688e-05 0.00012236086 -2.1089923e-05 0.00013746448 -0.00017619121 6e-45 -0.00010043863

exp_avg_sq f4 [32, 16]
00000000: 0000 0000 0000 0000 0000 0000 0000 0000
00000010: 0000 0000 0000 0000 0000 0000 0000 0000
00000020: 0000 0000 0000 0000 0000 0000 0000 0000
00000030: 0000 0000 0000 0000 0000 0000 0000 0000
00000040: f87f 9936 547b 0b37 99e8 262a 9e54 5f36
00000050: 0558 1f38 53cd 8a36 7c19 ca37 c2c0 ba32
00000060: d3f0 6336 1678 8236 7bb0 1237 f377 5634
00000070: bcb5 ad37 6764 c037 99ff 8f33 f3f8 eb36
00000080: f8a8 7536 af22 d336 104c 842b 758f 3836
00000090: 16aa d037 efec 6b36 89c4 8237 f9bb 0a33
000000a0: 731e 1236 763a 7036 6d2b ec36 31dc be34
000000b0: 5510 5137 15a5 7737 33ab b233 810f 9a36
000000c0: a0b9 8035 78ab 0536 10ca ec2a 8b7e 4435
000000d0: 1748 ac36 a657 6735 d17f 5836 322c 2432
000000e0: 1f87 f034 3ab8 d235 462d de35 b616 3034
000000f0: 5737 3136 5899 4836 951d 5832 aea8 8635
00000100: f6fd 9534 2490 d434 ab1c ff28 31d8 8d34
00000110: f629 d435 2de7 9834 38c4 7c35 5d25 3832
00000120: 511c fd33 4663 6834 58fc 0535 9527 9a33
00000130: ae31 1f35 d0e2 6135 3473 4833 0afa 8534
00000140: 0000 0000 0000 0000 0000 0000 0000 0000
00000150: 0000 0000 0000 0000 0000 0000 0000 0000
00000160: 0000 0000 0000 0000 0000 0000 0000 0000
00000170: 0000 0000 0000 0000 0000 0000 0000 0000
00000180: 89a4 2936 0747 9336 5b56 922a d626 f935
00000190: 37e5 a237 8b41 2436 46f5 4c37 6b88 d532
000001a0: 36fa e835 b957 0e36 6906 a936 21c5 5e34
000001b0: 36d4 2137 1104 4437 f15e be33 23d5 7036
000001c0: 6852 8130 944b 4734 0000 0000 56df 8d30
000001d0: 7bc8 9c35 03cd 8130 729b 2135 0000 0000
000001e0: a386 5832 5721 fa33 1703 d930 1139 5e31
000001f0: 72a3 a133 e80b a134 0000 0000 1388 8233
00000200: 44fc 1535 8c9b ac35 ff2f b027 cd99 c334
00000210: d335 cd36 f48f 0535 2510 8236 0000 0000
00000220: b1cb 1435 5e1b 1a35 d466 9935 55f1 8a31
00000230: 1e82 6236 ec2c 7a36 0000 0000 088c 9935
00000240: 0000 0000 0000 0000 0000 0000 0000 0000
00000250: 0000 0000 0000 0000 0000 0000 0000 0000
00000260: 0000 0000 0000 0000 0000 0000 0000 0000
00000270: 0000 0000 0000 0000 0000 0000 0000 0000
00000280: 1a01 be35 3351 0836 3d21 bd29 251a 9b35
00000290: 2673 1837 f4bd ab35 165f c236 afa0 1931
000002a0: 77a8 5435 cf56 8735 0b91 2636 4734 0d33
000002b0: ea2e af36 9ed8 b536 6aab b031 b8e8 de35
000002c0: 98e3 f734 6eb4 c235 0836 5a2a 146a c334
000002d0: 73b3 7335 141b b434 712a 1835 c05f b333
000002e0: 58ea 0634 c588 a535 da16 0f35 45ea 3735
000002f0: e46f fc34 0e6a 0735 13fd 9d34 ce56 7434
00000300: 8725 9114 e5dd 1a14 0000 0000 2c3a a614
00000310: f5ec 5315 7ad6 b614 9284 f614 0000 0000
00000320: fca2 1f13 a15e 9a13 afbf e314 0000 0000
00000330: 1b48 9614 f5f1 c614 0000 0000 b368 d013
00000340: 9966 6136 daee 5a36 08ff 642b 6179 4736
00000350: 4f1a 8537 14bc 6e36 53ba 2537 8319 3f30
00000360: be38 b535 39d6 c735 2aba e236 1aa0 6332
00000370: 222c 0037 3994 1c37 b1ff 9131 bacf 3d36
00000380: c9ff 9e35 f3bd 1636 a586 072a d6b5 7935
00000390: 5c09 c036 5438 9235 1d1d 7136 e70d ac33
000003a0: 3bad 1335 0350 c035 34a7 0836 2f71 3035
000003b0: 3187 3836 9ddb 6436 6760 9934 bb69 9235
000003c0: 67a5 a635 1f59 8335 3684 032a 4fc5 a835
000003d0: 7d84 c736 1cfc ab35 29eb 3536 c868 0d32
000003e0: 52cd 7f34 7ece 3035 4c5e 1636 6282 5a33
000003f0: 3bf3 cc35 04d0 1336 e6ff 3033 9830 2035
0.0 0.0 0.0 0.0 0.0 0.0 0.0 0.0
0.0 0.0 0.0 0.0 0.0 0.0 0.0 0.0
4.574653e-06 8.31376e-06 1.482446e-13 3.3278843e-06 3.799053e-05 4.1366234e-06 2.4092144e-05 2.1740906e-08
3.3965814e-06 3.8882818e-06 8.743368e-06 1.997394e-07 2.0707834e-05 2.2934937e-05 6.705449e-08 7.0325273e-06
3.6606198e-06 6.2923277e-06 9.400276e-13 2.750164e-06 2.4874735e-05 3.5155642e-06 1.5588726e-05 3.230159e-08
2.177342e-06 3.5796816e-06 7.0384035e-06 3.5550468e-07 1.2461173e-05 1.4760783e-05 8.319912e-08 4.5913625e-06
9.590767e-07 1.9918352e-06 4.206223e-13 7.3199834e-07 5.134392e-06 8.618175e-07 3.2260907e-06 9.556105e-09
4.4801797e-07 1.5699836e-06 1.6553465e-06 1.639954e-07 2.6407267e-06 2.989158e-06 1.2579581e-08 1.003287e-06
2.7938194e-07 3.9592953e-07 2.832312e-14 2.6420597e-07 1.5807443e-06 2.848041e-07 9.416285e-07 1.0718705e-08
1.1786381e-07 2.1642799e-07 4.991357e-07 7.178384e-08 5.930441e-07 8.414909e-07 4.6670905e-08 2.4955108e-07
0.0 0.0 0.0 0.0 0.0 0.0 0.0 0.0
0.0 0.0 0.0 0.0 0.0 0.0 0.0 0.0
2.5278734e-06 4.38921e-06 2.599473e-13 1.8563248e-06 1.9418641e-05 2.4476055e-06 1.2216455e-05 2.48585e-08
1.7358168e-06 2.121071e-06 5.0373387e-06 2.0747076e-07 9.645757e-06 1.1683457e-05 8.864834e-08 3.5886849e-06
9.409407e-10 1.8560814e-07 0.0 1.0322576e-09 1.1681253e-06 9.444253e-10 6.0203377e-07 0.0
1.2603468e-08 1.1647597e-07 1.5789706e-09 3.233769e-09 7.526877e-08 2.999725e-07 0.0 6.0783485e-08
5.587392e-07 1.2860269e-06 4.890185e-15 3.6433485e-07 6.115742e-06 4.975584e-07 3.8761814e-06 0.0
5.5430706e-07 5.7409295e-07 1.1429315e-06 4.043765e-09 3.3752362e-06 3.727905e-06 0.0 1.1440143e-06
0.0 0.0 0.0 0.0 0.0 0.0 0.0 0.0
0.0 0.0 0.0 0.0 0.0 0.0 0.0 0.0
1.4156424e-06 2.0312843e-06 8.399052e-14 1.1556009e-06 9.086716e-06 1.2795776e-06 5.79272e-06 2.2355768e-09
7.9221303e-07 1.0083548e-06 2.4820354e-06 3.2876667e-08 5.220868e-06 5.419438e-06 5.1417617e-09 1.6608019e-06
4.6172931e-07 1.4506638e-06 1.9381035e-13 3.6398762e-07 9.078569e-07 3.3547315e-07 5.6686173e-07 8.352754e-08
1.2564976e-07 1.2333263e-06 5.3304905e-07 6.851372e-07 4.702007e-07 5.044575e-07 2.9427665e-07 2.275585e-07
1.465606e-26 7.818774e-27 0.0 1.6784661e-26 4.2798037e-26 1.84619e-26 2.4891942e-26 0.0
2.0148979e-27 3.8968377e-27 2.2996748e-26 0.0 1.517457e-26 2.0088326e-26 0.0 5.2609823e-27
3.3587332e-06 3.2623561e-06 8.13558e-13 2.9723963e-06 1.5867086e-05 3.557424e-06 9.878148e-06 6.952165e-10
1.3502065e-06 1.4889002e-06 6.756997e-06 1.3249542e-08 7.63967e-06 9.332835e-06 4.249124e-09 2.8284107e-06
1.1846361e-06 2.2462307e-06 1.2037123e-13 9.3024335e-07 5.7231355e-06 1.0894241e-06 3.5928745e-06 8.011903e-08
5.501385e-07 1.4328401e-06 2.0362904e-06 6.5729813e-07 2.7496828e-06 3.410248e-06 2.8568613e-07 1.0908619e-06
1.2416102e-06 9.786198e-07 1.1681007e-13 1.25744e-06 5.946086e-06 1.2813866e-06 2.7107983e-06 8.231105e-09
2.3823421e-07 6.5865595e-07 2.240663e-06 5.0875663e-08 1.5269974e-06 2.2025788e-06 4.121093e-08 5.967536e-07

exp_avg f4 [16]
00000000: f531 5ab9 6224 9238 c70d 0000 b678 58b9
00000010: 0a83 1bb9 0a8b 83b9 6b89 fa38 0400 0000
00000020: a110 4cb8 a6d8 41b8 b22d 13b9 da59 e5b8
00000030: 3f5f a239 4808 fab8 0400 0000 898b 8eb8
-0.0002080871 6.968599e-05 4.942e-42 -0.00020644334 -0.00014830768 -0.0002508986 0.00011946525 6e-45
-4.8652877e-05 -4.6216555e-05 -0.00014036035 -0.00010936307 0.00030970012 -0.000119224715 6e-45 -6.797078e-05

exp_avg_sq f4 [16]
00000000: 2c76 e436 7daa 7f37 d084 2a2b 5298 b836
00000010: ba4e 6237 eb93 8d36 68aa 0b37 5d30 4535
00000020: 0cee d535 273d 6737 2302 0437 432a d436
00000030: 5799 0a37 f9ce ff36 8109 1c36 01f0 6036
6.8086865e-06 1.5238879e-05 6.0580447e-13 5.5013597e-06 1.348898e-05 4.2193474e-06 8.324721e-06 7.3458597e-07
1.5939017e-06 1.3782911e-05 7.868311e-06 6.3230123e-06 8.261143e-06 7.623687e-06 2.3251343e-06 3.3518302e-06
