checkpoint/GIN/BA-Shapes.pth (torch, 126332 bytes, 27 tensors)

convs.0.apply_func.weight f4 [16, 10]
000000 80 28 1b bb ae b5 2d 3e 13 42 85 be 4b 4f 6e be
       -0.0023675263 0.16963837 -0.26026973 -0.23272435
000010 72 70 f9 bd 00 ab ad 3d c0 4e cd bb 29 60 80 3e
       -0.1217965 0.08479881 -0.0062654912 0.25073364
000020 10 e5 e5 bc 48 5f ab 3d 3e b9 c3 bd e0 9a 7e bd
       -0.028063327 0.08367783 -0.095568165 -0.06215942
000030 dd ad 9a be 57 75 56 be 25 7c 05 be 00 ed 3f 3c
       -0.30210772 -0.20943199 -0.13035639 0.01171422
000040 30 04 00 3e 36 4c 42 3e 6d 87 5b be a7 02 0d be
       0.12501597 0.18974385 -0.2143838 -0.13770543
000050 3e 26 e9 3d 27 ed 85 3e a6 5d 87 bd 45 46 71 3e
       0.11384247 0.26157495 -0.06609659 0.23561962
000060 e0 f0 54 bd 75 e4 04 3d 73 15 92 3e eb b7 96 be
       -0.05198753 0.032444436 0.2853199 -0.29437193
000070 a1 e5 4c be 84 0a a6 bd a8 72 fc bd a1 e3 8b 3e
       -0.20009471 -0.081074744 -0.123265564 0.27322105
000080 49 e4 51 be 50 10 15 be 58 3b 62 be 26 a3 97 be
       -0.2049724 -0.14557004 -0.2209295 -0.2961666
000090 75 06 3d be 23 2d 8b 3e 42 7e 10 3e 00 f2 1c 3e
       -0.18459494 0.27182874 0.14110664 0.1532669
0000a0 90 3d 88 3c 08 04 26 be c0 23 5b 3d 58 2c 97 be
       0.016630918 -0.16212475 0.05350089 -0.2952602
0000b0 ba fa 69 be 00 f0 26 be fe 4e 4c 3e 66 dc 3d 3e
       -0.22849551 -0.1630249 0.19952008 0.18541107
0000c0 80 9c 0f be 20 f2 3a bc 92 0d 4d 3e 45 ef 9f 3e
       -0.14024544 -0.011410266 0.20024708 0.31237236
0000d0 78 f0 fc 3d 86 ca 26 3d 36 11 57 3e 4e b6 40 be
       0.12350553 0.040720485 0.21002659 -0.18819544
0000e0 d6 2c 69 3d e6 1a 7d be 24 7b 62 be 92 53 29 be
       0.056927525 -0.24717292 -0.22117287 -0.16535786
0000f0 e8 58 3d 3e 2a 0e 2d 3e 3c fc 14 be fe a7 0c 3e
       0.18490946 0.16899934 -0.14549345 0.13735959
000100 62 98 5c 3e e7 87 fa 3a 14 c5 5c 3d 93 b7 eb 3d
       0.21542504 0.0019113988 0.053898886 0.115096234
000110 a0 b7 73 3e c5 e0 b0 3e 8a d6 77 be a7 ee e9 bd
       0.23800516 0.34546486 -0.24202934 -0.114224724
000120 6e f7 00 3e 30 00 87 3e da be 8d 3e 6e b6 8f 3e
       0.12594387 0.2636733 0.2768467 0.2806887
000130 7f 4b 84 3d 04 f1 8b be 8f ef fb 3c ee e0 48 be
       0.06459712 -0.27332318 0.030753879 -0.19617054
000140 33 e4 96 be c7 da 8f 3e b6 37 76 3e 25 82 a1 be
       -0.29470977 0.280966 0.2404469 -0.31544605
000150 28 70 72 3d 78 33 5a bd a8 26 55 bd c5 3a 14 be
       0.05918899 -0.05327174 -0.05203882 -0.14475544
000160 44 0d f9 3d 4f cc 3f be cc 6a ed 3d ca c1 23 3e
       0.12160733 -0.18730281 0.115926355 0.15991893
000170 c2 cf 67 3e 60 28 f2 3d 25 3f a0 be 2a 0f 52 be
       0.22637847 0.11824107 -0.31298175 -0.20513597
000180 d2 af 21 3e 00 8d 87 3d ca 9a 7c be d4 75 3a be
       0.15789726 0.066186905 -0.24668422 -0.1820901
000190 bf 50 98 3e 9e 31 5a 3e 45 31 0d be ee ff a2 bd
       0.29749104 0.2130799 -0.13788326 -0.07958971
0001a0 dd 3b 9a be 40 40 ba bb 7c da 73 be 52 c7 79 be
       -0.30123797 -0.0056839287 -0.23813814 -0.24392441
0001b0 d0 bc 8e bc 70 7a 42 3d 45 bd 0c be ff 04 38 3e
       -0.017424017 0.047480047 -0.13744076 0.17970656
0001c0 8d 2e 4d be 16 d9 8e 3e 17 c9 55 3e 0a 99 8c be
       -0.20037289 0.27899998 0.20877491 -0.2746051
0001d0 52 70 b1 bd 66 87 cf 3b f4 79 1c 3d 7c 59 89 3d
       -0.086640015 0.0063332794 0.03820224 0.06706521
0001e0 6c 26 fe 3d 70 2c 9b 3c ef ff 1d be 0c 3a 19 3e
       0.12409672 0.018942088 -0.15429662 0.1496355
0001f0 87 4f 9b be bb ed 3f be 4c 1f a2 bd 57 bc 1d be
       -0.30334112 -0.1874303 -0.07916126 -0.15403877
000200 6c 90 e2 bd 2d b4 84 be 91 aa 96 bd 22 10 7b 3d
       -0.110627025 -0.25918713 -0.07356752 0.061294682
000210 61 68 59 be fb 8f b8 bc 5b 5a 61 3e 66 f6 1e bd
       -0.21231224 -0.022529593 0.22007124 -0.038809203
000220 d0 08 23 3b e0 8c 09 bd 4c 54 6c 3d a3 71 47 3e
       0.0024877079 -0.033581614 0.05769758 0.19476943
000230 b3 b7 9b 3e a9 57 52 3e 87 11 9c 3e b9 bf 95 bc
       0.3041359 0.20541252 0.30482122 -0.018279897
000240 82 18 8f be 63 d0 14 be 71 30 61 3e 32 7a 26 3b
       -0.27948385 -0.14532618 0.21991135 0.0025402424
000250 77 40 1c be d1 71 73 be c3 85 97 be f7 a6 88 be
       -0.15258966 -0.23773886 -0.2959424 -0.26689884
000260 34 5d 83 bd 54 95 31 3e a4 11 2f 3e 5b 26 9c be
       -0.064142615 0.1734212 0.17096573 -0.30498013
000270 ca fd 49 3e da 63 7d be a6 ea 88 bd 8d 4c 03 be
       0.19725719 -0.24745122 -0.06685381 -0.1282217

convs.0.apply_func.bias f4 [16]
000000 10 7d 79 bd 10 51 7e bd e3 f1 32 bf 4c cc 8b be
       -0.060910285 -0.062089026 -0.6990034 -0.27304304
000010 d8 ae 4a bd 89 4e 9c 3d f3 3e 0d bf 1c 63 04 3f
       -0.04948315 0.07632167 -0.5517418 0.5171373
000020 2a ba 91 be 10 d4 ae bc b5 62 8e 3e 46 3a 05 be
       -0.28462344 -0.021341354 0.27809682 -0.13010511
000030 39 34 92 3e fc 34 1a 3f ed b7 1b bf da e0 4c 3e
       0.28555468 0.602371 -0.60827523 0.20007649

convs.1.apply_func.weight f4 [32, 16]
000000 f0 53 ec bc 70 8f e4 bd 2d 4c 61 3e 54 df 4e be
       -0.028848618 -0.11160171 0.22001715 -0.2020238
000010 b0 c2 db 3c 85 14 88 bd f0 7a 32 3e 08 b9 34 3d
       0.026826233 -0.06644539 0.1742971 0.044121772
000020 cc 04 f6 3d 40 d1 b4 3d 00 3f 76 bd 96 1c 48 bd
       0.12012634 0.08828974 -0.060118675 -0.048855387
000030 00 f7 52 be ba 41 e3 3d 68 1b 77 3e 5c 29 2f 3e
       -0.20602036 0.11096521 0.24131548 0.17105621
000040 ac 93 34 be 60 ae 36 3c 90 76 34 be 88 ec 0c be
       -0.17634457 0.011149973 -0.17623353 -0.13762105
000050 30 2c 15 be 34 f9 ae 3d c4 8d 18 be 00 ba b2 bb
       -0.14567637 0.085436255 -0.1489783 -0.005454302
000060 a0 4f 2c 3c 04 06 25 3e fa 83 41 be 44 bf 2f be
       0.010517031 0.16115576 -0.18898001 -0.17162806
000070 3c a6 14 be d6 2e 33 3e cc 0b b8 bd e0 ee 57 3e
       -0.14516538 0.17498335 -0.08986625 0.21087217
000080 a0 24 b9 3d 40 aa 01 3d 35 a4 5c 3c 08 6d 4a bd
       0.09040189 0.031656504 0.013466884 -0.049420387
000090 40 7a 00 3d 20 2a 53 bd ba 2a 1c 3c 70 97 12 3d
       0.031366587 -0.051553845 0.009531671 0.035788953
0000a0 98 3e 48 be 7a 2d 06 be d8 b7 4e 3e 65 71 44 be
       -0.19555128 -0.13103285 0.20187318 -0.19183882
0000b0 20 0f 93 bc af c8 80 3e 19 06 ed 3d c0 f0 e7 3b
       -0.017951548 0.2515311 0.11573429 0.00707826
0000c0 26 da 5d be 2c a2 fd 3d 08 58 36 be a8 56 91 bd
       -0.21665248 0.123844475 -0.17807019 -0.070966065
0000d0 cc c8 ab bd 38 a4 17 bd 80 36 33 3b 96 26 53 3e
       -0.08387908 -0.037021846 0.0027345717 0.20620188
0000e0 80 ab ff 3c 20 4c 65 3e 30 99 1c 3e c6 d8 21 be
       0.031209707 0.2239232 0.15292811 -0.15805349
0000f0 54 a2 e5 3d 24 f7 34 be 9c ff d8 bd 40 97 96 3d
       0.11212602 -0.17672402 -0.105956286 0.073530674
000100 f0 0e a9 3d f2 0e 40 3e fd 3b d0 bd 00 d4 d1 39
       0.08254802 0.18755701 -0.10167692 0.0004002154
000110 7a cb 03 3e e8 ca 7b be 01 2c 2d 3e c7 fb 52 be
       0.12870589 -0.24589121 0.16911317 -0.20603858
000120 00 d0 61 3b e0 18 2e bd 0a d4 06 be ab ac a6 3c
       0.0034456253 -0.04250419 -0.13166824 0.020346006
000130 f2 b0 53 3e 20 f1 94 bd 2a 73 3a be 84 5b bd bd
       0.20672968 -0.072725534 -0.18207994 -0.09245971
000140 e6 bb 7d be 1c 1d e7 3d 5a 0a 06 be d0 d6 2a be
       -0.24778709 0.11284849 -0.13089886 -0.16683507
000150 62 7b 13 be 2d 8d 17 3e a1 99 09 3e 93 fb 4f 3e
       -0.14402536 0.14799948 0.13437511 0.20310812
000160 d8 b6 b9 3d c4 fc aa bd d4 13 8f bd be 67 8e 3d
       0.09068078 -0.083489925 -0.06986204 0.06953381
000170 de 70 52 3e af ea 9d 3d 55 f4 0a be fc ad f0 bd
       0.20550868 0.07710778 -0.13569768 -0.11751935
000180 42 0a 72 be b0 3b 5d 3d 70 15 f3 be 50 3e 64 be
       -0.23636726 0.054012 -0.47477293 -0.22289395
000190 fa 7a 60 3e c3 f6 1b bd 13 2a b3 bc 8e f9 8b 3e
       0.21921912 -0.038077127 -0.021870648 0.27338833
0001a0 e0 7d 02 3c fa 41 2c be 2c ee 4e be 70 94 c6 3c
       0.007964581 -0.16822043 -0.20208043 0.024240702
0001b0 30 bf 26 3d c5 dd cc 3e 4b bf 0b bf f8 cf 96 3d
       0.040709674 0.40012947 -0.54588765 0.07363886
0001c0 18 2a 6a bd 60 27 36 bc 52 ea 1b be ac 28 ad 3d
       -0.05716905 -0.011117786 -0.15226105 0.08455023
0001d0 80 e0 a1 3d 40 fd a8 bb c0 4c 66 bd 58 ce 1d be
       0.07904148 -0.005157143 -0.05622554 -0.15410745
0001e0 14 09 31 3e 94 92 3e be ac bf d1 3d 6c 29 ac bd
       0.1728862 -0.18610603 0.10241637 -0.08406338
0001f0 0c 06 f7 bd e0 f4 37 3d 22 fb 04 be 40 ef 6b 3d
       -0.120617 0.044911265 -0.12986425 0.057601213
000200 10 18 49 3d ca 13 3e be 98 7e 2a 3d 64 13 da 3d
       0.049095213 -0.18562236 0.041624635 0.1064823
000210 5c aa ca 3d 58 e6 00 bd 9a dd 51 be 90 da 1d bd
       0.09895775 -0.031469673 -0.2049469 -0.038538516
000220 50 d2 b1 3d 2c d1 ba bd 74 58 c2 3d 86 7c 2a 3e
       0.08682692 -0.091219276 0.09489527 0.16649064
000230 ba ab 05 be 80 93 21 3b 24 b6 d3 3d 90 84 a0 3c
       -0.1305379 0.0024654567 0.10337475 0.01959446
000240 90 12 ab 3c 70 b9 ff 3c 2b 09 52 be e0 f2 a0 3c
       0.020882875 0.031216353 -0.2051131 0.019647062
000250 b4 45 31 3e 9c 12 64 3e 11 24 12 3e c5 d8 06 3d
       0.17311746 0.22272724 0.1427157 0.03292157
000260 7c 1c ef 3d dc 13 f9 bd ec 24 54 be 84 c5 62 be
       0.11675355 -0.12161991 -0.2071721 -0.22145659
000270 5a 63 7f 3e 44 2a 21 3e ad e9 3d be f4 50 c8 3d
       0.24940243 0.1573878 -0.18546171 0.097810656
000280 aa 52 41 3e c2 e6 7f 3e 90 e3 66 3e 44 56 46 3e
       0.1887919 0.24990371 0.22547746 0.19368845
000290 f0 c2 6a bd 6e c0 ae bd 24 f8 55 3e 4a 80 0f 3e
       -0.057314813 -0.08532797 0.2089544 0.14013782
0002a0 30 0e 1a be fe 25 66 3e 90 60 f7 3d d0 d1 0f 3e
       -0.15044475 0.2247543 0.12078965 0.14044881
0002b0 6a 74 20 be 83 bf 94 3d 0a 08 a1 bd fc 06 48 3e
       -0.15669408 0.072630905 -0.078628615 0.19533914
0002c0 58 42 38 bd f8 53 c7 3d 3d e1 a2 bd f8 d6 d9 3d
       -0.044985145 0.09732813 -0.07953117 0.10636705
0002d0 e0 fd ad bd 3b f1 fa 3d 99 24 57 be 92 19 db 3d
       -0.084956884 0.12253042 -0.21010055 0.106982365
0002e0 20 35 2d be ba 8d 7c be 10 95 4d be 4b de 09 3e
       -0.16914797 -0.2466344 -0.20076394 0.13463704
0002f0 50 81 0a 3e c1 ba 93 3e e7 56 e8 3b a0 9e 64 be
       0.13525891 0.2885342 0.0070904377 -0.22326136
000300 ce b3 2e be e8 75 25 bd 32 41 26 be f8 c3 31 3e
       -0.17060778 -0.040395647 -0.16235808 0.17359912
000310 ba 89 41 be 38 ce f9 bd c4 51 77 be c6 57 11 be
       -0.18900195 -0.12197536 -0.24152285 -0.14193639
000320 e2 8d 52 3e 42 9a 51 3e 24 41 37 3e 22 aa 45 3e
       0.20561936 0.20469001 0.17895943 0.19303182
000330 ba a1 63 3e b0 1a 83 bd f4 47 e1 3d 04 14 64 3e
       0.22229663 -0.064015746 0.11000052 0.2227326
000340 14 61 a9 3d ca ea 7f 3e 06 c8 18 3e 58 24 1f 3e
       0.08270469 0.24991909 0.14920053 0.15541208
000350 2c 32 b3 bd d2 6c 05 3e f3 97 45 3d 4a 9f 46 bd
       -0.08749804 0.13029793 0.048240613 -0.048491754
000360 4a 4f 10 be 56 a5 0f be b2 fc 44 be c8 96 3b 3e
       -0.14092746 -0.14027914 -0.1923702 0.18319237
000370 96 ff 35 3e f7 5a 9b bc 7c 20 e8 bd 22 dd 45 3e
       0.1777328 -0.018964274 -0.11334321 0.19322637
000380 8c b5 23 3e 70 3c 98 3c aa 3a e9 bd b8 46 6b 3e
       0.15987223 0.018583506 -0.113881424 0.22976196
000390 ac 60 d1 3d 12 90 3e be 3c 35 79 3e a7 e5 45 3e
       0.10223517 -0.18609646 0.24336714 0.19325887
0003a0 8c 9e ba bd 5c e9 0f 3e d6 74 11 be 26 46 13 bd
       -0.09112272 0.14053863 -0.14204726 -0.03595557
0003b0 b2 5e 59 3e 7d 1b 68 3c 04 2b 30 be 94 20 ab bd
       0.2122753 0.01416671 -0.17203909 -0.08355823
0003c0 dc fa 8a bd 20 8f 45 bd 8e ee 48 3c a2 c1 6c 3e
       -0.06786129 -0.048232198 0.012263907 0.2312074
0003d0 20 4d 5b 3c c1 da 19 be 50 db 57 3c 28 ed 03 3e
       0.013385087 -0.15024854 0.013174847 0.12883437
0003e0 fc f8 fd 3d e0 f7 69 be b0 3c 37 bd cb 32 44 be
       0.124010056 -0.22848463 -0.04473561 -0.19160001
0003f0 88 76 da bd 37 d3 c9 3d 07 bb 4c be fc 52 be 3d
       -0.10667139 0.09854739 -0.1999322 0.09293172

convs.1.apply_func.bias f4 [32]
000000 23 d7 be be cc 27 99 3d 42 13 fa be 0a eb 1d be
       -0.3727351 0.07478294 -0.48842818 -0.15421692
000010 c0 9c 57 3f 91 d6 90 3e 49 b0 60 3f cc 1d 6f be
       0.84223557 0.282887 0.8776899 -0.2335121
000020 9c b5 33 3e bd de 30 3e 31 26 61 be 36 bc b4 3f
       0.17549747 0.17272468 -0.21987225 1.4119937
000030 7c a2 ef bd a2 0c fd 3e 0f af f6 be 1d 78 26 3f
       -0.11700913 0.494237 -0.48180434 0.6502703
000040 59 26 c7 be 30 75 dd bc 11 df 34 be 71 39 fb 3e
       -0.38896444 -0.027033418 -0.17663218 0.49067262
000050 14 a6 0a 3e a3 9c c6 3d 28 15 02 bd bc 29 f3 bd
       0.13539916 0.09697845 -0.031758457 -0.118731946
000060 ba ec 5e be 7c e2 6a be f4 e0 79 3e c4 2c 3f bf
       -0.21769992 -0.2293796 0.24402219 -0.7467768
000070 08 90 f7 be 3c cf 8a 3d 2c 78 84 3e 3d 8a e4 3e
       -0.48352075 0.06777808 0.25872934 0.44636717

convs.2.apply_func.weight f4 [16, 32]
000000 4f cf 12 3e 3a 1d 06 be c8 04 e8 bc 5e 3b d6 bd
       0.14336894 -0.13097087 -0.028322592 -0.10460542
000010 f7 d9 ce bd 98 c1 2b 3d d7 e9 29 3e eb 03 11 be
       -0.10100167 0.041932672 0.16593109 -0.14161651
000020 7e 1b db 3d 7b b4 bb bd 18 08 0d bd 19 b0 0f 3e
       0.10698603 -0.09165283 -0.034431547 0.1403202
000030 c8 c3 23 bd e0 dc 83 3c aa 13 fd bd 4f 17 1a 3e
       -0.039981633 0.016096532 -0.12357266 0.15047954
000040 e8 33 bb bc 54 65 04 be 70 04 54 3d 38 b5 00 be
       -0.0228519 -0.12929279 0.051762044 -0.1256913
000050 e2 a3 0f be d0 70 30 3c 1f 85 0f 3e fc e6 4c bd
       -0.1402736 0.010769084 0.14015625 -0.05002497
000060 4e 66 aa 3d c3 8d 1b 3e 4a 20 f0 3d 50 e9 bd bd
       0.08320294 0.15190797 0.11724909 -0.092730165
000070 18 bf 9e bc 2e db 63 bd d2 8f 11 be 00 30 99 38
       -0.01937823 -0.055628948 -0.1421502 7.304549e-05
000080 f4 5d fc 3d f9 82 18 3e ab da aa 3b 64 74 24 3d
       0.12322608 0.14893712 0.0052140555 0.04015006
000090 ca f2 87 bd ad 81 03 3e 9f 41 36 3f be 7d fb bd
       -0.06638105 0.12842436 0.7119388 -0.12279843
0000a0 a0 01 df 3c 0e f1 ca 3d e1 16 2d be aa cd 68 3e
       0.027222455 0.09909259 -0.16903259 0.22734705
0000b0 90 3c 82 3d 17 e5 05 be 83 08 4c bd 99 9b 7d 3e
       0.06359208 -0.13075672 -0.049812805 0.24766387
0000c0 0d 50 1c be 9c a1 53 bd 9c e9 50 3d 70 15 27 be
       -0.15264912 -0.051667795 0.051004037 -0.16316772
0000d0 7a 45 b4 3d 63 21 a8 3d d2 89 e0 3d 14 d1 e6 bd
       0.08802314 0.08209493 0.10963787 -0.11270347
0000e0 a1 4b 34 3e 43 9a d6 bd ed f0 2b 3e 48 be 38 be
       0.17606975 -0.10478642 0.16791125 -0.18041337
0000f0 e7 b7 2e be e2 5c de 3d 6c df 44 3c e6 89 10 3b
       -0.1706234 0.1085756 0.012016159 0.002205485
000100 61 7b c8 bd c8 dd 97 bd 0c b6 53 bd 4a 57 30 be
       -0.09789158 -0.07415348 -0.051687285 -0.17220798
000110 70 84 16 3c 3c 0f 00 3d 00 f0 1c b9 98 d3 69 3d
       0.009186849 0.03126453 -0.00014966726 0.057086557
000120 a7 c2 2b 3e 48 85 40 3d 49 88 84 bd ee fe 94 bd
       0.16773473 0.047002107 -0.06471307 -0.072751865
000130 65 a2 e7 bd d6 f8 fa bd a0 39 e9 bc 78 10 00 bd
       -0.11310271 -0.12254493 -0.02846986 -0.031265706
000140 b2 0e a1 3d a8 bf 9a bd 2d 4f 10 3e 0d 09 fe bd
       0.07864131 -0.07556087 0.14092703 -0.1240407
000150 00 b6 03 3a cd b8 22 3e c1 00 34 3e 20 b7 d1 bd
       0.00050243735 0.15890808 0.17578413 -0.102400064
000160 a8 fa 00 3d 58 0f ab 3c 10 be a9 bd 3e 2a 7a bd
       0.031489044 0.02088134 -0.08288205 -0.06107544
000170 88 1e 44 3d c4 bf fb bd 70 f0 ee 3c be a9 9c 3d
       0.04788068 -0.12292436 0.029167384 0.07649563
000180 19 9d d4 bd b3 5c 16 3e 98 fb 36 be f6 42 a4 3d
       -0.103815265 0.146838 -0.17869413 0.08020584
000190 b5 ee d6 3e ec 16 37 bd d4 b1 f0 3b 78 1b 4f bd
       0.41978994 -0.044699594 0.0073454175 -0.050563306
0001a0 48 89 d3 bc a6 29 3b bd aa b9 f6 bc 73 da ad 3f
       -0.025822297 -0.045694016 -0.030117828 1.358229
0001b0 d8 b6 29 3d c1 ba cc 3d ba 74 33 3d 0c f0 02 3e
       0.04143414 0.09996558 0.04381249 0.12786883
0001c0 c9 7d 24 be c5 ac 86 bd 2d 85 32 be 5b 95 b5 3d
       -0.16063608 -0.06575922 -0.17433615 0.08866378
0001d0 7a e0 77 3c e8 3c 6d bd 6c d0 74 bd 98 5c 3d 3d
       0.015129203 -0.057919413 -0.05976908 0.046230882
0001e0 e8 ec 02 bd 62 95 ec 3d 5b 06 68 3b 30 8a 46 bc
       -0.031964213 0.1155193 0.0035404179 -0.012117907
0001f0 43 9d 8a bc 08 aa 31 bd 11 4e a3 3d 47 8d 0f 3e
       -0.016920691 -0.043375045 0.07973874 0.14018737
000200 e6 2f 3b 3b 60 b2 0d 3d 5e f2 b5 3a ee a9 fa 3d
       0.0028562485 0.03459394 0.0013881435 0.12239443
000210 05 3f a2 bd 1c 3f cb bd e5 4a 50 bd 2f 8b 1d be
       -0.07922176 -0.099241465 -0.050852675 -0.15385126
000220 80 bd 39 3b c3 c5 b2 bd 68 2f e4 3d 78 68 29 be
       0.002834171 -0.08729126 0.111418545 -0.16543758
000230 0e 84 db 3d 87 4d 2d 3e 4d 72 fd 3c f1 ec 39 bc
       0.10718547 0.16924106 0.030938292 -0.011347995
000240 7a 72 2d 3e d3 b7 9a bd e4 0c a1 bc d4 ce a7 bd
       0.169382 -0.07554593 -0.019659467 -0.08193746
000250 3f 59 f6 bc c4 dd 07 3d e0 6a c1 3c 94 c2 08 bd
       -0.030071853 0.033170477 0.023610532 -0.03338869
000260 90 fd 34 be 90 4d 14 3c 42 6b 2a bc 95 3a b0 3c
       -0.17674851 0.0090516955 -0.010401549 0.02151231
000270 f3 1f 05 3e d7 f3 2f 3e 54 0e e2 bd c6 4c 88 bc
       0.13000469 0.17182861 -0.11037889 -0.01663817
000280 f2 70 88 bd ef d5 26 be fa 00 ec bd cf e5 29 3e
       -0.066621676 -0.16292547 -0.11523624 0.16591571
000290 9f 61 12 3e 71 f1 dc 3d 2c a8 5b 3f e9 d0 0f be
       0.14295052 0.10788239 0.85803485 -0.14044537
0002a0 88 15 98 3c 03 6b 35 3e 50 0a bf bd 67 ed 4b 3e
       0.018564954 0.17716603 -0.09328139 0.1991478
0002b0 bc 50 3e 3d e5 b2 05 3e 0c 65 89 bd f0 bf 52 3e
       0.046463713 0.13056524 -0.06708726 0.20581031
0002c0 0a ca 1e be 10 e7 37 bc 6c 0b 93 3d 8e f5 81 3d
       -0.1550676 -0.011224523 0.07179913 0.06345664
0002d0 e7 44 1c 3e 74 9a 38 3e 01 af 24 3e e6 11 f3 3d
       0.15260659 0.18027669 0.16082384 0.11868648
0002e0 22 89 fe 3d e0 da ba bc 07 92 06 be a6 47 72 bd
       0.124285 -0.022809446 -0.13141643 -0.05915036
0002f0 bb 7f 8b bc 0d a4 c3 bd 32 a6 d3 3d c1 ae 8e 3d
       -0.01702868 -0.095527746 0.103344336 0.069669254
000300 98 a9 e9 3c 9c e8 2e 3d 51 04 1f 3e a8 dd 83 3d
       0.028523251 0.042702302 0.1552899 0.06438762
000310 34 be 1e be 01 66 03 be 82 91 9f 3d 78 5a c5 3c
       -0.15502244 -0.1283188 0.07791425 0.02409099
000320 2e 90 b0 3d a1 c9 34 be a4 0e 27 be fe 02 de 3d
       0.0862125 -0.1765504 -0.16314179 0.108404145
000330 92 93 e7 3d 2b c5 23 be ae 6c 89 3d 10 59 0d be
       0.11307444 -0.15993182 0.06710182 -0.13803506
000340 5d 16 09 3e 64 35 63 3d 53 fd 32 3e ce 7b 32 be
       0.13387437 0.05547084 0.17479448 -0.1743004
000350 54 43 2e be 6a c6 f4 3d 91 b6 20 3e 56 d0 dd 3d
       -0.17017871 0.11951907 0.15694644 0.108307526
000360 b2 b1 f0 3d a7 77 18 be 37 06 03 3e ac e8 2a be
       0.11752643 -0.14889394 0.1279534 -0.1669032
000370 94 c2 21 3d de 25 ed bd d4 cc 8f bd 28 36 00 3d
       0.039492205 -0.11579488 -0.0702149 0.031301647
000380 ac 58 8e bd 98 21 e5 bc 15 93 2b be a4 ad 2a be
       -0.069505066 -0.02797012 -0.16755326 -0.16667801
000390 8c 3d 8c 3d 40 3e 99 bd b4 42 dc bd a2 da 8e bd
       0.06847677 -0.07482576 -0.1075491 -0.06975295
0003a0 e7 fe 13 be f7 b4 10 be 4a a2 d8 3d da 00 b8 3d
       -0.14452706 -0.14131533 0.10577829 0.089845374
0003b0 38 e6 c0 3c 61 c4 c5 bd b8 e6 70 3d 10 1e 02 3c
       0.023547277 -0.09656597 0.05881378 0.007941738
0003c0 9e 5e 01 be 68 d0 1b 3d 79 d3 24 3e 40 0d 32 be
       -0.1263375 0.03804055 0.16096295 -0.17387867
0003d0 14 01 34 be 78 8b b9 3c c5 4f 08 3e fc 4b dc bd
       -0.17578536 0.022649512 0.1331168 -0.1075668
0003e0 74 65 1f 3d 02 82 fe 3d b0 3e 5f 3d b8 b2 1c 3d
       0.038915113 0.12427141 0.054503143 0.038256377
0003f0 91 9b 34 3e ba db eb 3d ce 9e cb bd d0 58 7a 3c
       0.17637469 0.11516519 -0.09942399 0.015279964

convs.2.apply_func.bias f4 [16]
000000 dd b9 8e bd 7f d3 9a bf 8a 6c b4 3d 8f 11 d3 bf
       -0.06969044 -1.2095793 0.08809765 -1.6489733
000010 b4 fe 6f 3d b8 70 b6 3e 26 34 e4 3d 10 3c 1d be
       0.058592513 0.35632873 0.11142759 -0.15354943
000020 5b 63 16 be 22 9a a2 3d d6 8d a9 3d de 4b 86 be
       -0.14686339 0.07939555 0.08279006 -0.26229757
000030 f1 e4 c9 bd 77 04 de bf b8 af 01 be e6 d5 26 bd
       -0.0985812 -1.7345113 -0.12664688 -0.040731333

classify.weight f4 [4, 16]
000000 90 d9 53 3e 32 74 93 bd ae 08 13 3e 81 22 86 3e
       0.20688462 -0.07199897 0.1435878 0.261982
000010 12 b8 f5 3d 64 e8 a9 be 34 d3 00 3e 64 4b c3 3d
       0.11997999 -0.33185112 0.12580568 0.09535864
000020 b2 6a 46 3e f4 86 7c be 97 44 d1 3d 27 dc 54 3e
       0.19376639 -0.24660856 0.102181606 0.20787106
000030 62 2c 6e be fd 50 ec 3c 52 8a 5a 3e fd 8d 2e be
       -0.23259118 0.028847212 0.21341828 -0.17046352
000040 40 ff a7 3d bd 5f 0d 3e ac 30 86 3d 85 b6 c1 3e
       0.08202982 0.13806053 0.06552252 0.37834564
000050 18 65 4d 3e 6b de 4f 3e d0 46 ff bc de b5 56 3e
       0.20058095 0.2029969 -0.031161696 0.20967814
000060 d4 91 6e be 26 25 0a be d9 08 f3 bc 4a c8 d8 bd
       -0.23297817 -0.13490734 -0.029667305 -0.10585077
000070 42 77 6c 3e 99 8b 89 3e ee d0 24 3e 6c 06 24 3e
       0.23092368 0.26864317 0.16095325 0.16018075
000080 a0 3b 3f be 28 65 c7 3b 78 87 15 3d 10 c9 c5 3d
       -0.18675089 0.006085057 0.036506146 0.0965749
000090 ad bd e2 3d 8a 86 c2 3e b8 62 9a bd ae 34 56 3e
       0.11071334 0.3799327 -0.0753836 0.20918533
0000a0 ac 69 89 bd 04 d4 31 be 1c a8 26 3e 7f 85 ec 3e
       -0.067096084 -0.17366034 0.16275066 0.461956
0000b0 d8 8b a0 bd 0a c6 c0 bf b4 e5 3c be ff 7f 6b be
       -0.07839173 -1.5060437 -0.18447 -0.22998045
0000c0 90 89 c0 3d ea fb 36 be ea cc 4b 3e a3 5e c5 bf
       0.09401238 -0.17869535 0.19902387 -1.5419506
0000d0 0b d9 3f bc 7e 44 37 3e 0a 92 03 3e 4c 30 4f 3e
       -0.011709462 0.17897221 0.12848678 0.20233268
0000e0 46 5d 2d 3e 60 61 e1 3d 4d f3 11 be 10 e0 ca be
       0.16930112 0.11004901 -0.14252968 -0.3962407
0000f0 58 05 65 be 4c 71 5f 3f 12 4a 78 3e 3b ac ba bc
       -0.2236532 0.8728225 0.24247006 -0.022787204

classify.bias f4 [4]
000000 02 bf 82 be de 56 ba bf 96 bd 7a 3f cb 07 a4 3f
       -0.25536352 -1.455776 0.97945535 1.2814878

exp_avg f4 [16, 10]
000000 00 00 00 00 00 00 00 00 00 00 00 00 00 00 00 00
       0.0 0.0 0.0 0.0
000010 00 00 00 00 00 00 00 00 00 00 00 00 00 00 00 00
       0.0 0.0 0.0 0.0
000020 00 00 00 00 00 00 00 00 00 00 00 00 00 00 00 00
       0.0 0.0 0.0 0.0
000030 00 00 00 00 00 00 00 00 00 00 00 00 00 00 00 00
       0.0 0.0 0.0 0.0
000040 00 00 00 00 00 00 00 00 00 00 00 00 00 00 00 00
       0.0 0.0 0.0 0.0
000050 0b d5 74 ba 0b d5 74 ba 0b d5 74 ba 0b d5 74 ba
       -0.0009339607 -0.0009339607 -0.0009339607 -0.0009339607
000060 0b d5 74 ba 0b d5 74 ba 0b d5 74 ba 0b d5 74 ba
       -0.0009339607 -0.0009339607 -0.0009339607 -0.0009339607
000070 0b d5 74 ba 0b d5 74 ba 00 00 00 00 00 00 00 00
       -0.0009339607 -0.0009339607 0.0 0.0
000080 00 00 00 00 00 00 00 00 00 00 00 00 00 00 00 00
       0.0 0.0 0.0 0.0
000090 00 00 00 00 00 00 00 00 00 00 00 00 00 00 00 00
       0.0 0.0 0.0 0.0
0000a0 00 00 00 00 00 00 00 00 00 00 00 00 00 00 00 00
       0.0 0.0 0.0 0.0
0000b0 00 00 00 00 00 00 00 00 00 00 00 00 00 00 00 00
       0.0 0.0 0.0 0.0
0000c0 00 00 00 00 00 00 00 00 7a 55 b4 3c 7a 55 b4 3c
       0.0 0.0 0.022013415 0.022013415
0000d0 7a 55 b4 3c 7a 55 b4 3c 7a 55 b4 3c 7a 55 b4 3c
       0.022013415 0.022013415 0.022013415 0.022013415
0000e0 7a 55 b4 3c 7a 55 b4 3c 7a 55 b4 3c 7a 55 b4 3c
       0.022013415 0.022013415 0.022013415 0.022013415
0000f0 5d 9b 18 bc 5d 9b 18 bc 5d 9b 18 bc 5d 9b 18 bc
       -0.009314385 -0.009314385 -0.009314385 -0.009314385
000100 5d 9b 18 bc 5d 9b 18 bc 5d 9b 18 bc 5d 9b 18 bc
       -0.009314385 -0.009314385 -0.009314385 -0.009314385
000110 5d 9b 18 bc 5d 9b 18 bc d8 90 90 bc d8 90 90 bc
       -0.009314385 -0.009314385 -0.017647192 -0.017647192
000120 d8 90 90 bc d8 90 90 bc d8 90 90 bc d8 90 90 bc
       -0.017647192 -0.017647192 -0.017647192 -0.017647192
000130 d8 90 90 bc d8 90 90 bc d8 90 90 bc d8 90 90 bc
       -0.017647192 -0.017647192 -0.017647192 -0.017647192
000140 00 00 00 00 00 00 00 00 00 00 00 00 00 00 00 00
       0.0 0.0 0.0 0.0
000150 00 00 00 00 00 00 00 00 00 00 00 00 00 00 00 00
       0.0 0.0 0.0 0.0
000160 00 00 00 00 00 00 00 00 00 00 00 00 00 00 00 00
       0.0 0.0 0.0 0.0
000170 00 00 00 00 00 00 00 00 00 00 00 00 00 00 00 00
       0.0 0.0 0.0 0.0
000180 00 00 00 00 00 00 00 00 00 00 00 00 00 00 00 00
       0.0 0.0 0.0 0.0
000190 00 00 00 00 00 00 00 00 00 00 00 00 00 00 00 00
       0.0 0.0 0.0 0.0
0001a0 00 00 00 00 00 00 00 00 00 00 00 00 00 00 00 00
       0.0 0.0 0.0 0.0
0001b0 00 00 00 00 00 00 00 00 50 3e b2 3c 50 3e b2 3c
       0.0 0.0 0.021758229 0.021758229
0001c0 50 3e b2 3c 50 3e b2 3c 50 3e b2 3c 50 3e b2 3c
       0.021758229 0.021758229 0.021758229 0.021758229
0001d0 50 3e b2 3c 50 3e b2 3c 50 3e b2 3c 50 3e b2 3c
       0.021758229 0.021758229 0.021758229 0.021758229
0001e0 00 00 00 00 00 00 00 00 00 00 00 00 00 00 00 00
       0.0 0.0 0.0 0.0
0001f0 00 00 00 00 00 00 00 00 00 00 00 00 00 00 00 00
       0.0 0.0 0.0 0.0
000200 00 00 00 00 00 00 00 00 99 a0 d3 bb 99 a0 d3 bb
       0.0 0.0 -0.0064583537 -0.0064583537
000210 99 a0 d3 bb 99 a0 d3 bb 99 a0 d3 bb 99 a0 d3 bb
       -0.0064583537 -0.0064583537 -0.0064583537 -0.0064583537
000220 99 a0 d3 bb 99 a0 d3 bb 99 a0 d3 bb 99 a0 d3 bb
       -0.0064583537 -0.0064583537 -0.0064583537 -0.0064583537
000230 31 8e 6c 3b 31 8e 6c 3b 31 8e 6c 3b 31 8e 6c 3b
       0.0036095495 0.0036095495 0.0036095495 0.0036095495
000240 31 8e 6c 3b 31 8e 6c 3b 31 8e 6c 3b 31 8e 6c 3b
       0.0036095495 0.0036095495 0.0036095495 0.0036095495
000250 31 8e 6c 3b 31 8e 6c 3b 00 00 00 00 00 00 00 00
       0.0036095495 0.0036095495 0.0 0.0
000260 00 00 00 00 00 00 00 00 00 00 00 00 00 00 00 00
       0.0 0.0 0.0 0.0
000270 00 00 00 00 00 00 00 00 00 00 00 00 00 00 00 00
       0.0 0.0 0.0 0.0

exp_avg_sq f4 [16, 10]
000000 00 00 00 00 00 00 00 00 00 00 00 00 00 00 00 00
       0.0 0.0 0.0 0.0
000010 00 00 00 00 00 00 00 00 00 00 00 00 00 00 00 00
       0.0 0.0 0.0 0.0
000020 00 00 00 00 00 00 00 00 00 00 00 00 00 00 00 00
       0.0 0.0 0.0 0.0
000030 00 00 00 00 00 00 00 00 00 00 00 00 00 00 00 00
       0.0 0.0 0.0 0.0
000040 00 00 00 00 00 00 00 00 00 00 00 00 00 00 00 00
       0.0 0.0 0.0 0.0
000050 a1 20 88 3d a1 20 88 3d a1 20 88 3d a1 20 88 3d
       0.066468485 0.066468485 0.066468485 0.066468485
000060 a1 20 88 3d a1 20 88 3d a1 20 88 3d a1 20 88 3d
       0.066468485 0.066468485 0.066468485 0.066468485
000070 a1 20 88 3d a1 20 88 3d 00 00 00 00 00 00 00 00
       0.066468485 0.066468485 0.0 0.0
000080 00 00 00 00 00 00 00 00 00 00 00 00 00 00 00 00
       0.0 0.0 0.0 0.0
000090 00 00 00 00 00 00 00 00 00 00 00 00 00 00 00 00
       0.0 0.0 0.0 0.0
0000a0 00 00 00 00 00 00 00 00 00 00 00 00 00 00 00 00
       0.0 0.0 0.0 0.0
0000b0 00 00 00 00 00 00 00 00 00 00 00 00 00 00 00 00
       0.0 0.0 0.0 0.0
0000c0 00 00 00 00 00 00 00 00 41 a6 85 3e 41 a6 85 3e
       0.0 0.0 0.26103404 0.26103404
0000d0 41 a6 85 3e 41 a6 85 3e 41 a6 85 3e 41 a6 85 3e
       0.26103404 0.26103404 0.26103404 0.26103404
0000e0 41 a6 85 3e 41 a6 85 3e 41 a6 85 3e 41 a6 85 3e
       0.26103404 0.26103404 0.26103404 0.26103404
0000f0 6e 98 65 3c 6e 98 65 3c 6e 98 65 3c 6e 98 65 3c
       0.014013393 0.014013393 0.014013393 0.014013393
000100 6e 98 65 3c 6e 98 65 3c 6e 98 65 3c 6e 98 65 3c
       0.014013393 0.014013393 0.014013393 0.014013393
000110 6e 98 65 3c 6e 98 65 3c 5e a5 ce 3d 5e a5 ce 3d
       0.014013393 0.014013393 0.10090135 0.10090135
000120 5e a5 ce 3d 5e a5 ce 3d 5e a5 ce 3d 5e a5 ce 3d
       0.10090135 0.10090135 0.10090135 0.10090135
000130 5e a5 ce 3d 5e a5 ce 3d 5e a5 ce 3d 5e a5 ce 3d
       0.10090135 0.10090135 0.10090135 0.10090135
000140 00 00 00 00 00 00 00 00 00 00 00 00 00 00 00 00
       0.0 0.0 0.0 0.0
000150 00 00 00 00 00 00 00 00 00 00 00 00 00 00 00 00
       0.0 0.0 0.0 0.0
000160 00 00 00 00 00 00 00 00 00 00 00 00 00 00 00 00
       0.0 0.0 0.0 0.0
000170 00 00 00 00 00 00 00 00 00 00 00 00 00 00 00 00
       0.0 0.0 0.0 0.0
000180 00 00 00 00 00 00 00 00 00 00 00 00 00 00 00 00
       0.0 0.0 0.0 0.0
000190 00 00 00 00 00 00 00 00 00 00 00 00 00 00 00 00
       0.0 0.0 0.0 0.0
0001a0 00 00 00 00 00 00 00 00 00 00 00 00 00 00 00 00
       0.0 0.0 0.0 0.0
0001b0 00 00 00 00 00 00 00 00 db 30 82 3e db 30 82 3e
       0.0 0.0 0.254279 0.254279
0001c0 db 30 82 3e db 30 82 3e db 30 82 3e db 30 82 3e
       0.254279 0.254279 0.254279 0.254279
0001d0 db 30 82 3e db 30 82 3e db 30 82 3e db 30 82 3e
       0.254279 0.254279 0.254279 0.254279
0001e0 00 00 00 00 00 00 00 00 00 00 00 00 00 00 00 00
       0.0 0.0 0.0 0.0
0001f0 00 00 00 00 00 00 00 00 00 00 00 00 00 00 00 00
       0.0 0.0 0.0 0.0
000200 00 00 00 00 00 00 00 00 31 c1 01 3e 31 c1 01 3e
       0.0 0.0 0.12671353 0.12671353
000210 31 c1 01 3e 31 c1 01 3e 31 c1 01 3e 31 c1 01 3e
       0.12671353 0.12671353 0.12671353 0.12671353
000220 31 c1 01 3e 31 c1 01 3e 31 c1 01 3e 31 c1 01 3e
       0.12671353 0.12671353 0.12671353 0.12671353
000230 5b b6 04 3e 5b b6 04 3e 5b b6 04 3e 5b b6 04 3e
       0.12960188 0.12960188 0.12960188 0.12960188
000240 5b b6 04 3e 5b b6 04 3e 5b b6 04 3e 5b b6 04 3e
       0.12960188 0.12960188 0.12960188 0.12960188
000250 5b b6 04 3e 5b b6 04 3e 00 00 00 00 00 00 00 00
       0.12960188 0.12960188 0.0 0.0
000260 00 00 00 00 00 00 00 00 00 00 00 00 00 00 00 00
       0.0 0.0 0.0 0.0
000270 00 00 00 00 00 00 00 00 00 00 00 00 00 00 00 00
       0.0 0.0 0.0 0.0

exp_avg f4 [16]
000000 00 00 00 00 00 00 00 00 e4 10 cc 3b 00 00 00 00
       0.0 0.0 0.0062275995 0.0
000010 00 00 00 00 bd d5 56 39 e1 ad 9b 3b 49 0b 05 bc
       0.0 0.00020488254 0.0047509526 -0.008120366
000020 00 00 00 00 00 00 00 00 00 00 00 00 46 e9 7c ba
       0.0 0.0 0.0 -0.00096477976
000030 00 00 00 00 a1 96 51 bc e2 8a a0 3b 00 00 00 00
       0.0 -0.01279226 0.0048993686 0.0

exp_avg_sq f4 [16]
000000 00 00 00 00 00 00 00 00 84 70 0c 3a 00 00 00 00
       0.0 0.0 0.00053573423 0.0
000010 00 00 00 00 40 0a eb 3a 0a 83 12 3a 6c 09 ad 3a
       0.0 0.0017932132 0.00055889843 0.001320166
000020 00 00 00 00 00 00 00 00 00 00 00 00 98 65 31 3b
       0.0 0.0 0.0 0.0027068611
000030 00 00 00 00 13 6c 93 3a fd b5 93 3a 00 00 00 00
       0.0 0.0011247419 0.0011269447 0.0

exp_avg f4 [32, 16]
000000 00 00 00 00 00 00 00 00 cb ed 84 3a 00 00 00 00
       0.0 0.0 0.0010141669 0.0
000010 00 00 00 00 1a 30 86 3a 65 fe 19 3c 72 d3 12 3b
       0.0 0.0010237724 0.009399031 0.0022403863
000020 00 00 00 00 00 00 00 00 00 00 00 00 32 10 f2 39
       0.0 0.0 0.0 0.00046169903
000030 00 00 00 00 47 f6 f4 3a bd ec 66 3a 00 00 00 00
       0.0 0.0018689119 0.00088090805 0.0
000040 00 00 00 00 00 00 00 00 00 00 00 00 00 00 00 00
       0.0 0.0 0.0 0.0
000050 00 00 00 00 00 00 00 00 00 00 00 00 00 00 00 00
       0.0 0.0 0.0 0.0
000060 00 00 00 00 00 00 00 00 00 00 00 00 00 00 00 00
       0.0 0.0 0.0 0.0
000070 00 00 00 00 00 00 00 00 00 00 00 00 00 00 00 00
       0.0 0.0 0.0 0.0
000080 00 00 00 00 00 00 00 00 a9 c1 68 bb 00 00 00 00
       0.0 0.0 -0.003551582 0.0
000090 00 00 00 00 d6 c5 7b bb 36 96 0f bd 95 d3 0a bc
       0.0 -0.003841748 -0.03505536 -0.008473297
0000a0 00 00 00 00 00 00 00 00 00 00 00 00 2b cb e2 ba
       0.0 0.0 0.0 -0.001730298
0000b0 00 00 00 00 88 c0 e9 bb d7 e5 47 bb 00 00 00 00
       0.0 -0.007133547 -0.0030501985 0.0
0000c0 00 00 00 00 00 00 00 00 00 00 00 00 00 00 00 00
       0.0 0.0 0.0 0.0
0000d0 00 00 00 00 00 00 00 00 00 00 00 00 00 00 00 00
       0.0 0.0 0.0 0.0
0000e0 00 00 00 00 00 00 00 00 00 00 00 00 00 00 00 00
       0.0 0.0 0.0 0.0
0000f0 00 00 00 00 00 00 00 00 00 00 00 00 00 00 00 00
       0.0 0.0 0.0 0.0
000100 00 00 00 00 00 00 00 00 f6 d9 38 3b 00 00 00 00
       0.0 0.0 0.0028206087 0.0
000110 00 00 00 00 a2 4c 47 3b 44 73 e4 3c 77 0c db 3b
       0.0 0.0030410667 0.027886994 0.0066848355
000120 00 00 00 00 00 00 00 00 00 00 00 00 bf 38 b7 3a
       0.0 0.0 0.0 0.0013978704
000130 00 00 00 00 a3 73 b8 3b 87 95 1d 3b 00 00 00 00
       0.0 0.0056290193 0.0024045424 0.0
000140 00 00 00 00 00 00 00 00 21 57 e4 ba 00 00 00 00
       0.0 0.0 -0.0017420986 0.0
000150 00 00 00 00 d6 d1 e5 ba 34 86 84 bc b7 35 7a bb
       0.0 -0.001753385 -0.016177274 -0.003817899
000160 00 00 00 00 00 00 00 00 00 00 00 00 9f 78 54 ba
       0.0 0.0 0.0 -0.0008105132
000170 00 00 00 00 24 df 50 bb 6d c9 c4 ba 00 00 00 00
       0.0 -0.0031871283 -0.0015013643 0.0
000180 00 00 00 00 00 00 00 00 c9 34 aa 3b 00 00 00 00
       0.0 0.0 0.0051942808 0.0
000190 00 00 00 00 3b 9d e4 ba 66 8b 9e bb db e8 e2 bb
       0.0 -0.0017441878 -0.004838395 -0.006924731
0001a0 00 00 00 00 00 00 00 00 00 00 00 00 e9 1d 33 3a
       0.0 0.0 0.0 0.0006832765
0001b0 00 00 00 00 0b 23 ef bb 49 ab 94 3b 00 00 00 00
       0.0 -0.0072978786 0.0045370203 0.0
0001c0 00 00 00 00 00 00 00 00 00 00 00 00 00 00 00 00
       0.0 0.0 0.0 0.0
0001d0 00 00 00 00 00 00 00 00 00 00 00 00 00 00 00 00
       0.0 0.0 0.0 0.0
0001e0 00 00 00 00 00 00 00 00 00 00 00 00 00 00 00 00
       0.0 0.0 0.0 0.0
0001f0 00 00 00 00 00 00 00 00 00 00 00 00 00 00 00 00
       0.0 0.0 0.0 0.0
000200 00 00 00 00 00 00 00 00 00 00 00 00 00 00 00 00
       0.0 0.0 0.0 0.0
000210 00 00 00 00 00 00 00 00 00 00 00 00 00 00 00 00
       0.0 0.0 0.0 0.0
000220 00 00 00 00 00 00 00 00 00 00 00 00 00 00 00 00
       0.0 0.0 0.0 0.0
000230 00 00 00 00 00 00 00 00 00 00 00 00 00 00 00 00
       0.0 0.0 0.0 0.0
000240 00 00 00 00 00 00 00 00 95 7d 14 3b 00 00 00 00
       0.0 0.0 0.002265786 0.0
000250 00 00 00 00 f0 87 26 3b 2e 4c bc 3c 99 1c b9 3b
       0.0 0.0025410615 0.022985544 0.005649161
000260 00 00 00 00 00 00 00 00 00 00 00 00 05 9d 91 3a
       0.0 0.0 0.0 0.0011109418
000270 00 00 00 00 90 56 9c 3b c7 04 00 3b 00 00 00 00
       0.0 0.0047710612 0.0019534098 0.0
000280 00 00 00 00 00 00 00 00 73 fb 6f ba 00 00 00 00
       0.0 0.0 -0.00091545953 0.0
000290 00 00 00 00 1e 74 8b ba f3 3e 1d bc 8c d9 1b bb
       0.0 -0.0010639464 -0.009597528 -0.002378079
0002a0 00 00 00 00 00 00 00 00 00 00 00 00 71 a5 f3 b9
       0.0 0.0 0.0 -0.00046471835
0002b0 00 00 00 00 c8 2c 04 bb ee e8 4d ba 00 00 00 00
       0.0 -0.0020168293 -0.00078548386 0.0
0002c0 00 00 00 00 00 00 00 00 87 bc ce 3c 00 00 00 00
       0.0 0.0 0.025236381 0.0
0002d0 00 00 00 00 d7 16 62 3b fe 59 87 3d ad e7 25 bb
       0.0 0.0034498477 0.066089615 -0.0025315091
0002e0 00 00 00 00 00 00 00 00 00 00 00 00 4a 05 d1 3b
       0.0 0.0 0.0 0.0063788043
0002f0 00 00 00 00 a3 f0 dc bb b8 7b b4 3c 00 00 00 00
       0.0 -0.0067425533 0.02203165 0.0
000300 00 00 00 00 00 00 00 00 00 00 00 00 00 00 00 00
       0.0 0.0 0.0 0.0
000310 00 00 00 00 00 00 00 00 00 00 00 00 00 00 00 00
       0.0 0.0 0.0 0.0
000320 00 00 00 00 00 00 00 00 00 00 00 00 00 00 00 00
       0.0 0.0 0.0 0.0
000330 00 00 00 00 00 00 00 00 00 00 00 00 00 00 00 00
       0.0 0.0 0.0 0.0
000340 00 00 00 00 00 00 00 00 cb 3a 8c 3b 00 00 00 00
       0.0 0.0 0.0042794696 0.0
000350 00 00 00 00 c7 9e 90 3b e9 2f 26 3d fe 1b 1e 3c
       0.0 0.004413459 0.040573034 0.009650229
000360 00 00 00 00 00 00 00 00 00 00 00 00 4a 0d 04 3b
       0.0 0.0 0.0 0.0020149522
000370 00 00 00 00 e9 4c 04 3c 57 3c 71 3b 00 00 00 00
       0.0 0.008074977 0.0036809647 0.0
000380 00 00 00 00 00 00 00 00 1e 27 48 bb 00 00 00 00
       0.0 0.0 -0.0030540894 0.0
000390 00 00 00 00 2a 31 59 bb ac eb f6 bc 7f 0e f0 bb
       0.0 -0.0033140876 -0.030141674 -0.007325947
0003a0 00 00 00 00 00 00 00 00 00 00 00 00 89 db c0 ba
       0.0 0.0 0.0 -0.0014713864
0003b0 00 00 00 00 7f 11 ca bb 5a ad 2c bb 00 00 00 00
       0.0 -0.0061666365 -0.0026348443 0.0
0003c0 00 00 00 00 00 00 00 00 34 ed 48 3b 00 00 00 00
       0.0 0.0 0.0030658962 0.0
0003d0 00 00 00 00 bf df 73 3b 3e 9a 08 3d 25 41 09 3c
       0.0 0.003721222 0.03335022 0.008377348
0003e0 00 00 00 00 00 00 00 00 00 00 00 00 ff c8 d0 3a
       0.0 0.0 0.0 0.0015929042
0003f0 00 00 00 00 9e b6 e9 3b 9c 3c 2c 3b 00 00 00 00
       0.0 0.0071323654 0.0026281243 0.0

exp_avg_sq f4 [32, 16]
000000 00 00 00 00 00 00 00 00 af 33 5f 3a 00 00 00 00
       0.0 0.0 0.00085144764 0.0
000010 00 00 00 00 d0 af 17 3a 9c 31 83 3c 01 13 b3 3a
       0.0 0.0005786391 0.016014867 0.001366228
000020 00 00 00 00 00 00 00 00 00 00 00 00 e8 d8 cc 39
       0.0 0.0 0.0 0.0003907152
000030 00 00 00 00 f3 92 8f 3a 0b c3 a3 39 00 00 00 00
       0.0 0.0010953828 0.000312351 0.0
000040 00 00 00 00 00 00 00 00 00 00 00 00 00 00 00 00
       0.0 0.0 0.0 0.0
000050 00 00 00 00 00 00 00 00 00 00 00 00 00 00 00 00
       0.0 0.0 0.0 0.0
000060 00 00 00 00 00 00 00 00 00 00 00 00 00 00 00 00
       0.0 0.0 0.0 0.0
000070 00 00 00 00 00 00 00 00 00 00 00 00 00 00 00 00
       0.0 0.0 0.0 0.0
000080 00 00 00 00 00 00 00 00 c0 f7 06 3c 00 00 00 00
       0.0 0.0 0.008237779 0.0
000090 00 00 00 00 39 e4 c5 3b 3e ff 5c 3e d4 a2 87 3c
       0.0 0.006039169 0.21581742 0.016557135
0000a0 00 00 00 00 00 00 00 00 00 00 00 00 8f 94 5d 3b
       0.0 0.0 0.0 0.0033810472
0000b0 00 00 00 00 c9 17 67 3c 7b ef 5f 3b 00 00 00 00
       0.0 0.014104792 0.003416984 0.0
0000c0 00 00 00 00 00 00 00 00 00 00 00 00 00 00 00 00
       0.0 0.0 0.0 0.0
0000d0 00 00 00 00 00 00 00 00 00 00 00 00 00 00 00 00
       0.0 0.0 0.0 0.0
0000e0 00 00 00 00 00 00 00 00 00 00 00 00 00 00 00 00
       0.0 0.0 0.0 0.0
0000f0 00 00 00 00 00 00 00 00 00 00 00 00 00 00 00 00
       0.0 0.0 0.0 0.0
000100 00 00 00 00 00 00 00 00 5b cf 2b 3c 00 00 00 00
       0.0 0.0 0.010486449 0.0
000110 00 00 00 00 c4 98 06 3c 65 13 a9 3e 12 24 ca 3c
       0.0 0.008215133 0.3302261 0.024675403
000120 00 00 00 00 00 00 00 00 00 00 00 00 05 07 86 3b
       0.0 0.0 0.0 0.0040901923
000130 00 00 00 00 71 ba ae 3c 73 42 98 3b 00 00 00 00
       0.0 0.021329137 0.0046465932 0.0
000140 00 00 00 00 00 00 00 00 25 18 55 3c 00 00 00 00
       0.0 0.0 0.013006245 0.0
000150 00 00 00 00 d4 9b f0 3b c6 0e 43 3e 55 81 6d 3c
       0.0 0.007342795 0.19048604 0.014496167
000160 00 00 00 00 00 00 00 00 00 00 00 00 47 65 9d 3b
       0.0 0.0 0.0 0.004803333
000170 00 00 00 00 dc 32 68 3c 4e ed 99 3b 00 00 00 00
       0.0 0.014172282 0.0046974784 0.0
000180 00 00 00 00 00 00 00 00 1c c6 9e 3b 00 00 00 00
       0.0 0.0 0.004845394 0.0
000190 00 00 00 00 ed 51 96 3b 35 b5 74 3e 65 b7 9d 3c
       0.0 0.004587403 0.2389725 0.019252488
0001a0 00 00 00 00 00 00 00 00 00 00 00 00 51 17 38 3b
       0.0 0.0 0.0 0.002809007
0001b0 00 00 00 00 44 cb 80 3c 43 e2 95 3b 00 00 00 00
       0.0 0.015721925 0.0045740916 0.0
0001c0 00 00 00 00 00 00 00 00 00 00 00 00 00 00 00 00
       0.0 0.0 0.0 0.0
0001d0 00 00 00 00 00 00 00 00 00 00 00 00 00 00 00 00
       0.0 0.0 0.0 0.0
0001e0 00 00 00 00 00 00 00 00 00 00 00 00 00 00 00 00
       0.0 0.0 0.0 0.0
0001f0 00 00 00 00 00 00 00 00 00 00 00 00 00 00 00 00
       0.0 0.0 0.0 0.0
000200 00 00 00 00 00 00 00 00 00 00 00 00 00 00 00 00
       0.0 0.0 0.0 0.0
000210 00 00 00 00 00 00 00 00 00 00 00 00 00 00 00 00
       0.0 0.0 0.0 0.0
000220 00 00 00 00 00 00 00 00 00 00 00 00 00 00 00 00
       0.0 0.0 0.0 0.0
000230 00 00 00 00 00 00 00 00 00 00 00 00 00 00 00 00
       0.0 0.0 0.0 0.0
000240 00 00 00 00 00 00 00 00 32 ee b2 3c 00 00 00 00
       0.0 0.0 0.021842096 0.0
000250 00 00 00 00 09 df 48 3c 5d 1f 9f 3e 8c 73 c3 3c
       0.0 0.012260207 0.31078616 0.023858808
000260 00 00 00 00 00 00 00 00 00 00 00 00 15 73 05 3c
       0.0 0.0 0.0 0.0081451135
000270 00 00 00 00 12 22 be 3c 3f 59 00 3c 00 00 00 00
       0.0 0.023209605 0.007833778 0.0
000280 00 00 00 00 00 00 00 00 cc 02 33 3d 00 00 00 00
       0.0 0.0 0.04370384 0.0
000290 00 00 00 00 c1 aa b8 3c fd 89 0c 3f 04 54 21 3d
       0.0 0.02254236 0.54898053 0.039386764
0002a0 00 00 00 00 00 00 00 00 00 00 00 00 99 c9 72 3c
       0.0 0.0 0.0 0.014818572
0002b0 00 00 00 00 36 6e 30 3d f5 b3 7e 3c 00 00 00 00
       0.0 0.043073855 0.015545835 0.0
0002c0 00 00 00 00 00 00 00 00 44 bc 44 3c 00 00 00 00
       0.0 0.0 0.012007777 0.0
0002d0 00 00 00 00 6c ab 4b 3c 1c e2 f8 3e d6 e9 3c 3d
       0.0 0.012431007 0.48610008 0.04612144
0002e0 00 00 00 00 00 00 00 00 00 00 00 00 46 d7 a4 3b
       0.0 0.0 0.0 0.0050305454
0002f0 00 00 00 00 9f 2a 27 3d d0 39 95 3b 00 00 00 00
       0.0 0.04081213 0.004554011 0.0
000300 00 00 00 00 00 00 00 00 00 00 00 00 00 00 00 00
       0.0 0.0 0.0 0.0
000310 00 00 00 00 00 00 00 00 00 00 00 00 00 00 00 00
       0.0 0.0 0.0 0.0
000320 00 00 00 00 00 00 00 00 00 00 00 00 00 00 00 00
       0.0 0.0 0.0 0.0
000330 00 00 00 00 00 00 00 00 00 00 00 00 00 00 00 00
       0.0 0.0 0.0 0.0
000340 00 00 00 00 00 00 00 00 74 e2 4c 3c 00 00 00 00
       0.0 0.0 0.0125051625 0.0
000350 00 00 00 00 d4 23 f2 3b 67 db 84 3e 7e 75 8d 3c
       0.0 0.007389525 0.2594864 0.017267939
000360 00 00 00 00 00 00 00 00 00 00 00 00 6c a4 85 3b
       0.0 0.0 0.0 0.0040784385
000370 00 00 00 00 1f 15 8c 3c fc 1f ab 3b 00 00 00 00
       0.0 0.017099915 0.0052223187 0.0
000380 00 00 00 00 00 00 00 00 d5 ff 38 3d 00 00 00 00
       0.0 0.0 0.045165855 0.0
000390 00 00 00 00 4d b9 bc 3c c3 04 13 3f 5f 75 24 3d
       0.0 0.023037577 0.5742914 0.040150996
0003a0 00 00 00 00 00 00 00 00 00 00 00 00 f9 c1 74 3c
       0.0 0.0 0.0 0.014938825
0003b0 00 00 00 00 01 8e 37 3d 53 0c 85 3c 00 00 00 00
       0.0 0.04481316 0.016241228 0.0
0003c0 00 00 00 00 00 00 00 00 29 d5 ac 3b 00 00 00 00
       0.0 0.0 0.005274434 0.0
0003d0 00 00 00 00 23 b9 86 3b 29 68 22 3e 69 77 46 3c
       0.0 0.0041114255 0.15860046 0.012113431
0003e0 00 00 00 00 00 00 00 00 00 00 00 00 f4 e7 13 3b
       0.0 0.0 0.0 0.0022568675
0003f0 00 00 00 00 d6 d5 22 3c df d0 1d 3b 00 00 00 00
       0.0 0.009938678 0.0024080796 0.0

exp_avg f4 [32]
000000 a7 1d 21 3a 00 00 00 00 91 d1 10 ba 00 00 00 00
       0.0006146081 0.0 -0.0005524392 0.0
000010 80 e4 95 b9 b9 33 c7 b9 d7 f3 5f bb 00 00 00 00
       -0.0002858974 -0.00037994774 -0.003417244 0.0
000020 00 00 00 00 4e 12 6c 3a 8f 12 40 b9 e6 74 48 bc
       0.0 0.0009005413 -0.0001831746 -0.012234902
000030 00 00 00 00 12 ec b6 3a c3 ce 8b ba 11 f0 51 3a
       0.0 0.0013955852 -0.0010666478 0.000800849
000040 4b 1e 38 3a 00 00 00 00 f2 e8 0b ba 6a 7b 85 3a
       0.0007023557 0.0 -0.0005337141 0.0010183875
000050 98 18 ea 39 7f 54 da b8 00 00 00 00 00 00 00 00
       0.00044650282 -0.00010410789 0.0 0.0
000060 00 00 00 00 00 00 00 00 a8 48 ee 39 a7 4a ae ba
       0.0 0.0 0.0004544903 -0.0013297395
000070 07 70 1b ba 00 00 00 00 a6 9a c7 b8 5d 6d 9b b8
       -0.0005929474 0.0 -9.517865e-05 -7.4113465e-05

exp_avg_sq f4 [32]
000000 46 ec db 36 00 00 00 00 a8 d7 2a 39 00 00 00 00
       6.5542145e-06 0.0 0.00016292802 0.0
000010 d5 38 96 39 15 81 20 38 9d 58 35 39 00 00 00 00
       0.00028652573 3.826719e-05 0.00017294516 0.0
000020 00 00 00 00 61 46 93 38 b7 41 4c 38 22 ab e2 3a
       0.0 7.022615e-05 4.8698592e-05 0.0017293433
000030 00 00 00 00 48 e3 e4 38 75 0d 92 38 12 2d f8 38
       0.0 0.00010914222 6.964329e-05 0.000118339565
000040 2e ff 22 38 00 00 00 00 e2 63 f8 38 01 f4 99 38
       3.8861464e-05 0.0 0.00011844166 7.341058e-05
000050 51 85 a2 38 2a 59 54 38 00 00 00 00 00 00 00 00
       7.749594e-05 5.062778e-05 0.0 0.0
000060 00 00 00 00 00 00 00 00 5f 76 05 38 30 13 99 38
       0.0 0.0 3.1819913e-05 7.2991825e-05
000070 77 16 9d 37 00 00 00 00 ee a9 d9 36 70 75 b3 37
       1.872632e-05 0.0 6.4868864e-06 2.1393149e-05

exp_avg f4 [16, 32]
000000 00 00 00 00 00 00 00 00 00 00 00 00 00 00 00 00
       0.0 0.0 0.0 0.0
000010 00 00 00 00 00 00 00 00 00 00 00 00 00 00 00 00
       0.0 0.0 0.0 0.0
000020 00 00 00 00 00 00 00 00 00 00 00 00 00 00 00 00
       0.0 0.0 0.0 0.0
000030 00 00 00 00 00 00 00 00 00 00 00 00 00 00 00 00
       0.0 0.0 0.0 0.0
000040 00 00 00 00 00 00 00 00 00 00 00 00 00 00 00 00
       0.0 0.0 0.0 0.0
000050 00 00 00 00 00 00 00 00 00 00 00 00 00 00 00 00
       0.0 0.0 0.0 0.0
000060 00 00 00 00 00 00 00 00 00 00 00 00 00 00 00 00
       0.0 0.0 0.0 0.0
000070 00 00 00 00 00 00 00 00 00 00 00 00 00 00 00 00
       0.0 0.0 0.0 0.0
000080 fe cc 76 3b 00 00 00 00 80 22 79 3a 00 00 00 00
       0.0037658806 0.0 0.0009503737 0.0
000090 74 d7 7f 3a 70 dd 4a 3b 07 9b 2c 3a 00 00 00 00
       0.0009759583 0.003095474 0.000658438 0.0
0000a0 00 00 00 00 dd 82 25 3b bf 94 8b 3b 92 10 e2 ba
       0.0 0.0025255003 0.0042596753 -0.001724737
0000b0 00 00 00 00 13 53 8a 3a ea 73 77 3b a9 e6 eb 39
       0.0 0.0010553322 0.00377583 0.00044994548
0000c0 a0 d3 63 3a 00 00 00 00 b9 dc 32 3b 31 03 56 3b
       0.00086908974 0.0 0.0027292205 0.003265571
0000d0 29 e1 60 3b af fe 20 3b 00 00 00 00 00 00 00 00
       0.0034313893 0.0024565866 0.0 0.0
0000e0 00 00 00 00 00 00 00 00 a9 07 a4 3b 52 06 37 3b
       0.0 0.0 0.005005796 0.0027927351
0000f0 fc ce 00 3b 00 00 00 00 6c 5e 38 3b cb ae 5f 3b
       0.0019654622 0.0 0.0028132452 0.0034131284
000100 00 00 00 00 00 00 00 00 00 00 00 00 00 00 00 00
       0.0 0.0 0.0 0.0
000110 00 00 00 00 00 00 00 00 00 00 00 00 00 00 00 00
       0.0 0.0 0.0 0.0
000120 00 00 00 00 00 00 00 00 00 00 00 00 00 00 00 00
       0.0 0.0 0.0 0.0
000130 00 00 00 00 00 00 00 00 00 00 00 00 00 00 00 00
       0.0 0.0 0.0 0.0
000140 00 00 00 00 00 00 00 00 00 00 00 00 00 00 00 00
       0.0 0.0 0.0 0.0
000150 00 00 00 00 00 00 00 00 00 00 00 00 00 00 00 00
       0.0 0.0 0.0 0.0
000160 00 00 00 00 00 00 00 00 00 00 00 00 00 00 00 00
       0.0 0.0 0.0 0.0
000170 00 00 00 00 00 00 00 00 00 00 00 00 00 00 00 00
       0.0 0.0 0.0 0.0
000180 a5 fc 97 bb 00 00 00 00 89 32 39 38 00 00 00 00
       -0.004638272 0.0 4.41545e-05 0.0
000190 8c 49 88 bb bd 7c bf bb 2c a8 81 39 00 00 00 00
       -0.004159158 -0.0058437274 0.00024730095 0.0
0001a0 00 00 00 00 f0 90 97 bb 80 26 bf bb 4c 1b 5a bc
       0.0 -0.004625432 -0.005833447 -0.013312172
0001b0 00 00 00 00 a0 27 54 bb fc 15 8b bb 2e 14 41 bb
       0.0 -0.003237225 -0.004244564 -0.002946149
0001c0 ac 34 01 b8 00 00 00 00 75 ab 79 bb e8 29 db bb
       -3.080505e-05 0.0 -0.003809658 -0.006688345
0001d0 fa b9 bd bb 4a a8 85 bb 00 00 00 00 00 00 00 00
       -0.0057899924 -0.0040788995 0.0 0.0
0001e0 00 00 00 00 00 00 00 00 52 a2 0b bc 86 98 fb ba
       0.0 0.0 -0.008522587 -0.0019195236
0001f0 d7 f9 ae ba 00 00 00 00 74 86 a9 bb f4 c6 dc bb
       -0.0013349605 0.0 -0.0051734988 -0.0067375842
000200 60 e2 05 3b 00 00 00 00 64 19 ce 39 00 00 00 00
       0.002042912 0.0 0.000393103 0.0
000210 c4 99 25 3a 6a a7 c7 3a 6e 4b 5c 39 00 00 00 00
       0.00063171634 0.0015232388 0.00021008935 0.0
000220 00 00 00 00 27 c8 9a 3a b2 82 12 3b b4 44 f9 37
       0.0 0.0011808918 0.0022355733 2.9715105e-05
000230 00 00 00 00 99 90 2a 3a 43 e4 ef 3a 22 fd 52 39
       0.0 0.0006506532 0.001830228 0.0002012146
000240 08 0b c8 39 00 00 00 00 eb 0d a7 3a 6e e9 ec 3a
       0.00038155192 0.0 0.0012745237 0.0018074939
000250 53 31 ed 3a c4 43 ba 3a 00 00 00 00 00 00 00 00
       0.0018096365 0.001421087 0.0 0.0
000260 00 00 00 00 00 00 00 00 f1 07 33 3b 1e 7f a5 3a
       0.0 0.0 0.0027317966 0.0012626385
000270 ef 23 8a 3a 00 00 00 00 82 4f bb 3a 6f 45 f2 3a
       0.0010539273 0.0 0.0014290663 0.0018483828
000280 2a 62 bb 38 00 00 00 00 ba d9 ba b9 00 00 00 00
       8.935139e-05 0.0 -0.00035638904 0.0
000290 59 db 8a 3a 91 85 65 3a 79 b5 a2 ba 00 00 00 00
       0.0010593935 0.00087555597 -0.0012413702 0.0
0002a0 00 00 00 00 39 1d 38 3a 04 68 ce 39 b8 cd ad ba
       0.0 0.00070233975 0.0003936888 -0.0013260162
0002b0 00 00 00 00 1b 28 31 3a 74 33 07 39 37 b6 61 3a
       0.0 0.00067579903 0.00012893771 0.0008610221
0002c0 91 41 8a b9 00 00 00 00 b2 83 aa 39 91 ce 84 3a
       -0.00026370262 0.0 0.00032523047 0.0010132362
0002d0 c0 d5 30 3a 19 28 d2 39 00 00 00 00 00 00 00 00
       0.00067457184 0.00040084196 0.0 0.0
0002e0 00 00 00 00 00 00 00 00 03 a8 7e 3a 2a 68 a3 b9
       0.0 0.0 0.0009714367 -0.0003116739
0002f0 c7 d7 8c b9 00 00 00 00 45 93 4a 3a 09 94 83 3a
       -0.00026863648 0.0 0.00077276333 0.0010038625
000300 00 00 00 00 00 00 00 00 00 00 00 00 00 00 00 00
       0.0 0.0 0.0 0.0
000310 00 00 00 00 00 00 00 00 00 00 00 00 00 00 00 00
       0.0 0.0 0.0 0.0
000320 00 00 00 00 00 00 00 00 00 00 00 00 00 00 00 00
       0.0 0.0 0.0 0.0
000330 00 00 00 00 00 00 00 00 00 00 00 00 00 00 00 00
       0.0 0.0 0.0 0.0
000340 00 00 00 00 00 00 00 00 00 00 00 00 00 00 00 00
       0.0 0.0 0.0 0.0
000350 00 00 00 00 00 00 00 00 00 00 00 00 00 00 00 00
       0.0 0.0 0.0 0.0
000360 00 00 00 00 00 00 00 00 00 00 00 00 00 00 00 00
       0.0 0.0 0.0 0.0
000370 00 00 00 00 00 00 00 00 00 00 00 00 00 00 00 00
       0.0 0.0 0.0 0.0
000380 00 00 00 00 00 00 00 00 00 00 00 00 00 00 00 00
       0.0 0.0 0.0 0.0
000390 00 00 00 00 00 00 00 00 00 00 00 00 00 00 00 00
       0.0 0.0 0.0 0.0
0003a0 00 00 00 00 00 00 00 00 00 00 00 00 00 00 00 00
       0.0 0.0 0.0 0.0
0003b0 00 00 00 00 00 00 00 00 00 00 00 00 00 00 00 00
       0.0 0.0 0.0 0.0
0003c0 00 00 00 00 00 00 00 00 00 00 00 00 00 00 00 00
       0.0 0.0 0.0 0.0
0003d0 00 00 00 00 00 00 00 00 00 00 00 00 00 00 00 00
       0.0 0.0 0.0 0.0
0003e0 00 00 00 00 00 00 00 00 00 00 00 00 00 00 00 00
       0.0 0.0 0.0 0.0
0003f0 00 00 00 00 00 00 00 00 00 00 00 00 00 00 00 00
       0.0 0.0 0.0 0.0
