checkpoint/GIN/Tree-Grid.pth (torch, 140284 bytes, 27 tensors)

convs.0.apply_func.weight f4 [16, 10]
0	0xbb1b2880	-0.0023675263
1	0x3e2db5ae	0.16963837
2	0xbe854213	-0.26026973
3	0xbe6e4f4b	-0.23272435
4	0xbdf97072	-0.1217965
5	0x3dadab00	0.08479881
6	0xbbcd4ec0	-0.0062654912
7	0x3e806029	0.25073364
8	0xbce5e510	-0.028063327
9	0x3dab5f48	0.08367783
10	0xbdc3b93e	-0.095568165
11	0xbd7e9ae0	-0.06215942
12	0xbe9aaddd	-0.30210772
13	0xbe567557	-0.20943199
14	0xbe057c25	-0.13035639
15	0x3c3fed00	0.01171422
16	0x3e000430	0.12501597
17	0x3e424c36	0.18974385
18	0xbe5b876d	-0.2143838
19	0xbe0d02a7	-0.13770543
20	0x3dfbc29d	0.12292979
21	0x3e8a942e	0.27066177
22	0xbd698297	-0.057009306
23	0x3e7a949c	0.24470752
24	0xbd2fb81d	-0.042900193
25	0x3d2a1d43	0.041531812
26	0x3e96bc7a	0.2944067
27	0xbe9210e4	-0.28528512
28	0xbe43974a	-0.19100681
29	0xbd936e25	-0.07198743
30	0xbdfc72a8	-0.123265564
31	0x3e8be3a1	0.27322105
32	0xbe51e449	-0.2049724
33	0xbe151050	-0.14557004
34	0xbe623b58	-0.2209295
35	0xbe97a326	-0.2961666
36	0xbe3d0675	-0.18459494
37	0x3e8b2d23	0.27182874
38	0x3e107e42	0.14110664
39	0x3e1cf200	0.1532669
40	0x3c883d90	0.016630918
41	0xbe260408	-0.16212475
42	0x3d5b23c0	0.05350089
43	0xbe972c58	-0.2952602
44	0xbe69faba	-0.22849551
45	0xbe26f000	-0.1630249
46	0x3e4c4efe	0.19952008
47	0x3e3ddc66	0.18541107
48	0xbe0f9c80	-0.14024544
49	0xbc3af220	-0.011410266
50	0x3e554ef5	0.20830901
51	0x3ea40ff5	0.32043424
52	0x3e06b993	0.13156728
53	0x3d47d033	0.04878254
54	0x3e5f5299	0.21808852
55	0xbe3874eb	-0.1801335
56	0x3d851945	0.064989604
57	0xbe74d983	-0.23911099
58	0xbe5a39c1	-0.21311094
59	0xbe21122f	-0.15729593
60	0x3e451636	0.19246754
61	0x3e34cb74	0.17655736
62	0xbe0d3ee1	-0.13793518
63	0x3e14654e	0.1449177
64	0x3e6455b6	0.22298321
65	0x3c1b25de	0.009469477
66	0x3d7bba7b	0.06145714
67	0x3dfb3241	0.122654445
68	0x3e7b74f0	0.24556327
69	0x3eb4bf7a	0.35302335
70	0xbe793e7c	-0.24340242
71	0xbdecbe93	-0.11559787
72	0x3dff1ee9	0.124570675
73	0x3e864c47	0.2623007
74	0x3e8d0af1	0.2754741
75	0x3e8f0285	0.2793161
76	0x3d817b9b	0.06322404
77	0xbe8ca4ed	-0.27469578
78	0x3cf0afb3	0.029380655
79	0xbe4a48e0	-0.19754362
80	0xbe96e433	-0.29470977
81	0x3e8fdac7	0.280966
82	0x3e7637b6	0.2404469
83	0xbea18225	-0.31544605
84	0x3d727028	0.05918899
85	0xbd5a3378	-0.05327174
86	0xbd5526a8	-0.05203882
87	0xbe143ac5	-0.14475544
88	0x3df90d44	0.12160733
89	0xbe3fcc4f	-0.18730281
90	0x3ded6acc	0.115926355
91	0x3e23c1ca	0.15991893
92	0x3e67cfc2	0.22637847
93	0x3df22860	0.11824107
94	0xbea03f25	-0.31298175
95	0xbe520f2a	-0.20513597
96	0x3e21afd2	0.15789726
97	0x3d878d00	0.066186905
98	0xbe7c9aca	-0.24668422
99	0xbe3a75d4	-0.1820901
100	0x3e9850bf	0.29749104
101	0x3e5a319e	0.2130799
102	0xbe0d3145	-0.13788326
103	0xbda2ffee	-0.07958971
104	0xbe9a3bdd	-0.30123797
105	0xbbba4040	-0.0056839287
106	0xbe73da7c	-0.23813814
107	0xbe79c752	-0.24392441
108	0xbc8ebcd0	-0.017424017
109	0x3d427a70	0.047480047
110	0xbe0227d1	-0.12710501
111	0x3e429a73	0.1900423
112	0xbe429919	-0.19003715
113	0x3e9423cc	0.2893356
114	0x3e605e8b	0.21911065
115	0xbe874e54	-0.26426947
116	0xbd9c456e	-0.0763043
117	0x3c888d50	0.016668946
118	0x3d46cf92	0.0485378
119	0x3d9e8460	0.07740092
120	0x3dfe266c	0.12409672
121	0x3c9b2c70	0.018942088
122	0xbe1dffef	-0.15429662
123	0x3e193a0c	0.1496355
124	0xbe9b4f87	-0.30334112
125	0xbe3fedbb	-0.1874303
126	0xbda21f4c	-0.07916126
127	0xbe1dbc57	-0.15403877
128	0xbde2906c	-0.110627025
129	0xbe84b42d	-0.25918713
130	0xbd66fbdb	-0.05639253
131	0x3da0b4bd	0.07846973
132	0xbe47d23c	-0.19513792
133	0xbbaf7724	-0.005354779
134	0x3e72f080	0.23724556
135	0xbcb13ac4	-0.021634467
136	0x3ca11338	0.019662485
137	0xbc8667a2	-0.016406838
138	0x3d9956d1	0.07487262
139	0x3e5907c8	0.21194375
140	0x3ea47a53	0.32124576
141	0x3e63dcc1	0.2225218
142	0x3ea4d427	0.3219311
143	0xba996203	-0.0011702183
144	0xbe8655e1	-0.26237395
145	0xbe034b4b	-0.1282169
146	0x3e72b589	0.23702063
147	0x3ca0f8e2	0.019649927
148	0xbe0abb5f	-0.13548039
149	0xbe61ecb9	-0.22062959
150	0xbe9785c3	-0.2959424
151	0xbe88a6f7	-0.26689884
152	0xbd835d34	-0.064142615
153	0x3e319554	0.1734212
154	0x3e2f11a4	0.17096573
155	0xbe9c265b	-0.30498013
156	0x3e49fdca	0.19725719
157	0xbe7d63da	-0.24745122
158	0xbd88eaa6	-0.06685381
159	0xbe034c8d	-0.1282217

convs.0.apply_func.bias f4 [16]
0	0xbd797d10	-0.060910285
1	0xbd7e5110	-0.062089026
2	0xbf266d4f	-0.6501054
3	0xbe8bcc4c	-0.27304304
4	0xbd4aaed8	-0.04948315
5	0xbecff591	-0.4061704
6	0xbee253a1	-0.4420443
7	0x3f03b853	0.5145313
8	0xbe91ba2a	-0.28462344
9	0xbcaed410	-0.021341354
10	0x3e8e62b5	0.27809682
11	0xbec0185a	-0.3751858
12	0x3e923439	0.28555468
13	0x3f2458aa	0.6419779
14	0xbf3fdd0c	-0.74946666
15	0x3e4ce0da	0.20007649

convs.1.apply_func.weight f4 [32, 16]
0	0xbcec53f0	-0.028848618
1	0xbde48f70	-0.11160171
2	0x3e627939	0.22116555
3	0xbe4edf54	-0.2020238
4	0x3cdbc2b0	0.026826233
5	0xbd06ba57	-0.03289255
6	0x3e829f25	0.25512043
7	0x3e1c90c8	0.15289605
8	0x3df604cc	0.12012634
9	0x3db4d140	0.08828974
10	0xbd763f00	-0.060118675
11	0xbd210c24	-0.03931822
12	0xbe52f700	-0.20602036
13	0x3e6efe74	0.23339254
14	0x3e65a73f	0.2242708
15	0x3e2f295c	0.17105621
16	0xbe3493ac	-0.17634457
17	0x3c36ae60	0.011149973
18	0xbe347690	-0.17623353
19	0xbe0cec88	-0.13762105
20	0xbe152c30	-0.14567637
21	0x3daef934	0.085436255
22	0xbe188dc4	-0.1489783
23	0xbbb2ba00	-0.005454302
24	0x3c2c4fa0	0.010517031
25	0x3e250604	0.16115576
26	0xbe4183fa	-0.18898001
27	0xbe2fbf44	-0.17162806
28	0xbe14a63c	-0.14516538
29	0x3e332ed6	0.17498335
30	0xbdb80bcc	-0.08986625
31	0x3e57eee0	0.21087217
32	0x3db924a0	0.09040189
33	0x3d01aa40	0.031656504
34	0xbc6eb66e	-0.014569862
35	0xbd4a6d08	-0.049420387
36	0x3d007a40	0.031366587
37	0xbd37ebd3	-0.044902634
38	0x3d3ac7ca	0.04560069
39	0x3dd73d07	0.10509687
40	0xbe483e98	-0.19555128
41	0xbe062d7a	-0.13103285
42	0x3e4eb7d8	0.20187318
43	0xbe5281b2	-0.20557287
44	0xbc930f20	-0.017951548
45	0x3ea885ee	0.3291468
46	0x3d333f00	0.043761253
47	0x3be7f0c0	0.00707826
48	0xbe5dda26	-0.21665248
49	0x3dfda22c	0.123844475
50	0xbe365808	-0.17807019
51	0xbd9156a8	-0.070966065
52	0xbdabc8cc	-0.08387908
53	0xbd17a438	-0.037021846
54	0x3b333680	0.0027345717
55	0x3e532696	0.20620188
56	0x3cffab80	0.031209707
57	0x3e654c20	0.2239232
58	0x3e1c9930	0.15292811
59	0xbe21d8c6	-0.15805349
60	0x3de5a254	0.11212602
61	0xbe34f724	-0.17672402
62	0xbdd8ff9c	-0.105956286
63	0x3d969740	0.073530674
64	0x3da90ef0	0.08254802
65	0x3e400ef2	0.18755701
66	0xbd830e11	-0.06399167
67	0x39d1d400	0.0004002154
68	0x3e03cb7a	0.12870589
69	0xbe7b85ce	-0.24562761
70	0x3e22e1a2	0.15906385
71	0xbe7dff81	-0.24804498
72	0x3b61d000	0.0034456253
73	0xbd2e18e0	-0.04250419
74	0xbe06d40a	-0.13166824
75	0x3d1f9f66	0.038970374
76	0x3e53b0f2	0.20672968
77	0xbdef7ef4	-0.11694136
78	0xbdd06fcb	-0.10177573
79	0xbdbd5b84	-0.09245971
80	0xbe7dbbe6	-0.24778709
81	0x3de71d1c	0.11284849
82	0xbe0e7db4	-0.1391514
83	0xbe2ad6d0	-0.16683507
84	0xbe137b62	-0.14402536
85	0x3e024b9c	0.12724155
86	0x3dfd0340	0.123541355
87	0x3e44b17e	0.19208333
88	0x3db9b6d8	0.09068078
89	0xbdaafcc4	-0.083489925
90	0xbd8f13d4	-0.06986204
91	0x3d858a07	0.06520467
92	0x3e5270de	0.20550868
93	0x3d869885	0.065720595
94	0xbe15b93a	-0.1462144
95	0xbdf0adfc	-0.11751935
96	0xbe720a42	-0.23636726
97	0x3d5d3bb0	0.054012
98	0xbee37861	-0.4442778
99	0xbe643e50	-0.22289395
100	0x3e607afa	0.21921912
101	0xbeac0acb	-0.33601984
102	0xbd577ad7	-0.052607384
103	0x3e508a02	0.20365146
104	0x3c027de0	0.007964581
105	0xbe2c41fa	-0.16822043
106	0xbe4eee2c	-0.20208043
107	0xbd6d8524	-0.0579883
108	0x3d26bf30	0.040709674
109	0x3ea06ea1	0.31334403
110	0xbf0e8880	-0.5567703
111	0x3d96cff8	0.07363886
112	0xbd6a2a18	-0.05716905
113	0xbc362760	-0.011117786
114	0xbe1bea52	-0.15226105
115	0x3dad28ac	0.08455023
116	0x3da1e080	0.07904148
117	0xbba8fd40	-0.005157143
118	0xbd664cc0	-0.05622554
119	0xbe1dce58	-0.15410745
120	0x3e310914	0.1728862
121	0xbe3e9294	-0.18610603
122	0x3dd1bfac	0.10241637
123	0xbdac296c	-0.08406338
124	0xbdf7060c	-0.120617
125	0x3d37f4e0	0.044911265
126	0xbe04fb22	-0.12986425
127	0x3d6bef40	0.057601213
128	0x3d491810	0.049095213
129	0xbe3e13ca	-0.18562236
130	0x3d2a7e98	0.041624635
131	0x3dda1364	0.1064823
132	0x3dcaaa5c	0.09895775
133	0xbd00e658	-0.031469673
134	0xbe51dd9a	-0.2049469
135	0xbd1dda90	-0.038538516
136	0x3db1d250	0.08682692
137	0xbdbad12c	-0.091219276
138	0x3dc25874	0.09489527
139	0x3e2a7c86	0.16649064
140	0xbe05abba	-0.1305379
141	0x3b219380	0.0024654567
142	0x3dd3b624	0.10337475
143	0x3ca08490	0.01959446
144	0x3cab1290	0.020882875
145	0x3cffb970	0.031216353
146	0xbe21a65c	-0.15786117
147	0x3ca0f2e0	0.019647062
148	0x3e3145b4	0.17311746
149	0x3e713b92	0.2355788
150	0x3e13d763	0.14437632
151	0x3b6086d7	0.0034260058
152	0x3def1c7c	0.11675355
153	0xbdf913dc	-0.12161991
154	0xbe5424ec	-0.2071721
155	0xbe43722f	-0.19086526
156	0x3e7f635a	0.24940243
157	0x3e04820a	0.12940231
158	0xbdb41612	-0.08793272
159	0x3dc850f4	0.097810656
160	0x3e4152aa	0.1887919
161	0x3e7fe6c2	0.24990371
162	0x3e7663df	0.24061535
163	0x3e465644	0.19368845
164	0xbd6ac2f0	-0.057314813
165	0xbd8f1df0	-0.06988132
166	0x3e5cc55f	0.21559666
167	0x3e0da390	0.13831925
168	0xbe1a0e30	-0.15044475
169	0x3e6625fe	0.2247543
170	0x3df76090	0.12078965
171	0x3e161bf9	0.14659108
172	0xbe20746a	-0.15669408
173	0x3d991e45	0.074764766
174	0xbd6a2ff9	-0.057174657
175	0x3e4806fc	0.19533914
176	0xbd384258	-0.044985145
177	0x3dc753f8	0.09732813
178	0x3cd11fb4	0.025527813
179	0x3dd9d6f8	0.10636705
180	0xbdadfde0	-0.084956884
181	0x3dd388c3	0.103288196
182	0xbe4580b3	-0.19287376
183	0x3d1bd219	0.03804216
184	0xbe2d3520	-0.16914797
185	0xbe7c8dba	-0.2466344
186	0xbe4d9510	-0.20076394
187	0x3e37327c	0.17890352
188	0x3e0a8150	0.13525891
189	0x3e5d11ab	0.21588771
190	0x3e390d78	0.18071544
191	0xbe649ea0	-0.22326136
192	0xbe2eb3ce	-0.17060778
193	0xbd2575e8	-0.040395647
194	0xbe264132	-0.16235808
195	0x3e31c3f8	0.17359912
196	0xbe4189ba	-0.18900195
197	0xbdf9ce38	-0.12197536
198	0xbe7751c4	-0.24152285
199	0xbe1157c6	-0.14193639
200	0x3e528de2	0.20561936
201	0x3e519a42	0.20469001
202	0x3e374124	0.17895943
203	0x3e45aa22	0.19303182
204	0x3e63a1ba	0.22229663
205	0xbd831ab0	-0.064015746
206	0x3de147f4	0.11000052
207	0x3e641404	0.2227326
208	0x3da96114	0.08270469
209	0x3e7feaca	0.24991909
210	0x3e37790d	0.17917271
211	0x3e1f2458	0.15541208
212	0xbdb3322c	-0.08749804
213	0x3e29c9c1	0.1658087
214	0x3d7af7f1	0.06127161
215	0xbd2e27c9	-0.04251841
216	0xbe104f4a	-0.14092746
217	0xbe0fa556	-0.14027914
218	0xbe44fcb2	-0.1923702
219	0x3e522af6	0.20524201
220	0x3e35ff96	0.1777328
221	0xbb1f596b	-0.0024314772
222	0xbdc380f3	-0.095460795
223	0x3e45dd22	0.19322637
224	0x3e23b58c	0.15987223
225	0x3c983c70	0.018583506
226	0xbdc95379	-0.09830374
227	0x3e6b46b8	0.22976196
228	0x3dd160ac	0.10223517
229	0xbe3121ac	-0.17298001
230	0x3e8115e4	0.25212014
231	0x3e4533e2	0.19258073
232	0xbdba9e8c	-0.09112272
233	0x3e0fe95c	0.14053863
234	0xbe1174d6	-0.14204726
235	0xbcf561e7	-0.02995391
236	0x3e595eb2	0.2122753
237	0x3c92f1bf	0.01793754
238	0xbe18f4e7	-0.14937173
239	0xbdab2094	-0.08355823
240	0xbd8afadc	-0.06786129
241	0xbd458f20	-0.048232198
242	0xbea34f71	-0.31896546
243	0x3e6cc1a2	0.2312074
244	0x3c5b4d20	0.013385087
245	0xbea66b2c	-0.3250364
246	0xbc5af2b1	-0.013363526
247	0x3e8e0af7	0.2774274
248	0x3dfdf8fc	0.124010056
249	0xbe69f7e0	-0.22848463
250	0xbd373cb0	-0.04473561
251	0xbedcb68a	-0.43108016
252	0xbdda7688	-0.10667139
253	0x3e615916	0.2200664
254	0xbf353a8b	-0.70792454
255	0x3dbe52fc	0.09293172

convs.1.apply_func.bias f4 [32]
0	0x3e6ec741	0.23318197
1	0x3d9927cc	0.07478294
2	0x3ee5f10a	0.4491046
3	0xbe1deb0a	-0.15421692
4	0xbe07d76e	-0.13265774
5	0x3ea636d0	0.32463694
6	0x3ec68dab	0.3877996
7	0xbe6f1dcc	-0.2335121
8	0x3e33b59c	0.17549747
9	0xbef26fae	-0.4735083
10	0xbd1b0273	-0.037844133
11	0x3cdfdfc1	0.027328374
12	0xbdefa27c	-0.11700913
13	0xbca924b9	-0.020647394
14	0xbe968013	-0.29394588
15	0x3efff204	0.4998933
16	0xbe7c6c1a	-0.24650612
17	0xbcdd7530	-0.027033418
18	0x3e249738	0.1607331
19	0x3dab34a4	0.0835965
20	0xbca4cba2	-0.020116631
21	0x3ea3aeb0	0.31969213
22	0xbd021528	-0.031758457
23	0xbdf329bc	-0.118731946
24	0xbe5eecba	-0.21769992
25	0xbe6ae27c	-0.2293796
26	0x3dac33e9	0.084083386
27	0x3c7ac291	0.015305177
28	0x3e183c20	0.14866686
29	0x3d8acf3c	0.06777808
30	0x3ebacf54	0.36486304
31	0x3ecd45ef	0.40092418

convs.2.apply_func.weight f4 [16, 32]
0	0x3e12cf4f	0.14336894
1	0xbe061d3a	-0.13097087
2	0xbce804c8	-0.028322592
3	0xbdd63b5e	-0.10460542
4	0xbdced9f7	-0.10100167
5	0x3d2bc198	0.041932672
6	0x3e29e9d7	0.16593109
7	0xbe1103eb	-0.14161651
8	0x3ddb1b7e	0.10698603
9	0xbdbbb47b	-0.09165283
10	0xbd0d0818	-0.034431547
11	0x3e0fb019	0.1403202
12	0xbd23c3c8	-0.039981633
13	0x3c83dce0	0.016096532
14	0xbdfd13aa	-0.12357266
15	0x3e1a174f	0.15047954
16	0xbcbb33e8	-0.0228519
17	0xbe046554	-0.12929279
18	0x3d540470	0.051762044
19	0xbe00b538	-0.1256913
20	0xbe0fa3e2	-0.1402736
21	0x3c3070d0	0.010769084
22	0x3e0f851f	0.14015625
23	0xbd4ce6fc	-0.05002497
24	0x3daa664e	0.08320294
25	0x3e1b8dc3	0.15190797
26	0x3df0204a	0.11724909
27	0xbdbde950	-0.092730165
28	0xbc9ebf18	-0.01937823
29	0xbd63db2e	-0.055628948
30	0xbe118fd2	-0.1421502
31	0x38993000	7.304549e-05
32	0x3e04de0e	0.12975332
33	0x3e1882f9	0.14893712
34	0x3ca776c9	0.020442383
35	0x3d247464	0.04015006
36	0xbdc33c31	-0.09532965
37	0x3e0e9fd1	0.13928153
38	0xbfa61667	-1.2975587
39	0xbdfb7dbe	-0.12279843
40	0x3cdf01a0	0.027222455
41	0x3db4cd3d	0.088282086
42	0xbe277e42	-0.16356757
43	0x3e0b2d86	0.13591585
44	0x3d823c90	0.06359208
45	0xbe0722a3	-0.13196807
46	0xbd21dd3c	-0.039517626
47	0xbf8c1d05	-1.0946356
48	0xbe06ae0b	-0.1315233
49	0xbd53a19c	-0.051667795
50	0x3d86a9e8	0.06575376
51	0xbe257629	-0.16158356
52	0x3daff971	0.08592499
53	0x3da9d049	0.0829168
54	0x3de089d2	0.10963787
55	0xbde6d114	-0.11270347
56	0x3e344ba1	0.17606975
57	0xbdd69a43	-0.10478642
58	0x3e2d0540	0.16896534
59	0xbe37fc16	-0.17967257
60	0xbe2b2424	-0.16713005
61	0x3dde5ce2	0.1085756
62	0x3cc583ca	0.024110693
63	0x3c2f71b0	0.010708258
64	0xbdc87b61	-0.09789158
65	0xbd97ddc8	-0.07415348
66	0xbd53b60c	-0.051687285
67	0xbe30574a	-0.17220798
68	0x3c168470	0.009186849
69	0x3d000f3c	0.03126453
70	0xb91cf000	-0.00014966726
71	0x3d69d398	0.057086557
72	0x3e2bc2a7	0.16773473
73	0x3d408548	0.047002107
74	0xbd848849	-0.06471307
75	0xbd94feee	-0.072751865
76	0xbde7a265	-0.11310271
77	0xbdfaf8d6	-0.12254493
78	0xbce939a0	-0.02846986
79	0xbd001078	-0.031265706
80	0x3da10eb2	0.07864131
81	0xbd9abfa8	-0.07556087
82	0x3e104f2d	0.14092703
83	0xbdfe090d	-0.1240407
84	0x3a03b600	0.00050243735
85	0x3e22b8cd	0.15890808
86	0x3e3400c1	0.17578413
87	0xbdd1b720	-0.102400064
88	0x3d00faa8	0.031489044
89	0x3cab0f58	0.02088134
90	0xbda9be10	-0.08288205
91	0xbd7a2a3e	-0.06107544
92	0x3d441e88	0.04788068
93	0xbdfbbfc4	-0.12292436
94	0x3ceef070	0.029167384
95	0x3d9ca9be	0.07649563
96	0xbd8ba7a0	-0.06819081
97	0x3e165cb3	0.146838
98	0xbc964718	-0.018344447
99	0x3da442f6	0.08020584
100	0x3e19514f	0.14972423
101	0xbd333c83	-0.04375888
102	0xbfd71068	-1.6801882
103	0xbd4f1b78	-0.050563306
104	0xbcd38948	-0.025822297
105	0xbd3a542b	-0.045490425
106	0xbae97d80	-0.0017813891
107	0xbdbcecff	-0.09224891
108	0x3d29b6d8	0.04143414
109	0xbb4ac043	-0.003093735
110	0x3ded4c57	0.11586826
111	0xbfe76283	-1.8076938
112	0x3cf10088	0.029419199
113	0xbd86acc5	-0.06575922
114	0xbe083236	-0.13300404
115	0x3d8096a4	0.062787324
116	0x3c6a39b9	0.014295989
117	0xbd9a3da4	-0.07531288
118	0xbd74d06c	-0.05976908
119	0x3d3d5c98	0.046230882
120	0xbd02ece8	-0.031964213
121	0x3dec9562	0.1155193
122	0x3b547275	0.0032416855
123	0x3d8268d9	0.06367654
124	0x3d8cd8b2	0.06877269
125	0xbd31aa08	-0.043375045
126	0x3dad54b4	0.084634215
127	0x3e0a2727	0.13491498
128	0x3c679552	0.014134722
129	0x3d0db260	0.03459394
130	0x3ca2d6ed	0.019877875
131	0x3dfaa9ee	0.12239443
132	0xbdb26d19	-0.08712215
133	0xbd9cb53f	-0.076517574
134	0xbfaf98cf	-1.3718508
135	0xbe1d8b2f	-0.15385126
136	0x3b39bd80	0.002834171
137	0xbdba58b6	-0.090989515
138	0x3df88f8a	0.12136753
139	0xbe41cfaa	-0.18926874
140	0x3ddb840e	0.10718547
141	0x3e333259	0.17499675
142	0x3d356419	0.044284914
143	0xbfbcb678	-1.4743185
144	0x3e41d4b0	0.1892879
145	0xbd9ab7d3	-0.07554593
146	0x3bcb2ab1	0.0062001576
147	0xbd9bd06b	-0.07608112
148	0xbcf136b5	-0.029445032
149	0x3d144138	0.03619501
150	0x3cc16ae0	0.023610532
151	0xbd08c294	-0.03338869
152	0xbe34fd90	-0.17674851
153	0x3c144d90	0.0090516955
154	0xbbba4897	-0.005684923
155	0x3cdf96dd	0.027293617
156	0x3e046fa6	0.12933215
157	0x3e2ff3d7	0.17182861
158	0xbdb66e91	-0.089078076
159	0xba7938ac	-0.0009507041
160	0xbd7a9085	-0.06117298
161	0xbe26d5ef	-0.16292547
162	0xbdd8b67f	-0.10581683
163	0x3e29e5cf	0.16591571
164	0x3dbfb0da	0.09359904
165	0x3de49be3	0.111625455
166	0xbf745541	-0.9544259
167	0xbe0fd0e9	-0.14044537
168	0x3c981588	0.018564954
169	0x3e22fe70	0.15917373
170	0xbdba2025	-0.09088162
171	0x3e08b61b	0.13350718
172	0x3d3e50bc	0.046463713
173	0x3e0306fd	0.12795635
174	0xbd856c25	-0.065147676
175	0xbf80a422	-1.0050089
176	0xbe0fab62	-0.14030221
177	0xbc37e710	-0.011224523
178	0x3d9f643e	0.077827916
179	0x3d70b3b1	0.058765117
180	0x3e188a92	0.1489661
181	0x3e3563be	0.1771383
182	0x3e24af01	0.16082384
183	0x3df311e6	0.11868648
184	0x3dfe8922	0.124285
185	0xbcbadae0	-0.022809446
186	0xbe0820e2	-0.13293794
187	0xbd79bcc1	-0.060971025
188	0xbc95de9f	-0.01829463
189	0xbdc3a40d	-0.095527746
190	0x3ddd6772	0.10810746
191	0x3d990b00	0.07472801
192	0x3ce9a998	0.028523251
193	0x3d2ee89c	0.042702302
194	0x3e1f0451	0.1552899
195	0x3d83dda8	0.06438762
196	0xbe1ebe34	-0.15502244
197	0xbe036601	-0.1283188
198	0x3d9f9182	0.07791425
199	0x3cc55a78	0.02409099
200	0x3db0902e	0.0862125
201	0xbe34c9a1	-0.1765504
202	0xbe270ea4	-0.16314179
203	0x3dde02fe	0.108404145
204	0x3de79392	0.11307444
205	0xbe23c52b	-0.15993182
206	0x3d896cae	0.06710182
207	0xbe0d5910	-0.13803506
208	0x3e09165d	0.13387437
209	0x3d633564	0.05547084
210	0x3e32fd53	0.17479448
211	0xbe327bce	-0.1743004
212	0xbe2e4354	-0.17017871
213	0x3df4c66a	0.11951907
214	0x3e20b691	0.15694644
215	0x3dddd056	0.108307526
216	0x3df0b1b2	0.11752643
217	0xbe1877a7	-0.14889394
218	0x3e030637	0.1279534
219	0xbe2ae8ac	-0.1669032
220	0x3d21c294	0.039492205
221	0xbded25de	-0.11579488
222	0xbd8fccd4	-0.0702149
223	0x3d003628	0.031301647
224	0xbd8e58ac	-0.069505066
225	0xbce52198	-0.02797012
226	0xbe2b9315	-0.16755326
227	0xbe2aada4	-0.16667801
228	0x3d8c3d8c	0.06847677
229	0xbd993e40	-0.07482576
230	0xbddc42b4	-0.1075491
231	0xbd8edaa2	-0.06975295
232	0xbe13fee7	-0.14452706
233	0xbe10b4f7	-0.14131533
234	0x3dd8a24a	0.10577829
235	0x3db800da	0.089845374
236	0x3cc0e638	0.023547277
237	0xbdc5c461	-0.09656597
238	0x3d70e6b8	0.05881378
239	0x3c021e10	0.007941738
240	0xbe015e9e	-0.1263375
241	0x3d1bd068	0.03804055
242	0x3e24d379	0.16096295
243	0xbe320d40	-0.17387867
244	0xbe340114	-0.17578536
245	0x3cb98b78	0.022649512
246	0x3e084fc5	0.1331168
247	0xbddc4bfc	-0.1075668
248	0x3d1f6574	0.038915113
249	0x3dfe8202	0.12427141
250	0x3d5f3eb0	0.054503143
251	0x3d1cb2b8	0.038256377
252	0x3e349b91	0.17637469
253	0x3debdbba	0.11516519
254	0xbdcb9ece	-0.09942399
255	0x3c7a58d0	0.015279964

convs.2.apply_func.bias f4 [16]
0	0xbd8eb9dd	-0.06969044
1	0x3af7f194	0.00189166
2	0x3db46c8a	0.08809765
3	0x3da4127e	0.080113396
4	0x3e715a33	0.23569565
5	0x3dc72793	0.09724345
6	0x3de43426	0.11142759
7	0xbe1d3c10	-0.15354943
8	0xbe16635b	-0.14686339
9	0x3da29a22	0.07939555
10	0x3d826904	0.063676864
11	0xbdfa03ba	-0.12207742
12	0xbdc9e4f1	-0.0985812
13	0xbb9f6a3e	-0.00486496
14	0xbe01afb8	-0.12664688
15	0x3b8dc6fb	0.004326699

classify.weight f4 [2, 16]
0	0x3e53d990	0.20688462
1	0xbe867d47	-0.26267454
2	0x3e1308ae	0.1435878
3	0xbd24c4a8	-0.04022661
4	0xbe83b5cb	-0.25724635
5	0xbefad643	-0.48991594
6	0x3e00d334	0.12580568
7	0x3dc34b64	0.09535864
8	0x3e466ab2	0.19376639
9	0xbe7c86f4	-0.24660856
10	0x3e1d71b0	0.153754
11	0x3ea72528	0.32645535
12	0xbe6e2c62	-0.23259118
13	0xbeea6f5b	-0.45788082
14	0x3e5a8a52	0.21341828
15	0xbf201cc1	-0.62543875
16	0x3da7ff40	0.08202982
17	0x3ea59221	0.3233805
18	0x3d8630ac	0.06552252
19	0x3f06b61e	0.5262164
20	0x3f136c93	0.57587546
21	0x3ef61178	0.48060203
22	0xbcff46d0	-0.031161696
23	0x3e56b5de	0.20967814
24	0xbe6e91d4	-0.23297817
25	0xbe0a2526	-0.13490734
26	0xbd5b03a8	-0.053470284
27	0xbe48ca4b	-0.19608419
28	0x3e6c7742	0.23092368
29	0x3f1a19a2	0.6019536
30	0x3e24d0ee	0.16095325
31	0x3f1d1916	0.61366403

classify.bias f4 [2]
0	0xbdebf65e	-0.115216
1	0xbdcdcd86	-0.10048966

exp_avg f4 [16, 10]
0	0x00000000	0.0
1	0x00000000	0.0
2	0x00000000	0.0
3	0x00000000	0.0
4	0x00000000	0.0
5	0x00000000	0.0
6	0x00000000	0.0
7	0x00000000	0.0
8	0x00000000	0.0
9	0x00000000	0.0
10	0x00000000	0.0
11	0x00000000	0.0
12	0x00000000	0.0
13	0x00000000	0.0
14	0x00000000	0.0
15	0x00000000	0.0
16	0x00000000	0.0
17	0x00000000	0.0
18	0x00000000	0.0
19	0x00000000	0.0
20	0xbc0f39a2	-0.008741768
21	0xbc0f39a2	-0.008741768
22	0xbc0f39a2	-0.008741768
23	0xbc0f39a2	-0.008741768
24	0xbc0f39a2	-0.008741768
25	0xbc0f39a2	-0.008741768
26	0xbc0f39a2	-0.008741768
27	0xbc0f39a2	-0.008741768
28	0xbc0f39a2	-0.008741768
29	0xbc0f39a2	-0.008741768
30	0x00000000	0.0
31	0x00000000	0.0
32	0x00000000	0.0
33	0x00000000	0.0
34	0x00000000	0.0
35	0x00000000	0.0
36	0x00000000	0.0
37	0x00000000	0.0
38	0x00000000	0.0
39	0x00000000	0.0
40	0x00000000	0.0
41	0x00000000	0.0
42	0x00000000	0.0
43	0x00000000	0.0
44	0x00000000	0.0
45	0x00000000	0.0
46	0x00000000	0.0
47	0x00000000	0.0
48	0x00000000	0.0
49	0x00000000	0.0
50	0x3cf63c58	0.030058071
51	0x3cf63c58	0.030058071
52	0x3cf63c58	0.030058071
53	0x3cf63c58	0.030058071
54	0x3cf63c58	0.030058071
55	0x3cf63c58	0.030058071
56	0x3cf63c58	0.030058071
57	0x3cf63c58	0.030058071
58	0x3cf63c58	0.030058071
59	0x3cf63c58	0.030058071
60	0x3c18f801	0.0093364725
61	0x3c18f801	0.0093364725
62	0x3c18f801	0.0093364725
63	0x3c18f801	0.0093364725
64	0x3c18f801	0.0093364725
65	0x3c18f801	0.0093364725
66	0x3c18f801	0.0093364725
67	0x3c18f801	0.0093364725
68	0x3c18f801	0.0093364725
69	0x3c18f801	0.0093364725
70	0x3bab4091	0.005226203
71	0x3bab4091	0.005226203
72	0x3bab4091	0.005226203
73	0x3bab4091	0.005226203
74	0x3bab4091	0.005226203
75	0x3bab4091	0.005226203
76	0x3bab4091	0.005226203
77	0x3bab4091	0.005226203
78	0x3bab4091	0.005226203
79	0x3bab4091	0.005226203
80	0x00000000	0.0
81	0x00000000	0.0
82	0x00000000	0.0
83	0x00000000	0.0
84	0x00000000	0.0
85	0x00000000	0.0
86	0x00000000	0.0
87	0x00000000	0.0
88	0x00000000	0.0
89	0x00000000	0.0
90	0x00000000	0.0
91	0x00000000	0.0
92	0x00000000	0.0
93	0x00000000	0.0
94	0x00000000	0.0
95	0x00000000	0.0
96	0x00000000	0.0
97	0x00000000	0.0
98	0x00000000	0.0
99	0x00000000	0.0
100	0x00000000	0.0
101	0x00000000	0.0
102	0x00000000	0.0
103	0x00000000	0.0
104	0x00000000	0.0
105	0x00000000	0.0
106	0x00000000	0.0
107	0x00000000	0.0
108	0x00000000	0.0
109	0x00000000	0.0
110	0x3c91313b	0.01772367
111	0x3c91313b	0.01772367
112	0x3c91313b	0.01772367
113	0x3c91313b	0.01772367
114	0x3c91313b	0.01772367
115	0x3c91313b	0.01772367
116	0x3c91313b	0.01772367
117	0x3c91313b	0.01772367
118	0x3c91313b	0.01772367
119	0x3c91313b	0.01772367
120	0x00000000	0.0
121	0x00000000	0.0
122	0x00000000	0.0
123	0x00000000	0.0
124	0x00000000	0.0
125	0x00000000	0.0
126	0x00000000	0.0
127	0x00000000	0.0
128	0x00000000	0.0
129	0x00000000	0.0
130	0xbd063a25	-0.032770295
131	0xbd063a25	-0.032770295
132	0xbd063a25	-0.032770295
133	0xbd063a25	-0.032770295
134	0xbd063a25	-0.032770295
135	0xbd063a25	-0.032770295
136	0xbd063a25	-0.032770295
137	0xbd063a25	-0.032770295
138	0xbd063a25	-0.032770295
139	0xbd063a25	-0.032770295
140	0x3bb71a3b	0.0055878437
141	0x3bb71a3b	0.0055878437
142	0x3bb71a3b	0.0055878437
143	0x3bb71a3b	0.0055878437
144	0x3bb71a3b	0.0055878437
145	0x3bb71a3b	0.0055878437
146	0x3bb71a3b	0.0055878437
147	0x3bb71a3b	0.0055878437
148	0x3bb71a3b	0.0055878437
149	0x3bb71a3b	0.0055878437
150	0x00000000	0.0
151	0x00000000	0.0
152	0x00000000	0.0
153	0x00000000	0.0
154	0x00000000	0.0
155	0x00000000	0.0
156	0x00000000	0.0
157	0x00000000	0.0
158	0x00000000	0.0
159	0x00000000	0.0

exp_avg_sq f4 [16, 10]
0	0x00000000	0.0
1	0x00000000	0.0
2	0x00000000	0.0
3	0x00000000	0.0
4	0x00000000	0.0
5	0x00000000	0.0
6	0x00000000	0.0
7	0x00000000	0.0
8	0x00000000	0.0
9	0x00000000	0.0
10	0x00000000	0.0
11	0x00000000	0.0
12	0x00000000	0.0
13	0x00000000	0.0
14	0x00000000	0.0
15	0x00000000	0.0
16	0x00000000	0.0
17	0x00000000	0.0
18	0x00000000	0.0
19	0x00000000	0.0
20	0x3f85b55c	1.0445971
21	0x3f85b55c	1.0445971
22	0x3f85b55c	1.0445971
23	0x3f85b55c	1.0445971
24	0x3f85b55c	1.0445971
25	0x3f85b55c	1.0445971
26	0x3f85b55c	1.0445971
27	0x3f85b55c	1.0445971
28	0x3f85b55c	1.0445971
29	0x3f85b55c	1.0445971
30	0x00000000	0.0
31	0x00000000	0.0
32	0x00000000	0.0
33	0x00000000	0.0
34	0x00000000	0.0
35	0x00000000	0.0
36	0x00000000	0.0
37	0x00000000	0.0
38	0x00000000	0.0
39	0x00000000	0.0
40	0x00000000	0.0
41	0x00000000	0.0
42	0x00000000	0.0
43	0x00000000	0.0
44	0x00000000	0.0
45	0x00000000	0.0
46	0x00000000	0.0
47	0x00000000	0.0
48	0x00000000	0.0
49	0x00000000	0.0
50	0x3f4ad464	0.7923033
51	0x3f4ad464	0.7923033
52	0x3f4ad464	0.7923033
53	0x3f4ad464	0.7923033
54	0x3f4ad464	0.7923033
55	0x3f4ad464	0.7923033
56	0x3f4ad464	0.7923033
57	0x3f4ad464	0.7923033
58	0x3f4ad464	0.7923033
59	0x3f4ad464	0.7923033
60	0x3c1e022d	0.009644073
61	0x3c1e022d	0.009644073
62	0x3c1e022d	0.009644073
63	0x3c1e022d	0.009644073
64	0x3c1e022d	0.009644073
65	0x3c1e022d	0.009644073
66	0x3c1e022d	0.009644073
67	0x3c1e022d	0.009644073
68	0x3c1e022d	0.009644073
69	0x3c1e022d	0.009644073
70	0x3eda2582	0.4260674
71	0x3eda2582	0.4260674
72	0x3eda2582	0.4260674
73	0x3eda2582	0.4260674
74	0x3eda2582	0.4260674
75	0x3eda2582	0.4260674
76	0x3eda2582	0.4260674
77	0x3eda2582	0.4260674
78	0x3eda2582	0.4260674
79	0x3eda2582	0.4260674
80	0x00000000	0.0
81	0x00000000	0.0
82	0x00000000	0.0
83	0x00000000	0.0
84	0x00000000	0.0
85	0x00000000	0.0
86	0x00000000	0.0
87	0x00000000	0.0
88	0x00000000	0.0
89	0x00000000	0.0
90	0x00000000	0.0
91	0x00000000	0.0
92	0x00000000	0.0
93	0x00000000	0.0
94	0x00000000	0.0
95	0x00000000	0.0
96	0x00000000	0.0
97	0x00000000	0.0
98	0x00000000	0.0
99	0x00000000	0.0
100	0x00000000	0.0
101	0x00000000	0.0
102	0x00000000	0.0
103	0x00000000	0.0
104	0x00000000	0.0
105	0x00000000	0.0
106	0x00000000	0.0
107	0x00000000	0.0
108	0x00000000	0.0
109	0x00000000	0.0
110	0x3f045966	0.5169891
111	0x3f045966	0.5169891
112	0x3f045966	0.5169891
113	0x3f045966	0.5169891
114	0x3f045966	0.5169891
115	0x3f045966	0.5169891
116	0x3f045966	0.5169891
117	0x3f045966	0.5169891
118	0x3f045966	0.5169891
119	0x3f045966	0.5169891
120	0x00000000	0.0
121	0x00000000	0.0
122	0x00000000	0.0
123	0x00000000	0.0
124	0x00000000	0.0
125	0x00000000	0.0
126	0x00000000	0.0
127	0x00000000	0.0
128	0x00000000	0.0
129	0x00000000	0.0
130	0x3f0cfd61	0.55074126
131	0x3f0cfd61	0.55074126
132	0x3f0cfd61	0.55074126
133	0x3f0cfd61	0.55074126
134	0x3f0cfd61	0.55074126
135	0x3f0cfd61	0.55074126
136	0x3f0cfd61	0.55074126
137	0x3f0cfd61	0.55074126
138	0x3f0cfd61	0.55074126
139	0x3f0cfd61	0.55074126
140	0x403bede0	2.9363937
141	0x403bede0	2.9363937
142	0x403bede0	2.9363937
143	0x403bede0	2.9363937
144	0x403bede0	2.9363937
145	0x403bede0	2.9363937
146	0x403bede0	2.9363937
147	0x403bede0	2.9363937
148	0x403bede0	2.9363937
149	0x403bede0	2.9363937
150	0x00000000	0.0
151	0x00000000	0.0
152	0x00000000	0.0
153	0x00000000	0.0
154	0x00000000	0.0
155	0x00000000	0.0
156	0x00000000	0.0
157	0x00000000	0.0
158	0x00000000	0.0
159	0x00000000	0.0

exp_avg f4 [16]
0	0x00000000	0.0
1	0x00000000	0.0
2	0x3b1266f2	0.0022339192
3	0x00000000	0.0
4	0x00000000	0.0
5	0x3c49911b	0.012302662
6	0x3b2c669a	0.0026306272
7	0xbb198210	-0.002342347
8	0x00000000	0.0
9	0x00000000	0.0
10	0x00000000	0.0
11	0x3be6795f	0.0070335115
12	0x00000000	0.0
13	0xbc3ee68e	-0.011651648
14	0x3c12abff	0.00895214
15	0x00000000	0.0

exp_avg_sq f4 [16]
0	0x00000000	0.0
1	0x00000000	0.0
2	0x3da3a369	0.079901524
3	0x00000000	0.0
4	0x00000000	0.0
5	0x3d70c0cc	0.058777615
6	0x3a358171	0.00069238903
7	0x3d04ef0f	0.032454547
8	0x00000000	0.0
9	0x00000000	0.0
10	0x00000000	0.0
11	0x3d17caa1	0.037058476
12	0x00000000	0.0
13	0x3d259372	0.040423818
14	0x3e64bd27	0.22337781
15	0x00000000	0.0

exp_avg f4 [32, 16]
0	0x00000000	0.0
1	0x00000000	0.0
2	0x39b840fe	0.00035143638
3	0x00000000	0.0
4	0x00000000	0.0
5	0x3967381c	0.00022050779
6	0x3b1d9abe	0.0024048532
7	0x3a1615f5	0.0005725318
8	0x00000000	0.0
9	0x00000000	0.0
10	0x00000000	0.0
11	0x394e5e16	0.0001968074
12	0x00000000	0.0
13	0x3a5e6240	0.00084832683
14	0x39d3b576	0.00040380255
15	0x00000000	0.0
16	0x00000000	0.0
17	0x00000000	0.0
18	0x00000000	0.0
19	0x00000000	0.0
20	0x00000000	0.0
21	0x00000000	0.0
22	0x00000000	0.0
23	0x00000000	0.0
24	0x00000000	0.0
25	0x00000000	0.0
26	0x00000000	0.0
27	0x00000000	0.0
28	0x00000000	0.0
29	0x00000000	0.0
30	0x00000000	0.0
31	0x00000000	0.0
32	0x00000000	0.0
33	0x00000000	0.0
34	0xbb84fce9	-0.0040584696
35	0x00000000	0.0
36	0x00000000	0.0
37	0xbb273226	-0.0025512069
38	0xbcef4bbc	-0.029210918
39	0xbbeb1f19	-0.007175338
40	0x00000000	0.0
41	0x00000000	0.0
42	0x00000000	0.0
43	0xbb148412	-0.0022661728
44	0x00000000	0.0
45	0xbc2d52d9	-0.010578834
46	0xbb98be48	-0.004661355
47	0x00000000	0.0
48	0x00000000	0.0
49	0x00000000	0.0
50	0x00000000	0.0
51	0x00000000	0.0
52	0x00000000	0.0
53	0x00000000	0.0
54	0x00000000	0.0
55	0x00000000	0.0
56	0x00000000	0.0
57	0x00000000	0.0
58	0x00000000	0.0
59	0x00000000	0.0
60	0x00000000	0.0
61	0x00000000	0.0
62	0x00000000	0.0
63	0x00000000	0.0
64	0x00000000	0.0
65	0x00000000	0.0
66	0x3b4e0c5d	0.0031440475
67	0x00000000	0.0
68	0x00000000	0.0
69	0x3b018dea	0.0019768425
70	0x3cb73284	0.022362955
71	0x3bb2bc70	0.0054545924
72	0x00000000	0.0
73	0x00000000	0.0
74	0x00000000	0.0
75	0x3ae6637a	0.0017577254
76	0x00000000	0.0
77	0x3c03e76c	0.008050781
78	0x3b6c8d2d	0.003609489
79	0x00000000	0.0
80	0x00000000	0.0
81	0x00000000	0.0
82	0xbb5c4b38	-0.003361417
83	0x00000000	0.0
84	0x00000000	0.0
85	0xbb0a7ed6	-0.002113273
86	0xbcc501b2	-0.02404866
87	0xbbc0ddec	-0.00588583
88	0x00000000	0.0
89	0x00000000	0.0
90	0x00000000	0.0
91	0xbaf5fb02	-0.0018766823
92	0x00000000	0.0
93	0xbc0e3968	-0.008680679
94	0xbb7d0373	-0.0038606792
95	0x00000000	0.0
96	0x00000000	0.0
97	0x00000000	0.0
98	0xbb58b577	-0.0033067146
99	0x00000000	0.0
100	0x00000000	0.0
101	0xbb13379a	-0.002246356
102	0xbd76c6cf	-0.060248192
103	0xbca4dc4e	-0.02012458
104	0x00000000	0.0
105	0x00000000	0.0
106	0x00000000	0.0
107	0xbaa089e3	-0.0012248125
108	0x00000000	0.0
109	0xbce9426a	-0.028474052
110	0xbb593fff	-0.0033149717
111	0x00000000	0.0
112	0x00000000	0.0
113	0x00000000	0.0
114	0x00000000	0.0
115	0x00000000	0.0
116	0x00000000	0.0
117	0x00000000	0.0
118	0x00000000	0.0
119	0x00000000	0.0
120	0x00000000	0.0
121	0x00000000	0.0
122	0x00000000	0.0
123	0x00000000	0.0
124	0x00000000	0.0
125	0x00000000	0.0
126	0x00000000	0.0
127	0x00000000	0.0
128	0x00000000	0.0
129	0x00000000	0.0
130	0x00000000	0.0
131	0x00000000	0.0
132	0x00000000	0.0
133	0x00000000	0.0
134	0x00000000	0.0
135	0x00000000	0.0
136	0x00000000	0.0
137	0x00000000	0.0
138	0x00000000	0.0
139	0x00000000	0.0
140	0x00000000	0.0
141	0x00000000	0.0
142	0x00000000	0.0
143	0x00000000	0.0
144	0x00000000	0.0
145	0x00000000	0.0
146	0x3bdca741	0.0067338054
147	0x00000000	0.0
148	0x00000000	0.0
149	0x3b8aaae3	0.004231797
150	0x3d45634a	0.048190393
151	0x3c414962	0.011797281
152	0x00000000	0.0
153	0x00000000	0.0
154	0x00000000	0.0
155	0x3b768055	0.0037613113
156	0x00000000	0.0
157	0x3c8e9055	0.017402807
158	0x3bfd718c	0.007734483
159	0x00000000	0.0
160	0x00000000	0.0
161	0x00000000	0.0
162	0x3bc949e1	0.0061428403
163	0x00000000	0.0
164	0x00000000	0.0
165	0x3b7d0188	0.003860565
166	0x3d338990	0.04383236
167	0x3c2f7e24	0.010711227
168	0x00000000	0.0
169	0x00000000	0.0
170	0x00000000	0.0
171	0x3b60ddba	0.0034311847
172	0x00000000	0.0
173	0x3c8176c1	0.015803697
174	0x3be73372	0.0070556933
175	0x00000000	0.0
176	0x00000000	0.0
177	0x00000000	0.0
178	0x00000004	6e-45
179	0x00000000	0.0
180	0x00000000	0.0
181	0x00000004	6e-45
182	0x00000004	6e-45
183	0x00000004	6e-45
184	0x00000000	0.0
185	0x00000000	0.0
186	0x00000000	0.0
187	0x00000004	6e-45
188	0x00000000	0.0
189	0x00000004	6e-45
190	0x00000004	6e-45
191	0x00000000	0.0
192	0x00000000	0.0
193	0x00000000	0.0
194	0x00000000	0.0
195	0x00000000	0.0
196	0x00000000	0.0
197	0x00000000	0.0
198	0x00000000	0.0
199	0x00000000	0.0
200	0x00000000	0.0
201	0x00000000	0.0
202	0x00000000	0.0
203	0x00000000	0.0
204	0x00000000	0.0
205	0x00000000	0.0
206	0x00000000	0.0
207	0x00000000	0.0
208	0x00000000	0.0
209	0x00000000	0.0
210	0x3c055e3e	0.008140145
211	0x00000000	0.0
212	0x00000000	0.0
213	0x3ba7a8cd	0.005116558
214	0x3d6d26bd	0.05789827
215	0x3c6759f6	0.014120569
216	0x00000000	0.0
217	0x00000000	0.0
218	0x00000000	0.0
219	0x3b94f714	0.0045460556
220	0x00000000	0.0
221	0x3caab26e	0.020837035
222	0x3c192f59	0.0093496675
223	0x00000000	0.0
224	0x00000000	0.0
225	0x00000000	0.0
226	0x3b89fbf4	0.0042109434
227	0x00000000	0.0
228	0x00000000	0.0
229	0x3b2d6f5f	0.0026464087
230	0x3cf58403	0.029970175
231	0x3bef9c32	0.007312321
232	0x00000000	0.0
233	0x00000000	0.0
234	0x00000000	0.0
235	0x3b1a2589	0.0023520908
236	0x00000000	0.0
237	0x3c30cc35	0.010790874
238	0x3b9e7d6a	0.004836728
239	0x00000000	0.0
240	0x00000000	0.0
241	0x00000000	0.0
242	0x3c41bc26	0.011824643
243	0x00000000	0.0
244	0x00000000	0.0
245	0x3be341df	0.0069353427
246	0x3d85bbf4	0.0652999
247	0x3c5ec0e0	0.01359579
248	0x00000000	0.0
249	0x00000000	0.0
250	0x00000000	0.0
251	0x3bb2c496	0.005455564
252	0x00000000	0.0
253	0x3ca45681	0.02006078
254	0x3c5a8582	0.013337495
255	0x00000000	0.0

exp_avg_sq f4 [32, 16]
0	0x00000000	0.0
1	0x00000000	0.0
2	0x36aad155	5.0907643e-06
3	0x00000000	0.0
4	0x00000000	0.0
5	0x36039888	1.9609306e-06
6	0x399f7f2e	0.000304216
7	0x378796b0	1.6163423e-05
8	0x00000000	0.0
9	0x00000000	0.0
10	0x00000000	0.0
11	0x35deefbe	1.6610063e-06
12	0x00000000	0.0
13	0x38179b42	3.61458e-05
14	0x36d9f685	6.4958026e-06
15	0x00000000	0.0
16	0x00000000	0.0
17	0x00000000	0.0
18	0x00000000	0.0
19	0x00000000	0.0
20	0x00000000	0.0
21	0x00000000	0.0
22	0x00000000	0.0
23	0x00000000	0.0
24	0x00000000	0.0
25	0x00000000	0.0
26	0x00000000	0.0
27	0x00000000	0.0
28	0x00000000	0.0
29	0x00000000	0.0
30	0x00000000	0.0
31	0x00000000	0.0
32	0x00000000	0.0
33	0x00000000	0.0
34	0x3a511ee7	0.0007977322
35	0x00000000	0.0
36	0x00000000	0.0
37	0x399ef8a6	0.00030321366
38	0x3d457b2c	0.04821317
39	0x3b2b0d61	0.0026100504
40	0x00000000	0.0
41	0x00000000	0.0
42	0x00000000	0.0
43	0x39889d14	0.00026056974
44	0x00000000	0.0
45	0x3bbef0dc	0.0058270525
46	0x3a8a1998	0.0010536192
47	0x00000000	0.0
48	0x00000000	0.0
49	0x00000000	0.0
50	0x00000000	0.0
51	0x00000000	0.0
52	0x00000000	0.0
53	0x00000000	0.0
54	0x00000000	0.0
55	0x00000000	0.0
56	0x00000000	0.0
57	0x00000000	0.0
58	0x00000000	0.0
59	0x00000000	0.0
60	0x00000000	0.0
61	0x00000000	0.0
62	0x00000000	0.0
63	0x00000000	0.0
64	0x00000000	0.0
65	0x00000000	0.0
66	0x39a8877e	0.00032144407
67	0x00000000	0.0
68	0x00000000	0.0
69	0x3901714b	0.00012344604
70	0x3c9c417f	0.0190742
71	0x3a8a3d98	0.0010546921
72	0x00000000	0.0
73	0x00000000	0.0
74	0x00000000	0.0
75	0x38db6aac	0.00010462603
76	0x00000000	0.0
77	0x3b19b125	0.0023451534
78	0x39db7fa4	0.00041866035
79	0x00000000	0.0
80	0x00000000	0.0
81	0x00000000	0.0
82	0x3a0b4baf	0.0005313707
83	0x00000000	0.0
84	0x00000000	0.0
85	0x39563ac2	0.0002043052
86	0x3d016d6d	0.031598497
87	0x3ae217fb	0.0017249578
88	0x00000000	0.0
89	0x00000000	0.0
90	0x00000000	0.0
91	0x39360d9d	0.00017361944
92	0x00000000	0.0
93	0x3b7b9434	0.0038387896
94	0x3a35d7c4	0.00069367536
95	0x00000000	0.0
96	0x00000000	0.0
97	0x00000000	0.0
98	0x3d37f31e	0.04490959
99	0x00000000	0.0
100	0x00000000	0.0
101	0x3c8b58fd	0.017010206
102	0x40720803	3.781739
103	0x3e7aeb67	0.24503861
104	0x00000000	0.0
105	0x00000000	0.0
106	0x00000000	0.0
107	0x3c710295	0.014710088
108	0x00000000	0.0
109	0x3f08cdde	0.5343913
110	0x3d7227f3	0.05912013
111	0x00000000	0.0
112	0x00000000	0.0
113	0x00000000	0.0
114	0x00000000	0.0
115	0x00000000	0.0
116	0x00000000	0.0
117	0x00000000	0.0
118	0x00000000	0.0
119	0x00000000	0.0
120	0x00000000	0.0
121	0x00000000	0.0
122	0x00000000	0.0
123	0x00000000	0.0
124	0x00000000	0.0
125	0x00000000	0.0
126	0x00000000	0.0
127	0x00000000	0.0
128	0x00000000	0.0
129	0x00000000	0.0
130	0x00000000	0.0
131	0x00000000	0.0
132	0x00000000	0.0
133	0x00000000	0.0
134	0x00000000	0.0
135	0x00000000	0.0
136	0x00000000	0.0
137	0x00000000	0.0
138	0x00000000	0.0
139	0x00000000	0.0
140	0x00000000	0.0
141	0x00000000	0.0
142	0x00000000	0.0
143	0x00000000	0.0
144	0x00000000	0.0
145	0x00000000	0.0
146	0x3af67eed	0.0018806137
147	0x00000000	0.0
148	0x00000000	0.0
149	0x3a3c5d56	0.0007185539
150	0x3de5bdc8	0.112178385
151	0x3bc90bdd	0.0061354474
152	0x00000000	0.0
153	0x00000000	0.0
154	0x00000000	0.0
155	0x3a20e394	0.00061374274
156	0x00000000	0.0
157	0x3c5fe609	0.0136656845
158	0x3b21f980	0.0024715364
159	0x00000000	0.0
160	0x00000000	0.0
161	0x00000000	0.0
162	0x3ae8add7	0.0017752004
163	0x00000000	0.0
164	0x00000000	0.0
165	0x3a332465	0.00068337313
166	0x3dd81a1d	0.10551856
167	0x3bbaa854	0.005696336
168	0x00000000	0.0
169	0x00000000	0.0
170	0x00000000	0.0
171	0x3a17a6c6	0.0005785044
172	0x00000000	0.0
173	0x3c503b94	0.012709517
174	0x3b160ae8	0.0022894684
175	0x00000000	0.0
176	0x00000000	0.0
177	0x00000000	0.0
178	0x32498157	1.1729148e-08
179	0x00000000	0.0
180	0x00000000	0.0
181	0x3209ec9d	8.028249e-09
182	0x34379900	1.7098864e-07
183	0x32655267	1.33482905e-08
184	0x00000000	0.0
185	0x00000000	0.0
186	0x00000000	0.0
187	0x315e03a4	3.2307321e-09
188	0x00000000	0.0
189	0x32b27094	2.0773122e-08
190	0x3138b97d	2.6880962e-09
191	0x00000000	0.0
192	0x00000000	0.0
193	0x00000000	0.0
194	0x00000000	0.0
195	0x00000000	0.0
196	0x00000000	0.0
197	0x00000000	0.0
198	0x00000000	0.0
199	0x00000000	0.0
200	0x00000000	0.0
201	0x00000000	0.0
202	0x00000000	0.0
203	0x00000000	0.0
204	0x00000000	0.0
205	0x00000000	0.0
206	0x00000000	0.0
207	0x00000000	0.0
208	0x00000000	0.0
209	0x00000000	0.0
210	0x3b689063	0.0035486452
211	0x00000000	0.0
212	0x00000000	0.0
213	0x3ab02ac0	0.0013440475
214	0x3e5d439b	0.2160782
215	0x3c3c0404	0.011475567
216	0x00000000	0.0
217	0x00000000	0.0
218	0x00000000	0.0
219	0x3a9723bc	0.0011531035
220	0x00000000	0.0
221	0x3cd308e6	0.025761079
222	0x3b980441	0.004639179
223	0x00000000	0.0
224	0x00000000	0.0
225	0x00000000	0.0
226	0x3a663c59	0.0008782796
227	0x00000000	0.0
228	0x00000000	0.0
229	0x39b45a34	0.00034399482
230	0x3d519991	0.051171843
231	0x3b33b6bc	0.002742215
232	0x00000000	0.0
233	0x00000000	0.0
234	0x00000000	0.0
235	0x3995c39b	0.00028565232
236	0x00000000	0.0
237	0x3bc85de2	0.0061147073
238	0x3a8f86eb	0.0010950243
239	0x00000000	0.0
240	0x00000000	0.0
241	0x00000000	0.0
242	0x3d44a378	0.04800746
243	0x00000000	0.0
244	0x00000000	0.0
245	0x3c94d9ed	0.018170321
246	0x4081a5c9	4.0514874
247	0x3e85e523	0.2615138
248	0x00000000	0.0
249	0x00000000	0.0
250	0x00000000	0.0
251	0x3c8100d1	0.01574746
252	0x00000000	0.0
253	0x3f122a26	0.57095563
254	0x3d815bda	0.063163474
255	0x00000000	0.0

exp_avg f4 [32]
0	0x38d41b30	0.00010114012
1	0x00000000	0.0
2	0xbac7d479	-0.0015245817
3	0x00000000	0.0
4	0x3abe7443	0.0014530498
5	0xbaa2318e	-0.0012374388
6	0xbbd33fc4	-0.0064468104
7	0x00000000	0.0
8	0x00000000	0.0
9	0x3b21248b	0.0024588432
10	0x3b11744e	0.0022194567
11	0x00000004	6e-45
12	0x00000000	0.0
13	0x3b3f712f	0.002921175
14	0x3ac5904f	0.0015072915
15	0x3b1cde1b	0.0023936096
16	0x3a9d8763	0.0012018498
17	0x00000000	0.0
18	0xba8222fc	-0.0009928639
19	0x3b45ba6e	0.0030170935
20	0xbb331488	-0.002732547
21	0xbb5f35ec	-0.003405924
22	0x00000000	0.0
23	0x00000000	0.0
24	0x00000000	0.0
25	0x00000000	0.0
26	0x3b667803	0.0035166747
27	0xbab87158	-0.0014071865
28	0xbb0d466d	-0.002155687
29	0x00000000	0.0
30	0xbb21e800	-0.0024704933
31	0xbb4e8806	-0.0031514182

exp_avg_sq f4 [32]
0	0x3502ebd9	4.877198e-07
1	0x00000000	0.0
2	0x389c06d5	7.439932e-05
3	0x00000000	0.0
4	0x380389fa	3.1361335e-05
5	0x384fd66d	4.9552345e-05
6	0x3c8ad23a	0.016945947
7	0x00000000	0.0
8	0x00000000	0.0
9	0x3937558b	0.00017484107
10	0x392f7925	0.0001673443
11	0x3105cec8	1.9471589e-09
12	0x00000000	0.0
13	0x39af8266	0.00033475755
14	0x38b0b4b1	8.4259904e-05
15	0x3c94f842	0.018184785
16	0x3812a03a	3.4958335e-05
17	0x00000000	0.0
18	0x382d14ef	4.126591e-05
19	0x39a8f916	0.0003222904
20	0x399563c6	0.00028493832
21	0x39c0e432	0.00036791113
22	0x00000000	0.0
23	0x00000000	0.0
24	0x00000000	0.0
25	0x00000000	0.0
26	0x39e5e222	0.00043846766
27	0x38b43497	8.5928645e-05
28	0x392e1656	0.00016602254
29	0x00000000	0.0
30	0x394a5880	0.0001929719
31	0x39a5d9f0	0.00031633629

exp_avg f4 [16, 32]
0	0x00000000	0.0
1	0x00000000	0.0
2	0x00000000	0.0
3	0x00000000	0.0
4	0x00000000	0.0
5	0x00000000	0.0
6	0x00000000	0.0
7	0x00000000	0.0
8	0x00000000	0.0
9	0x00000000	0.0
10	0x00000000	0.0
11	0x00000000	0.0
12	0x00000000	0.0
13	0x00000000	0.0
14	0x00000000	0.0
15	0x00000000	0.0
16	0x00000000	0.0
17	0x00000000	0.0
18	0x00000000	0.0
19	0x00000000	0.0
20	0x00000000	0.0
21	0x00000000	0.0
22	0x00000000	0.0
23	0x00000000	0.0
24	0x00000000	0.0
25	0x00000000	0.0
26	0x00000000	0.0
27	0x00000000	0.0
28	0x00000000	0.0
29	0x00000000	0.0
30	0x00000000	0.0
31	0x00000000	0.0
32	0xbd6c2b25	-0.057658333
33	0x00000000	0.0
34	0xbcce375f	-0.025172887
35	0x00000000	0.0
36	0xba3ea691	-0.0007272745
37	0xbcbf9b23	-0.023389405
38	0x3a1a060f	0.00058755366
39	0x00000000	0.0
40	0x00000000	0.0
41	0xbc915cd6	-0.017744463
42	0xbd20122d	-0.039079834
43	0x00000004	6e-45
44	0x00000000	0.0
45	0xbc3d8997	-0.0115684485
46	0xbcf80e27	-0.030280186
47	0x3a2c559d	0.00065740367
48	0xbbe6be72	-0.007041746
49	0x00000000	0.0
50	0xbc81e226	-0.015854906
51	0xbce44be0	-0.027868211
52	0xbcdf5099	-0.027260112
53	0xbcac23de	-0.021013197
54	0x00000000	0.0
55	0x00000000	0.0
56	0x00000000	0.0
57	0x00000000	0.0
58	0xbd2f114e	-0.042741112
59	0xbd07a5b0	-0.033116996
60	0xbc1b67fc	-0.009485241
61	0x00000000	0.0
62	0xbcea542f	-0.028604595
63	0xbd0c0df9	-0.034193013
64	0x00000000	0.0
65	0x00000000	0.0
66	0x00000000	0.0
67	0x00000000	0.0
68	0x00000000	0.0
69	0x00000000	0.0
70	0x00000000	0.0
71	0x00000000	0.0
72	0x00000000	0.0
73	0x00000000	0.0
74	0x00000000	0.0
75	0x00000000	0.0
76	0x00000000	0.0
77	0x00000000	0.0
78	0x00000000	0.0
79	0x00000000	0.0
80	0x00000000	0.0
81	0x00000000	0.0
82	0x00000000	0.0
83	0x00000000	0.0
84	0x00000000	0.0
85	0x00000000	0.0
86	0x00000000	0.0
87	0x00000000	0.0
88	0x00000000	0.0
89	0x00000000	0.0
90	0x00000000	0.0
91	0x00000000	0.0
92	0x00000000	0.0
93	0x00000000	0.0
94	0x00000000	0.0
95	0x00000000	0.0
96	0xbd658f6b	-0.056044977
97	0x00000000	0.0
98	0xbcc89bb1	-0.024488302
99	0x00000000	0.0
100	0xba3890ae	-0.0007040602
101	0xbcba5c39	-0.022749053
102	0x3a122cf8	0.0005576159
103	0x00000000	0.0
104	0x00000000	0.0
105	0xbc8d4fae	-0.017249908
106	0xbd1b94e5	-0.037983794
107	0x00000004	6e-45
108	0x00000000	0.0
109	0xbc381500	-0.011235476
110	0xbcf12ed3	-0.029441273
111	0x3a23bd96	0.0006246207
112	0xbbe06a65	-0.0068486207
113	0x00000000	0.0
114	0xbc7cd83b	-0.015432413
115	0xbcddd250	-0.027077824
116	0xbcd9113e	-0.02649748
117	0xbca748c2	-0.020420436
118	0x00000000	0.0
119	0x00000000	0.0
120	0x00000000	0.0
121	0x00000000	0.0
122	0xbd2a1ae1	-0.04152954
123	0xbd03e377	-0.03219935
124	0xbc170932	-0.009218501
125	0x00000000	0.0
126	0xbce3e64d	-0.027819777
127	0xbd082c48	-0.033245355
128	0xbda8d16b	-0.08243068
129	0x00000000	0.0
130	0xbd138349	-0.036013875
131	0x00000000	0.0
132	0xba87cbbc	-0.00103604
133	0xbd090a06	-0.033456825
134	0x3a578a5e	0.00082222174
135	0x00000000	0.0
136	0x00000000	0.0
137	0xbccfd6a7	-0.025370909
138	0xbd64d4c2	-0.055866964
139	0x00000004	6e-45
140	0x00000000	0.0
141	0xbc8762dd	-0.016526634
142	0xbd315c27	-0.043300774
143	0x3a716b65	0.00092094234
144	0xbc25066d	-0.010072333
145	0x00000000	0.0
146	0xbcb9e96b	-0.02269431
147	0xbd232251	-0.03982765
148	0xbd1fa193	-0.03897245
149	0xbcf60c1c	-0.030035071
150	0x00000000	0.0
151	0x00000000	0.0
152	0x00000000	0.0
153	0x00000000	0.0
154	0xbd7a335d	-0.06108414
155	0xbd41f9a0	-0.0473572
156	0xbc5e2542	-0.013558688
157	0x00000000	0.0
158	0xbd2795fc	-0.04091452
159	0xbd4846d0	-0.048895657
160	0xbdc4cf03	-0.09609797
161	0x00000000	0.0
162	0xbd2bfcae	-0.04198902
163	0x00000000	0.0
164	0xba9e3dee	-0.00120729
165	0xbd1fc5b2	-0.039006896
166	0x3a7a8ff9	0.0009558197
167	0x00000000	0.0
168	0x00000000	0.0
169	0xbcf24d83	-0.029577976
170	0xbd8562a3	-0.06512954
171	0x00000004	6e-45
172	0x00000000	0.0
173	0xbc9dd17b	-0.019264927
174	0xbd4ec665	-0.050482173
175	0x3a8c55dd	0.0010706742
176	0xbc4066d0	-0.011743262
177	0x00000000	0.0
178	0xbcd8c597	-0.026461406
179	0xbd3e2c9a	-0.046429254
180	0xbd3a1989	-0.04543451
181	0xbd0f6abb	-0.035013895
182	0x00000000	0.0
183	0x00000000	0.0
184	0x00000000	0.0
185	0x00000000	0.0
186	0xbd91d5ed	-0.07120881
187	0xbd622512	-0.055211134
188	0xbc817ca7	-0.01580651
189	0x00000000	0.0
190	0xbd4362ac	-0.047701523
191	0xbd697da6	-0.057004593
192	0x00000000	0.0
193	0x00000000	0.0
194	0x00000000	0.0
195	0x00000000	0.0
196	0x00000000	0.0
197	0x00000000	0.0
198	0x00000000	0.0
199	0x00000000	0.0
200	0x00000000	0.0
201	0x00000000	0.0
202	0x00000000	0.0
203	0x00000000	0.0
204	0x00000000	0.0
205	0x00000000	0.0
206	0x00000000	0.0
207	0x00000000	0.0
208	0x00000000	0.0
209	0x00000000	0.0
210	0x00000000	0.0
211	0x00000000	0.0
212	0x00000000	0.0
213	0x00000000	0.0
214	0x00000000	0.0
215	0x00000000	0.0
216	0x00000000	0.0
217	0x00000000	0.0
218	0x00000000	0.0
219	0x00000000	0.0
220	0x00000000	0.0
221	0x00000000	0.0
222	0x00000000	0.0
223	0x00000000	0.0
224	0x00000000	0.0
225	0x00000000	0.0
226	0x00000000	0.0
227	0x00000000	0.0
228	0x00000000	0.0
229	0x00000000	0.0
230	0x00000000	0.0
231	0x00000000	0.0
232	0x00000000	0.0
233	0x00000000	0.0
234	0x00000000	0.0
235	0x00000000	0.0
236	0x00000000	0.0
237	0x00000000	0.0
238	0x00000000	0.0
239	0x00000000	0.0
240	0x00000000	0.0
241	0x00000000	0.0
242	0x00000000	0.0
243	0x00000000	0.0
244	0x00000000	0.0
245	0x00000000	0.0
246	0x00000000	0.0
247	0x00000000	0.0
248	0x00000000	0.0
249	0x00000000	0.0
250	0x00000000	0.0
251	0x00000000	0.0
252	0x00000000	0.0
253	0x00000000	0.0
254	0x00000000	0.0
255	0x00000000	0.0
