checkpoint/GIN/Tree-Cycles.pth (torch, 99324 bytes, 27 tensors)

convs.0.apply_func.weight f4 [16, 10]
00000000: 8028 1bbb aeb5 2d3e 1342 85be 4b4f 6ebe
00000010: 7270 f9bd 00ab ad3d c04e cdbb 2960 803e
00000020: 10e5 e5bc 485f ab3d 3eb9 c3bd e09a 7ebd
00000030: ddad 9abe 5775 56be 257c 05be 00ed 3f3c
00000040: 3004 003e 364c 423e 6d87 5bbe a702 0dbe
00000050: 8698 d93d b209 823e 5eeb 96bd af7f 693e
00000060: 450c 74bd 2192 cb3c fe31 8e3e 609b 9abe
00000070: 37ac 54be 3c98 b5bd a872 fcbd a1e3 8b3e
00000080: 49e4 51be 5010 15be 583b 62be 26a3 97be
00000090: 7506 3dbe 232d 8b3e 427e 103e 00f2 1c3e
000000a0: 903d 883c 0804 26be c023 5b3d 582c 97be
000000b0: bafa 69be 00f0 26be fe4e 4c3e 66dc 3d3e
000000c0: 809c 0fbe 20f2 3abc ac97 4a3e 65b4 9e3e
000000d0: 8604 f83d c8f2 1c3d 509b 543e 342c 43be
000000e0: 1855 5f3d cb90 7fbe 0af1 64be 78c9 2bbe
000000f0: e306 103e 2c78 ff3d 3d4e 42be d2ab be3d
00000100: 6346 2f3e 0074 2dbd 3df3 1d3c 7e13 913d
00000110: a165 463e c837 9a3e 68a0 83be 6f61 04be
00000120: 501a e33d 2296 7e3e ba09 863e 4e01 883e
00000130: 0cee 4a3d 24a6 93be 829d 803c 0d4b 58be
00000140: 33e4 96be c7da 8f3e b637 763e 2582 a1be
00000150: 2870 723d 7833 5abd a826 55bd c53a 14be
00000160: 440d f93d 4fcc 3fbe cc6a ed3d cac1 233e
00000170: c2cf 673e 6028 f23d 253f a0be 2a0f 52be
00000180: d2af 213e 008d 873d ca9a 7cbe d475 3abe
00000190: bf50 983e 9e31 5a3e 4531 0dbe eeff a2bd
000001a0: dd3b 9abe 4040 babb 7cda 73be 52c7 79be
000001b0: d0bc 8ebc 707a 423d b282 00be 8e3f 443e
000001c0: fef3 40be 2cf6 943e a603 623e f47b 86be
000001d0: 50fb 98bd 75b5 953c b963 4d3d 7ece a13d
000001e0: 6c26 fe3d 702c 9b3c efff 1dbe 0c3a 193e
000001f0: 874f 9bbe bbed 3fbe 4c1f a2bd 57bc 1dbe
00000200: 6c90 e2bd 2db4 84be 4504 95bd b15c 7e3d
00000210: 6495 58be 06f7 b1bc 582d 623e 05aa 1bbd
00000220: 06d0 573b 5940 06bd bba0 6f3d a044 483e
00000230: 0578 993e 52d8 4d3e d9d1 993e 8cba b9bc
00000240: 3058 91be ba4f 19be 1ab1 5c3e 9db7 f2ba
00000250: cebf 20be 28f1 77be c385 97be f7a6 88be
00000260: 345d 83bd 5495 313e a411 2f3e 5b26 9cbe
00000270: cafd 493e da63 7dbe a6ea 88bd 8d4c 03be
-0.0023675263 0.16963837 -0.26026973 -0.23272435 -0.1217965 0.08479881 -0.0062654912 0.25073364
-0.028063327 0.08367783 -0.095568165 -0.06215942 -0.30210772 -0.20943199 -0.13035639 0.01171422
0.12501597 0.18974385 -0.2143838 -0.13770543 0.10624795 0.25398022 -0.073691115 0.22802614
-0.059582014 0.024849953 0.27772516 -0.30196667 -0.2076882 -0.08866927 -0.123265564 0.27322105
-0.2049724 -0.14557004 -0.2209295 -0.2961666 -0.18459494 0.27182874 0.14110664 0.1532669
0.016630918 -0.16212475 0.05350089 -0.2952602 -0.22849551 -0.1630249 0.19952008 0.18541107
-0.14024544 -0.011410266 0.1978442 0.30997005 0.12110238 0.03831747 0.20762372 -0.19059831
0.05452451 -0.24957578 -0.22357574 -0.16776073 0.14065127 0.12474093 -0.18975158 0.09310116
0.17116694 -0.042346954 0.009640512 0.07083796 0.19374706 0.30120683 -0.25708318 -0.12927793
0.11089003 0.24861959 0.26179296 0.26563495 0.049543425 -0.28837693 0.015700106 -0.2112238
-0.29470977 0.280966 0.2404469 -0.31544605 0.05918899 -0.05327174 -0.05203882 -0.14475544
0.12160733 -0.18730281 0.115926355 0.15991893 0.22637847 0.11824107 -0.31298175 -0.20513597
0.15789726 0.066186905 -0.24668422 -0.1820901 0.29749104 0.2130799 -0.13788326 -0.07958971
-0.30123797 -0.0056839287 -0.23813814 -0.24392441 -0.017424017 0.047480047 -0.12549856 0.19164869
-0.18843076 0.29094064 0.22071704 -0.26266444 -0.07469809 0.018275002 0.05014393 0.079007134
0.12409672 0.018942088 -0.15429662 0.1496355 -0.30334112 -0.1874303 -0.07916126 -0.15403877
-0.110627025 -0.25918713 -0.07276205 0.062100116 -0.21150738 -0.021724235 0.2208761 -0.03800394
0.0032930388 -0.03277621 0.058502894 0.19557428 0.2997438 0.20102051 0.30042914 -0.02267196
-0.28387594 -0.1497182 0.21551934 -0.0018517856 -0.15698168 -0.24213088 -0.2959424 -0.26689884
-0.064142615 0.1734212 0.17096573 -0.30498013 0.19725719 -0.24745122 -0.06685381 -0.1282217

convs.0.apply_func.bias f4 [16]
00000000: 107d 79bd 1051 7ebd 9957 f4be 4ccc 8bbe
00000010: d8ae 4abd 8e62 1e3e 589b c7be 1710 933e
00000020: 2aba 91be 10d4 aebc b562 8e3e 635a b6be
00000030: 3934 923e 81de b7bd d40a f4be dae0 4c3e
-0.060910285 -0.062089026 -0.47723082 -0.27304304 -0.04948315 0.15467283 -0.38985705 0.28723213
-0.28462344 -0.021341354 0.27809682 -0.35615835 0.28555468 -0.08977986 -0.4766451 0.20007649

convs.1.apply_func.weight f4 [32, 16]
00000000: f053 ecbc 708f e4bd 2d7a ac3e 54df 4ebe
00000010: b0c2 db3c 14a3 04bd 4f88 293e 4b52 d13d
00000020: cc04 f63d 40d1 b43d 003f 76bd b9db 00be
00000030: 00f7 52be 9152 0a3e 3654 0e3f 5c29 2f3e
00000040: ac93 34be 60ae 363c 9076 34be 88ec 0cbe
00000050: 302c 15be 34f9 ae3d c48d 18be 00ba b2bb
00000060: a04f 2c3c 0406 253e fa83 41be 44bf 2fbe
00000070: 3ca6 14be d62e 333e cc0b b8bd e0ee 573e
00000080: a024 b93d 40aa 013d 558b 0d3e 086d 4abd
00000090: 407a 003d 409a 0ebd 895c 81bc 8cb4 8c3d
000000a0: 983e 48be 7a2d 06be d8b7 4e3e 6e33 91be
000000b0: 200f 93bc c69a 7e3e 03be e93e c0f0 e73b
000000c0: 26da 5dbe 2ca2 fd3d 0858 36be a856 91bd
000000d0: ccc8 abbd 38a4 17bd 8036 333b 9626 533e
000000e0: 80ab ff3c 204c 653e 3099 1c3e c6d8 21be
000000f0: 54a2 e53d 24f7 34be 9cff d8bd 4097 963d
00000100: f00e a93d f20e 403e b200 65be 00d4 d139
00000110: 7acb 033e 8b14 88be bd6d 433e 44be 79be
00000120: 00d0 613b e018 2ebd 0ad4 06be 4db5 d83d
00000130: f2b0 533e 335d 9bbd 1330 06bf 845b bdbd
00000140: e6bb 7dbe 1c1d e73d 9606 77be d0d6 2abe
00000150: 627b 13be 65ff f83d 5d6c 113e 8a0e 223e
00000160: d8b6 b93d c4fc aabd d413 8fbd 5554 103e
00000170: de70 523e 86b0 853d a3ec e8be fcad f0bd
00000180: 420a 72be b03b 5d3d 46d4 80be 503e 64be
00000190: fa7a 603e cf4c 27be 52e1 f33b 8402 583d
000001a0: e07d 023c fa41 2cbe 2cee 4ebe d4af 9c3e
000001b0: 30bf 263d a1ec 623e 27c7 eebe f8cf 963d
000001c0: 182a 6abd 6027 36bc 52ea 1bbe ac28 ad3d
000001d0: 80e0 a13d 40fd a8bb c04c 66bd 58ce 1dbe
000001e0: 1409 313e 9492 3ebe acbf d13d 6c29 acbd
000001f0: 0c06 f7bd e0f4 373d 22fb 04be 40ef 6b3d
00000200: 1018 493d ca13 3ebe 987e 2a3d 6413 da3d
00000210: 5caa ca3d 58e6 00bd 9add 51be 90da 1dbd
00000220: 50d2 b13d 2cd1 babd 7458 c23d 867c 2a3e
00000230: baab 05be 8093 213b 24b6 d33d 9084 a03c
00000240: 9012 ab3c 70b9 ff3c 7ac1 a4be e0f2 a03c
00000250: b445 313e c709 503e e53e 223e afa6 afba
00000260: 7c1c ef3d dc13 f9bd ec24 54be 13d4 11be
00000270: 5a63 7f3e 6740 203e 62c9 02bf f450 c83d
00000280: aa52 413e c2e6 7f3e 6db0 a53e 4456 463e
00000290: f0c2 6abd e3b7 84bd 29bf 473e 62ee 333e
000002a0: 300e 1abe fe25 663e 9060 f73d 9100 873d
000002b0: 6a74 20be b4be 9c3d 71ad 643e fc06 483e
000002c0: 5842 38bd f853 c73d 80e2 353d f8d6 d93d
000002d0: e0fd adbd f4a2 f93d fece 32be 8846 673d
000002e0: 2035 2dbe ba8d 7cbe 1095 4dbe b61a 4a3e
000002f0: 5081 0a3e e82e 703e 4816 4d3e a09e 64be
00000300: ceb3 2ebe e875 25bd 3241 26be f8c3 313e
00000310: ba89 41be 38ce f9bd c451 77be c657 11be
00000320: e28d 523e 429a 513e 2441 373e 22aa 453e
00000330: baa1 633e b01a 83bd f447 e13d 0414 643e
00000340: 1461 a93d caea 7f3e 4caa 653d 5824 1f3e
00000350: 2c32 b3bd 482e 023e b1c9 993d 346e 8dbd
00000360: 4a4f 10be 56a5 0fbe b2fc 44be a4b1 923e
00000370: 96ff 353e 3b02 a4bb 49bc f0be 22dd 453e
00000380: 8cb5 233e 703c 983c 977f 13bc b846 6b3e
00000390: ac60 d13d 4ce0 33be 0c74 823e 4dc4 423e
000003a0: 8c9e babd 5ce9 0f3e d674 11be 22f9 6abc
000003b0: b25e 593e 368d ab3c 96bc cc3d 9420 abbd
000003c0: dcfa 8abd 208f 45bd e108 22bf a2c1 6c3e
000003d0: 204d 5b3c f41a 1ebe 907a 993c c14a b83d
000003e0: fcf8 fd3d e0f7 69be b03c 37bd 1316 fdbd
000003f0: 8876 dabd e025 b53d 4d79 8abf fc52 be3d
-0.028848618 -0.11160171 0.33686963 -0.2020238 0.026826233 -0.032382086 0.16555904 0.10220774
0.12012634 0.08828974 -0.060118675 -0.12583818 -0.20602036 0.13508059 0.55597246 0.17105621
-0.17634457 0.011149973 -0.17623353 -0.13762105 -0.14567637 0.085436255 -0.1489783 -0.005454302
0.010517031 0.16115576 -0.18898001 -0.17162806 -0.14516538 0.17498335 -0.08986625 0.21087217
0.09040189 0.031656504 0.13822682 -0.049420387 0.031366587 -0.034815073 -0.015791195 0.06870374
-0.19555128 -0.13103285 0.20187318 -0.2835955 -0.017951548 0.24863729 0.4565278 0.00707826
-0.21665248 0.123844475 -0.17807019 -0.070966065 -0.08387908 -0.037021846 0.0027345717 0.20620188
0.031209707 0.2239232 0.15292811 -0.15805349 0.11212602 -0.17672402 -0.105956286 0.073530674
0.08254802 0.18755701 -0.22363546 0.0004002154 0.12870589 -0.26578173 0.1908483 -0.24388987
0.0034456253 -0.04250419 -0.13166824 0.105814554 0.20672968 -0.07586136 -0.52417105 -0.09245971
-0.24778709 0.11284849 -0.24123606 -0.16683507 -0.14402536 0.12158088 0.14201494 0.15825859
0.09068078 -0.083489925 -0.06986204 0.1409467 0.20550868 0.0652781 -0.4549304 -0.11751935
-0.23636726 0.054012 -0.25161952 -0.22289395 0.21921912 -0.16337894 0.0074426318 0.052736774
0.007964581 -0.16822043 -0.20208043 0.30602896 0.040709674 0.2216058 -0.46636316 0.07363886
-0.05716905 -0.011117786 -0.15226105 0.08455023 0.07904148 -0.005157143 -0.05622554 -0.15410745
0.1728862 -0.18610603 0.10241637 -0.08406338 -0.120617 0.044911265 -0.12986425 0.057601213
0.049095213 -0.18562236 0.041624635 0.1064823 0.09895775 -0.031469673 -0.2049469 -0.038538516
0.08682692 -0.091219276 0.09489527 0.16649064 -0.1305379 0.0024654567 0.10337475 0.01959446
0.020882875 0.031216353 -0.3217886 0.019647062 0.17311746 0.2031623 0.15844305 -0.0013401116
0.11675355 -0.12161991 -0.2071721 -0.14241056 0.24940243 0.15649568 -0.51088536 0.097810656
0.1887919 0.24990371 0.32361165 0.19368845 -0.057314813 -0.06480386 0.19506516 0.17571405
-0.15044475 0.2247543 0.12078965 0.06591905 -0.15669408 0.07653561 0.22331788 0.19533914
-0.044985145 0.09732813 0.04440546 0.10636705 -0.084956884 0.12189284 -0.17461774 0.05646375
-0.16914797 -0.2466344 -0.20076394 0.19736752 0.13525891 0.23455393 0.20028031 -0.22326136
-0.17060778 -0.040395647 -0.16235808 0.17359912 -0.18900195 -0.12197536 -0.24152285 -0.14193639
0.20561936 0.20469001 0.17895943 0.19303182 0.22229663 -0.064015746 0.11000052 0.2227326
0.08270469 0.24991909 0.05607061 0.15541208 -0.08749804 0.12712967 0.07509173 -0.06905785
-0.14092746 -0.14027914 -0.1923702 0.28651154 0.1777328 -0.0050051487 -0.4701865 0.19322637
0.15987223 0.018583506 -0.009002588 0.22976196 0.10223517 -0.17566031 0.25479162 0.19020195
-0.09112272 0.14053863 -0.14204726 -0.014341624 0.2122753 0.020941358 0.099969074 -0.08355823
-0.06786129 -0.048232198 -0.632948 0.2312074 0.013385087 -0.1543997 0.0187352 0.08998633
0.124010056 -0.22848463 -0.04473561 -0.12357726 -0.10667139 0.08845115 -1.0818268 0.09293172

convs.1.apply_func.bias f4 [32]
00000000: 00c1 8f3e cc27 993d 4357 8e3e 0aeb 1dbe
00000010: 5792 d239 be48 b93d f1f5 14be cc1d 6fbe
00000020: 9cb5 333e 7f87 b0be 4e7b 583e 30ce 143d
00000030: 7ca2 efbd 5deb 99bd 2dfb 24be b03c df3e
00000040: e54b 27bd 3075 ddbc 7358 f0bd 2b22 c73e
00000050: 8dc7 8ebe fd48 c73e 2815 02bd bc29 f3bd
00000060: baec 5ebe 7ce2 6abe daf8 c83e 691a a63d
00000070: 8a40 343e 3ccf 8a3d a06f 19bd 758c fdbc
0.28076935 0.07478294 0.2780095 -0.15421692 0.00040163353 0.090470776 -0.14546944 -0.2335121
0.17549747 -0.34478375 0.21140787 0.03632945 -0.11700913 -0.07515595 -0.16111441 0.43600988
-0.040843863 -0.027033418 -0.1173562 0.38893256 -0.2788662 0.38922873 -0.031758457 -0.118731946
-0.21769992 -0.2293796 0.3925236 0.08110506 0.17602745 0.06777808 -0.03745997 -0.030950764

convs.2.apply_func.weight f4 [16, 32]
00000000: 4fcf 123e 3a1d 06be c804 e8bc 5e3b d6bd
00000010: f7d9 cebd 98c1 2b3d d7e9 293e eb03 11be
00000020: 7e1b db3d 7bb4 bbbd 1808 0dbd 19b0 0f3e
00000030: c8c3 23bd e0dc 833c aa13 fdbd 4f17 1a3e
00000040: e833 bbbc 5465 04be 7004 543d 38b5 00be
00000050: e2a3 0fbe d070 303c 1f85 0f3e fce6 4cbd
00000060: 4e66 aa3d c38d 1b3e 4a20 f03d 50e9 bdbd
00000070: 18bf 9ebc 2edb 63bd d28f 11be 0030 9938
00000080: 02c0 863d f982 183e 949f 89be 6474 243d
00000090: d91a 363e afa2 3c3e b65a 513e be7d fbbd
000000a0: a001 df3c efca 753e 88ff 2abe b7a2 233e
000000b0: 903c 823d de9c b33c b7fb 083b 76e3 c83f
000000c0: e081 a5bd 9ca1 53bd fd29 f53d 803e 66be
000000d0: e3de 163e e02a 013c d289 e03d 14d1 e6bd
000000e0: a14b 343e 439a d6bd 4338 163e d7b8 55be
000000f0: b488 2abe e25c de3d 4a74 133e 79a7 2a3d
00000100: 617b c8bd c8dd 97bd 0cb6 53bd 4a57 30be
00000110: 7084 163c 3c0f 003d 00f0 1cb9 98d3 693d
00000120: a7c2 2b3e 4885 403d 4988 84bd eefe 94bd
00000130: 65a2 e7bd d6f8 fabd a039 e9bc 7810 00bd
00000140: b20e a13d a8bf 9abd 2d4f 103e 0d09 febd
00000150: 00b6 033a cdb8 223e c100 343e 20b7 d1bd
00000160: a8fa 003d 580f ab3c 10be a9bd 3e2a 7abd
00000170: 881e 443d c4bf fbbd 70f0 ee3c bea9 9c3d
00000180: 96ad 2dbe b35c 163e aa1f bdbe f642 a43d
00000190: de4b f83e 25ac 213c 3831 db3e 781b 4fbd
000001a0: 4889 d3bc f78b 0c3e 35dc b9bc 4bc4 88bd
000001b0: d8b6 293d c96f 383e da43 183e e921 d03f
000001c0: 1729 633d c5ac 86bd a0e1 80bd b8cf e4bc
000001d0: 03ee 993d 70c7 3cbe 6cd0 74bd 985c 3d3d
000001e0: e8ec 02bd 6295 ec3d 5352 21bd 87ef 433b
000001f0: 45b6 6e3d 08aa 31bd 15b2 673e 2ef2 223e
00000200: eb04 ac3d 60b2 0d3d 21b3 a23e eea9 fa3d
00000210: 82f1 7bbe ebde b4bd 38d5 01be 2f8b 1dbe
00000220: 80bd 393b cd6a 29be 4e51 163e 3c89 28be
00000230: 0e84 db3d f381 a23d c1a7 8b3c 7de5 bebf
00000240: 429d e93d d3b7 9abd a7cb 85bc 6481 273c
00000250: 4019 70bd c266 093e e06a c13c 94c2 08bd
00000260: 90fd 34be 904d 143c 2253 343d 27b1 a03d
00000270: 9a4b 383e d7f3 2f3e 1d21 32be 0eba 25bc
00000280: 132d 06be efd5 26be 1cfa c7be cfe5 293e
00000290: d125 ad3e 2014 153e a039 b43e e9d0 0fbe
000002a0: 8815 983c 4f91 943e af1f d3bd a508 213e
000002b0: bc50 3e3d 42a8 853e 0706 17bd c630 9f3f
000002c0: 3cd5 d7bd 10e7 37bc 384a f43d 1bc7 16bc
000002d0: 8a7a 473e 3c09 c63d 01af 243e e611 f33d
000002e0: 2289 fe3d e0da babc 7c0e 26be 5732 ccbd
000002f0: 9716 c1bc 0da4 c3bd 3eeb 553e 0bfd be3d
00000300: 98a9 e93c 9ce8 2e3d 5104 1f3e a8dd 833d
00000310: 34be 1ebe 0166 03be 8291 9f3d 785a c53c
00000320: 2e90 b03d a1c9 34be a40e 27be fe02 de3d
00000330: 9293 e73d 2bc5 23be ae6c 893d 1059 0dbe
00000340: 5d16 093e 6435 633d 53fd 323e ce7b 32be
00000350: 5443 2ebe 6ac6 f43d 91b6 203e 56d0 dd3d
00000360: b2b1 f03d a777 18be 3706 033e ace8 2abe
00000370: 94c2 213d de25 edbd d4cc 8fbd 2836 003d
00000380: ac58 8ebd 9821 e5bc 1593 2bbe a4ad 2abe
00000390: 8c3d 8c3d 403e 99bd b442 dcbd a2da 8ebd
000003a0: e7fe 13be f7b4 10be 4aa2 d83d da00 b83d
000003b0: 38e6 c03c 61c4 c5bd b8e6 703d 101e 023c
000003c0: 9e5e 01be 68d0 1b3d 79d3 243e 400d 32be
000003d0: 1401 34be 788b b93c c54f 083e fc4b dcbd
000003e0: 7465 1f3d 0282 fe3d b03e 5f3d b8b2 1c3d
000003f0: 919b 343e badb eb3d ce9e cbbd d058 7a3c
0.14336894 -0.13097087 -0.028322592 -0.10460542 -0.10100167 0.041932672 0.16593109 -0.14161651
0.10698603 -0.09165283 -0.034431547 0.1403202 -0.039981633 0.016096532 -0.12357266 0.15047954
-0.0228519 -0.12929279 0.051762044 -0.1256913 -0.1402736 0.010769084 0.14015625 -0.05002497
0.08320294 0.15190797 0.11724909 -0.092730165 -0.01937823 -0.055628948 -0.1421502 7.304549e-05
0.06579591 0.14893712 -0.2687956 0.04015006 0.17783679 0.18421434 0.2044476 -0.12279843
0.027222455 0.24003194 -0.1669904 0.1598004 0.06359208 0.021925386 0.0020901987 1.5694416
-0.08081412 -0.051667795 0.11970899 -0.2248478 0.14733462 0.007883757 0.10963787 -0.11270347
0.17606975 -0.10478642 0.146699 -0.20871292 -0.1665371 0.1085756 0.1439983 0.04166362
-0.09789158 -0.07415348 -0.051687285 -0.17220798 0.009186849 0.03126453 -0.00014966726 0.057086557
0.16773473 0.047002107 -0.06471307 -0.072751865 -0.11310271 -0.12254493 -0.02846986 -0.031265706
0.07864131 -0.07556087 0.14092703 -0.1240407 0.00050243735 0.15890808 0.17578413 -0.102400064
0.031489044 0.02088134 -0.08288205 -0.06107544 0.04788068 -0.12292436 0.029167384 0.07649563
-0.16960749 0.146838 -0.3693822 0.08020584 0.48495382 0.009867703 0.42810988 -0.050563306
-0.025822297 0.13725267 -0.02268801 -0.06678065 0.04143414 0.18011393 0.14869633 1.6260349
0.05545911 -0.06575922 -0.062930346 -0.02793108 0.075161 -0.18435454 -0.05976908 0.046230882
-0.031964213 0.1155193 -0.03938515 0.0029897408 0.058279295 -0.043375045 0.22626527 0.15912697
0.083993755 0.03459394 0.3177729 0.12239443 -0.24603847 -0.08831581 -0.12678993 -0.15385126
0.002834171 -0.16544648 0.14679453 -0.16458601 0.10718547 0.07934942 0.017047765 -1.4913784
0.11406948 -0.07554593 -0.01633246 0.01022372 -0.05861783 0.13418105 0.023610532 -0.03338869
-0.17674851 0.0090516955 0.044024594 0.07846289 0.1799759 0.17182861 -0.17395444 -0.01011516
-0.13103132 -0.16292547 -0.39058006 0.16591571 0.33817914 0.14558458 0.35200214 -0.14044537
0.018564954 0.29017112 -0.103087775 0.15725954 0.046463713 0.26104933 -0.036870982 1.243676
-0.10538718 -0.011224523 0.119282186 -0.009202744 0.19480339 0.0966973 0.16082384 0.11868648
0.124285 -0.022809446 -0.16216463 -0.09970539 -0.023570342 -0.095527746 0.20890519 0.09325608
0.028523251 0.042702302 0.1552899 0.06438762 -0.15502244 -0.1283188 0.07791425 0.02409099
0.0862125 -0.1765504 -0.16314179 0.108404145 0.11307444 -0.15993182 0.06710182 -0.13803506
0.13387437 0.05547084 0.17479448 -0.1743004 -0.17017871 0.11951907 0.15694644 0.108307526
0.11752643 -0.14889394 0.1279534 -0.1669032 0.039492205 -0.11579488 -0.0702149 0.031301647
-0.069505066 -0.02797012 -0.16755326 -0.16667801 0.06847677 -0.07482576 -0.1075491 -0.06975295
-0.14452706 -0.14131533 0.10577829 0.089845374 0.023547277 -0.09656597 0.05881378 0.007941738
-0.1263375 0.03804055 0.16096295 -0.17387867 -0.17578536 0.022649512 0.1331168 -0.1075668
0.038915113 0.12427141 0.054503143 0.038256377 0.17637469 0.11516519 -0.09942399 0.015279964

convs.2.apply_func.bias f4 [16]
00000000: ddb9 8ebd d23f 63bf 8a6c b43d 4e94 89bf
00000010: 054c 6e3f 8c85 37bf 2634 e43d 103c 1dbe
00000020: 5b63 16be 229a a23d 0469 823d 00a0 193f
00000030: f1e4 c9bd f4ac 23be b8af 01be a4a6 afbd
-0.06969044 -0.8876926 0.08809765 -1.0748384 0.93084747 -0.7168815 0.11142759 -0.15354943
-0.14686339 0.07939555 0.063676864 0.60009766 -0.0985812 -0.15983945 -0.12664688 -0.08576706

classify.weight f4 [2, 16]
00000000: 90d9 533e 3641 41bf ae08 133e bcd2 c9be
00000010: d26a 4a3f 127b 68bf 34d3 003e 644b c33d
00000020: b26a 463e f486 7cbe b071 1d3e e986 df3e
00000030: 622c 6ebe 412b 0a3d 528a 5a3e 960a 34be
00000040: 40ff a73d a8cb 503f ac30 863d 4e53 613f
00000050: 79b2 f1be a918 663f d046 ffbc deb5 563e
00000060: d491 6ebe 2625 0abe a803 5bbd ddc6 9cbe
00000070: 4277 6c3e 10fa e13d eed0 243e ecfb 273e
0.20688462 -0.7549013 0.1435878 -0.3941859 0.79069245 -0.9081279 0.12580568 0.09535864
0.19376639 -0.24660856 0.153754 0.43657616 -0.23259118 0.033732656 0.21341828 -0.17582163
0.08202982 0.81560755 0.06552252 0.8801774 -0.47206476 0.8988138 -0.031161696 0.20967814
-0.23297817 -0.13490734 -0.053470284 -0.3062047 0.23092368 0.11034024 0.16095325 0.16404694

classify.bias f4 [2]
00000000: 2e25 ef3e 18cb 2ebf
0.46708053 -0.68278646

exp_avg f4 [16, 10]
00000000: 0000 0000 0000 0000 0000 0000 0000 0000
00000010: 0000 0000 0000 0000 0000 0000 0000 0000
00000020: 0000 0000 0000 0000 0000 0000 0000 0000
00000030: 0000 0000 0000 0000 0000 0000 0000 0000
00000040: 0000 0000 0000 0000 0000 0000 0000 0000
00000050: fc12 acbd fc12 acbd fc12 acbd fc12 acbd
00000060: fc12 acbd fc12 acbd fc12 acbd fc12 acbd
00000070: fc12 acbd fc12 acbd 0000 0000 0000 0000
00000080: 0000 0000 0000 0000 0000 0000 0000 0000
00000090: 0000 0000 0000 0000 0000 0000 0000 0000
000000a0: 0000 0000 0000 0000 0000 0000 0000 0000
000000b0: 0000 0000 0000 0000 0000 0000 0000 0000
000000c0: 0000 0000 0000 0000 6e67 d5bc 6e67 d5bc
000000d0: 6e67 d5bc 6e67 d5bc 6e67 d5bc 6e67 d5bc
000000e0: 6e67 d5bc 6e67 d5bc 6e67 d5bc 6e67 d5bc
000000f0: 3d2b 193a 3d2b 193a 3d2b 193a 3d2b 193a
00000100: 3d2b 193a 3d2b 193a 3d2b 193a 3d2b 193a
00000110: 3d2b 193a 3d2b 193a a4d4 b03c a4d4 b03c
00000120: a4d4 b03c a4d4 b03c a4d4 b03c a4d4 b03c
00000130: a4d4 b03c a4d4 b03c a4d4 b03c a4d4 b03c
00000140: 0000 0000 0000 0000 0000 0000 0000 0000
00000150: 0000 0000 0000 0000 0000 0000 0000 0000
00000160: 0000 0000 0000 0000 0000 0000 0000 0000
00000170: 0000 0000 0000 0000 0000 0000 0000 0000
00000180: 0000 0000 0000 0000 0000 0000 0000 0000
00000190: 0000 0000 0000 0000 0000 0000 0000 0000
000001a0: 0000 0000 0000 0000 0000 0000 0000 0000
000001b0: 0000 0000 0000 0000 35da 19bd 35da 19bd
000001c0: 35da 19bd 35da 19bd 35da 19bd 35da 19bd
000001d0: 35da 19bd 35da 19bd 35da 19bd 35da 19bd
000001e0: 0000 0000 0000 0000 0000 0000 0000 0000
000001f0: 0000 0000 0000 0000 0000 0000 0000 0000
00000200: 0000 0000 0000 0000 b851 4d3c b851 4d3c
00000210: b851 4d3c b851 4d3c b851 4d3c b851 4d3c
00000220: b851 4d3c b851 4d3c b851 4d3c b851 4d3c
00000230: bf4b 30be bf4b 30be bf4b 30be bf4b 30be
00000240: bf4b 30be bf4b 30be bf4b 30be bf4b 30be
00000250: bf4b 30be bf4b 30be 0000 0000 0000 0000
00000260: 0000 0000 0000 0000 0000 0000 0000 0000
00000270: 0000 0000 0000 0000 0000 0000 0000 0000
0.0 0.0 0.0 0.0 0.0 0.0 0.0 0.0
0.0 0.0 0.0 0.0 0.0 0.0 0.0 0.0
0.0 0.0 0.0 0.0 -0.084020585 -0.084020585 -0.084020585 -0.084020585
-0.084020585 -0.084020585 -0.084020585 -0.084020585 -0.084020585 -0.084020585 0.0 0.0
0.0 0.0 0.0 0.0 0.0 0.0 0.0 0.0
0.0 0.0 0.0 0.0 0.0 0.0 0.0 0.0
0.0 0.0 -0.026050296 -0.026050296 -0.026050296 -0.026050296 -0.026050296 -0.026050296
-0.026050296 -0.026050296 -0.026050296 -0.026050296 0.000584293 0.000584293 0.000584293 0.000584293
0.000584293 0.000584293 0.000584293 0.000584293 0.000584293 0.000584293 0.02158577 0.02158577
0.02158577 0.02158577 0.02158577 0.02158577 0.02158577 0.02158577 0.02158577 0.02158577
0.0 0.0 0.0 0.0 0.0 0.0 0.0 0.0
0.0 0.0 0.0 0.0 0.0 0.0 0.0 0.0
0.0 0.0 0.0 0.0 0.0 0.0 0.0 0.0
0.0 0.0 0.0 0.0 0.0 0.0 -0.037561614 -0.037561614
-0.037561614 -0.037561614 -0.037561614 -0.037561614 -0.037561614 -0.037561614 -0.037561614 -0.037561614
0.0 0.0 0.0 0.0 0.0 0.0 0.0 0.0
0.0 0.0 0.01253169 0.01253169 0.01253169 0.01253169 0.01253169 0.01253169
0.01253169 0.01253169 0.01253169 0.01253169 -0.17216395 -0.17216395 -0.17216395 -0.17216395
-0.17216395 -0.17216395 -0.17216395 -0.17216395 -0.17216395 -0.17216395 0.0 0.0
0.0 0.0 0.0 0.0 0.0 0.0 0.0 0.0

exp_avg_sq f4 [16, 10]
00000000: 0000 0000 0000 0000 0000 0000 0000 0000
00000010: 0000 0000 0000 0000 0000 0000 0000 0000
00000020: 0000 0000 0000 0000 0000 0000 0000 0000
00000030: 0000 0000 0000 0000 0000 0000 0000 0000
00000040: 0000 0000 0000 0000 0000 0000 0000 0000
00000050: 6c40 c441 6c40 c441 6c40 c441 6c40 c441
00000060: 6c40 c441 6c40 c441 6c40 c441 6c40 c441
00000070: 6c40 c441 6c40 c441 0000 0000 0000 0000
00000080: 0000 0000 0000 0000 0000 0000 0000 0000
00000090: 0000 0000 0000 0000 0000 0000 0000 0000
000000a0: 0000 0000 0000 0000 0000 0000 0000 0000
000000b0: 0000 0000 0000 0000 0000 0000 0000 0000
000000c0: 0000 0000 0000 0000 bca9 c13f bca9 c13f
000000d0: bca9 c13f bca9 c13f bca9 c13f bca9 c13f
000000e0: bca9 c13f bca9 c13f bca9 c13f bca9 c13f
000000f0: c5a4 853f c5a4 853f c5a4 853f c5a4 853f
00000100: c5a4 853f c5a4 853f c5a4 853f c5a4 853f
00000110: c5a4 853f c5a4 853f 9919 a13f 9919 a13f
00000120: 9919 a13f 9919 a13f 9919 a13f 9919 a13f
00000130: 9919 a13f 9919 a13f 9919 a13f 9919 a13f
00000140: 0000 0000 0000 0000 0000 0000 0000 0000
00000150: 0000 0000 0000 0000 0000 0000 0000 0000
00000160: 0000 0000 0000 0000 0000 0000 0000 0000
00000170: 0000 0000 0000 0000 0000 0000 0000 0000
00000180: 0000 0000 0000 0000 0000 0000 0000 0000
00000190: 0000 0000 0000 0000 0000 0000 0000 0000
000001a0: 0000 0000 0000 0000 0000 0000 0000 0000
000001b0: 0000 0000 0000 0000 3095 a440 3095 a440
000001c0: 3095 a440 3095 a440 3095 a440 3095 a440
000001d0: 3095 a440 3095 a440 3095 a440 3095 a440
000001e0: 0000 0000 0000 0000 0000 0000 0000 0000
000001f0: 0000 0000 0000 0000 0000 0000 0000 0000
00000200: 0000 0000 0000 0000 f7b2 153f f7b2 153f
00000210: f7b2 153f f7b2 153f f7b2 153f f7b2 153f
00000220: f7b2 153f f7b2 153f f7b2 153f f7b2 153f
00000230: 8a19 fb42 8a19 fb42 8a19 fb42 8a19 fb42
00000240: 8a19 fb42 8a19 fb42 8a19 fb42 8a19 fb42
00000250: 8a19 fb42 8a19 fb42 0000 0000 0000 0000
00000260: 0000 0000 0000 0000 0000 0000 0000 0000
00000270: 0000 0000 0000 0000 0000 0000 0000 0000
0.0 0.0 0.0 0.0 0.0 0.0 0.0 0.0
0.0 0.0 0.0 0.0 0.0 0.0 0.0 0.0
0.0 0.0 0.0 0.0 24.531456 24.531456 24.531456 24.531456
24.531456 24.531456 24.531456 24.531456 24.531456 24.531456 0.0 0.0
0.0 0.0 0.0 0.0 0.0 0.0 0.0 0.0
0.0 0.0 0.0 0.0 0.0 0.0 0.0 0.0
0.0 0.0 1.5129924 1.5129924 1.5129924 1.5129924 1.5129924 1.5129924
1.5129924 1.5129924 1.5129924 1.5129924 1.0440909 1.0440909 1.0440909 1.0440909
1.0440909 1.0440909 1.0440909 1.0440909 1.0440909 1.0440909 1.2585937 1.2585937
1.2585937 1.2585937 1.2585937 1.2585937 1.2585937 1.2585937 1.2585937 1.2585937
0.0 0.0 0.0 0.0 0.0 0.0 0.0 0.0
0.0 0.0 0.0 0.0 0.0 0.0 0.0 0.0
0.0 0.0 0.0 0.0 0.0 0.0 0.0 0.0
0.0 0.0 0.0 0.0 0.0 0.0 5.1432114 5.1432114
5.1432114 5.1432114 5.1432114 5.1432114 5.1432114 5.1432114 5.1432114 5.1432114
0.0 0.0 0.0 0.0 0.0 0.0 0.0 0.0
0.0 0.0 0.58476204 0.58476204 0.58476204 0.58476204 0.58476204 0.58476204
0.58476204 0.58476204 0.58476204 0.58476204 125.54988 125.54988 125.54988 125.54988
125.54988 125.54988 125.54988 125.54988 125.54988 125.54988 0.0 0.0
0.0 0.0 0.0 0.0 0.0 0.0 0.0 0.0

exp_avg f4 [16]
00000000: 0000 0000 0000 0000 e207 33bd 0000 0000
00000010: 0000 0000 0def 88bc 4920 283c 072e b1bb
00000020: 0000 0000 0000 0000 0000 0000 d01d 4a3c
00000030: 0000 0000 5f15 153c a1db cdbd 0000 0000
0.0 0.0 -0.04370869 0.0 0.0 -0.01671555 0.010261604 -0.005407098
0.0 0.0 0.0 0.012336209 0.0 0.009099334 -0.100516565 0.0

exp_avg_sq f4 [16]
00000000: 0000 0000 0000 0000 18a4 d33f 0000 0000
00000010: 0000 0000 db42 053e 811c a03d 6850 ab3d
00000020: 0000 0000 0000 0000 0000 0000 154d b23e
00000030: 0000 0000 3403 4c3d ae99 0641 0000 0000
0.0 0.0 1.6534452 0.0 0.0 0.13013785 0.07817937 0.08364946
0.0 0.0 0.0 0.34824434 0.0 0.049807742 8.412519 0.0

exp_avg f4 [32, 16]
00000000: 0000 0000 0000 0000 2622 003b 0000 0000
00000010: 0000 0000 daf5 7dba df6d 823b 6fce f8ba
00000020: 0000 0000 0000 0000 0000 0000 566c 363b
00000030: 0000 0000 0450 5c3a 7401 ff3a 0000 0000
00000040: 0000 0000 0000 0000 0000 0000 0000 0000
00000050: 0000 0000 0000 0000 0000 0000 0000 0000
00000060: 0000 0000 0000 0000 0000 0000 0000 0000
00000070: 0000 0000 0000 0000 0000 0000 0000 0000
00000080: 0000 0000 0000 0000 5b63 023c 0000 0000
00000090: 0000 0000 e00a 4abb fb4f a23c b7a4 dcbb
000000a0: 0000 0000 0000 0000 0000 0000 f424 3d3c
000000b0: 0000 0000 a4e1 843b e7c0 013c 0000 0000
000000c0: 0000 0000 0000 0000 0000 0000 0000 0000
000000d0: 0000 0000 0000 0000 0000 0000 0000 0000
000000e0: 0000 0000 0000 0000 0000 0000 0000 0000
000000f0: 0000 0000 0000 0000 0000 0000 0000 0000
00000100: 0000 0000 0000 0000 2dc8 e8bb 0000 0000
00000110: 0000 0000 51c5 3e3b 594b 8bbc 7dfa ca3b
00000120: 0000 0000 0000 0000 0000 0000 3a1d 28bc
00000130: 0000 0000 1d30 65bb 3ba7 e7bb 0000 0000
00000140: 0000 0000 0000 0000 d170 23bb 0000 0000
00000150: 0000 0000 ea28 4d3a 24bd e4bb 07c6 f83a
00000160: 0000 0000 0000 0000 0000 0000 bc12 70bb
00000170: 0000 0000 595a b8ba 39a7 22bb 0000 0000
00000180: 0000 0000 0000 0000 8ed0 cfbb 0000 0000
00000190: 0000 0000 5f1a 90b9 b760 ddbc 30b5 163b
000001a0: 0000 0000 0000 0000 0000 0000 69c9 21bc
000001b0: 0000 0000 f2a9 a8bb fa92 cebb 0000 0000
000001c0: 0000 0000 0000 0000 0000 0000 0000 0000
000001d0: 0000 0000 0000 0000 0000 0000 0000 0000
000001e0: 0000 0000 0000 0000 0000 0000 0000 0000
000001f0: 0000 0000 0000 0000 0000 0000 0000 0000
00000200: 0000 0000 0000 0000 0000 0000 0000 0000
00000210: 0000 0000 0000 0000 0000 0000 0000 0000
00000220: 0000 0000 0000 0000 0000 0000 0000 0000
00000230: 0000 0000 0000 0000 0000 0000 0000 0000
00000240: 0000 0000 0000 0000 bdce a2bb 0000 0000
00000250: 0000 0000 eac8 e93a 486b 54bc de66 843b
00000260: 0000 0000 0000 0000 0000 0000 5052 edbb
00000270: 0000 0000 d4ca 2cbb 1b05 a2bb 0000 0000
00000280: 0000 0000 0000 0000 ab55 263b 0000 0000
00000290: 0000 0000 5539 59ba 4174 e43b e90b 01bb
000002a0: 0000 0000 0000 0000 0000 0000 b6ea 733b
000002b0: 0000 0000 7ea6 b83a 3985 253b 0000 0000
000002c0: 0000 0000 0000 0000 0000 0000 0000 0000
000002d0: 0000 0000 0000 0000 0000 0000 0000 0000
000002e0: 0000 0000 0000 0000 0000 0000 0000 0000
000002f0: 0000 0000 0000 0000 0000 0000 0000 0000
00000300: 0000 0000 0000 0000 0000 0000 0000 0000
00000310: 0000 0000 0000 0000 0000 0000 0000 0000
00000320: 0000 0000 0000 0000 0000 0000 0000 0000
00000330: 0000 0000 0000 0000 0000 0000 0000 0000
00000340: 0000 0000 0000 0000 cd6a 0abb 0000 0000
00000350: 0000 0000 7e86 573a a468 abbb d7b3 ea3a
00000360: 0000 0000 0000 0000 0000 0000 ab71 48bb
00000370: 0000 0000 8f4d 8cba 29bf 09bb 0000 0000
00000380: 0000 0000 0000 0000 3bd8 2fb9 0000 0000
00000390: 0000 0000 3c72 0139 1d57 32b9 211a 5c39
000003a0: 0000 0000 0000 0000 0000 0000 af34 6fb9
000003b0: 0000 0000 2c89 2cb8 ee24 2fb9 0000 0000
000003c0: 0000 0000 0000 0000 9a7b d33a 0000 0000
000003d0: 0000 0000 2eac fc3c c111 093e 17cf 1f3d
000003e0: 0000 0000 0000 0000 0000 0000 374b d13b
000003f0: 0000 0000 23c8 cd3c c5f6 c83a 0000 0000
0.0 0.0 0.0019551604 0.0 0.0 -0.0009687819 0.003980383 -0.001898242
0.0 0.0 0.0 0.002783557 0.0 0.0008404257 0.0019455389 0.0
0.0 0.0 0.0 0.0 0.0 0.0 0.0 0.0
0.0 0.0 0.0 0.0 0.0 0.0 0.0 0.0
0.0 0.0 0.0079582585 0.0 0.0 -0.0030829236 0.019813528 -0.0067335027
0.0 0.0 0.0 0.011544455 0.0 0.004055219 0.007919527 0.0
0.0 0.0 0.0 0.0 0.0 0.0 0.0 0.0
0.0 0.0 0.0 0.0 0.0 0.0 0.0 0.0
0.0 0.0 -0.007103941 0.0 0.0 0.002910931 -0.017003702 0.0061944113
0.0 0.0 0.0 -0.010260874 0.0 -0.0034971305 -0.007069496 0.0
0.0 0.0 -0.002493907 0.0 0.0 0.0007826226 -0.006980555 0.0018979915
0.0 0.0 0.0 -0.003663226 0.0 -0.0014065012 -0.002481891 0.0
0.0 0.0 -0.0063420003 0.0 0.0 -0.00027485468 -0.027023656 0.002299618
0.0 0.0 0.0 -0.00987468 0.0 -0.005147212 -0.006304142 0.0
0.0 0.0 0.0 0.0 0.0 0.0 0.0 0.0
0.0 0.0 0.0 0.0 0.0 0.0 0.0 0.0
0.0 0.0 0.0 0.0 0.0 0.0 0.0 0.0
0.0 0.0 0.0 0.0 0.0 0.0 0.0 0.0
0.0 0.0 -0.004968493 0.0 0.0 0.0017836366 -0.012965031 0.004040583
0.0 0.0 0.0 -0.0072424784 0.0 -0.0026366012 -0.0049444563 0.0
0.0 0.0 0.0025380652 0.0 0.0 -0.0008286436 0.0069718664 -0.0019690937
0.0 0.0 0.0 0.0037218756 0.0 0.0014087704 0.002525641 0.0
0.0 0.0 0.0 0.0 0.0 0.0 0.0 0.0
0.0 0.0 0.0 0.0 0.0 0.0 0.0 0.0
0.0 0.0 0.0 0.0 0.0 0.0 0.0 0.0
0.0 0.0 0.0 0.0 0.0 0.0 0.0 0.0
0.0 0.0 -0.0021120787 0.0 0.0 0.000822164 -0.00523098 0.001790638
0.0 0.0 0.0 -0.003058533 0.0 -0.0010704267 -0.0021018481 0.0
0.0 0.0 -0.00016769853 0.0 0.0 0.00012344954 -0.00017007855 0.00020990569
0.0 0.0 0.0 -0.00022812442 0.0 -4.1135747e-05 -0.00016703058 0.0
0.0 0.0 0.0016134859 0.0 0.0 0.03084382 0.13385679 0.039015856
0.0 0.0 0.0 0.00638714 0.0 0.025119847 0.0015332332 0.0

exp_avg_sq f4 [32, 16]
00000000: 0000 0000 0000 0000 9a04 183a 0000 0000
00000010: 0000 0000 af82 6a3c acda c83e 76df 943c
00000020: 0000 0000 0000 0000 0000 0000 0262 bf3b
00000030: 0000 0000 70bc 823c b45f 1a3a 0000 0000
00000040: 0000 0000 0000 0000 0000 0000 0000 0000
00000050: 0000 0000 0000 0000 0000 0000 0000 0000
00000060: 0000 0000 0000 0000 0000 0000 0000 0000
00000070: 0000 0000 0000 0000 0000 0000 0000 0000
00000080: 0000 0000 0000 0000 ae96 133c 0000 0000
00000090: 0000 0000 c1f7 643e 74a4 c240 5d80 903e
000000a0: 0000 0000 0000 0000 0000 0000 64dc b83d
000000b0: 0000 0000 8242 7b3e 86a0 153c 0000 0000
000000c0: 0000 0000 0000 0000 0000 0000 0000 0000
000000d0: 0000 0000 0000 0000 0000 0000 0000 0000
000000e0: 0000 0000 0000 0000 0000 0000 0000 0000
000000f0: 0000 0000 0000 0000 0000 0000 0000 0000
00000100: 0000 0000 0000 0000 7156 f33b 0000 0000
00000110: 0000 0000 6659 3d3e b4a2 a040 7eb1 6e3e
00000120: 0000 0000 0000 0000 0000 0000 799e 983d
00000130: 0000 0000 432c 4f3e c7f0 f63b 0000 0000
00000140: 0000 0000 0000 0000 98e1 643a 0000 0000
00000150: 0000 0000 3c96 ad3c e86a 153f 4a70 dc3c
00000160: 0000 0000 0000 0000 0000 0000 3178 0f3c
00000170: 0000 0000 12fc c23c 7260 673a 0000 0000
00000180: 0000 0000 0000 0000 24b3 b13b 0000 0000
00000190: 0000 0000 c53d 0b3e 3779 6c40 5a98 2f3e
000001a0: 0000 0000 0000 0000 0000 0000 0c94 603d
000001b0: 0000 0000 4cee 183e 0a03 b53b 0000 0000
000001c0: 0000 0000 0000 0000 0000 0000 0000 0000
000001d0: 0000 0000 0000 0000 0000 0000 0000 0000
000001e0: 0000 0000 0000 0000 0000 0000 0000 0000
000001f0: 0000 0000 0000 0000 0000 0000 0000 0000
00000200: 0000 0000 0000 0000 0000 0000 0000 0000
00000210: 0000 0000 0000 0000 0000 0000 0000 0000
00000220: 0000 0000 0000 0000 0000 0000 0000 0000
00000230: 0000 0000 0000 0000 0000 0000 0000 0000
00000240: 0000 0000 0000 0000 d4da 663b 0000 0000
00000250: 0000 0000 e4d4 af3d e634 1740 a31e df3d
00000260: 0000 0000 0000 0000 0000 0000 77cf 103d
00000270: 0000 0000 171f c53d 1992 693b 0000 0000
00000280: 0000 0000 0000 0000 010b 6d3a 0000 0000
00000290: 0000 0000 775c b63c 6ff1 1b3f 496e e73c
000002a0: 0000 0000 0000 0000 0000 0000 d9b1 143c
000002b0: 0000 0000 bea5 ca3c 626d 703a 0000 0000
000002c0: 0000 0000 0000 0000 0000 0000 0000 0000
000002d0: 0000 0000 0000 0000 0000 0000 0000 0000
000002e0: 0000 0000 0000 0000 0000 0000 0000 0000
000002f0: 0000 0000 0000 0000 0000 0000 0000 0000
00000300: 0000 0000 0000 0000 0000 0000 0000 0000
00000310: 0000 0000 0000 0000 0000 0000 0000 0000
00000320: 0000 0000 0000 0000 0000 0000 0000 0000
00000330: 0000 0000 0000 0000 0000 0000 0000 0000
00000340: 0000 0000 0000 0000 720b 2a3a 0000 0000
00000350: 0000 0000 11da 833c 65ab df3e dae9 a53c
00000360: 0000 0000 0000 0000 0000 0000 42c0 d43b
00000370: 0000 0000 2207 903c 023c 2c3a 0000 0000
00000380: 0000 0000 0000 0000 a2a0 d836 0000 0000
00000390: 0000 0000 a3ee fc38 21ae 593b 32ab 2739
000003a0: 0000 0000 0000 0000 0000 0000 11e7 5e38
000003b0: 0000 0000 5a7c 0d39 ea87 d536 0000 0000
000003c0: 0000 0000 0000 0000 8e53 d43b 0000 0000
000003d0: 0000 0000 7a82 103f 5bbd 5241 17fd 473f
000003e0: 0000 0000 0000 0000 0000 0000 27c2 053e
000003f0: 0000 0000 538e 043f a713 f63b 0000 0000
0.0 0.0 0.00057990255 0.0 0.0 0.014313384 0.39229333 0.01817296
0.0 0.0 0.0 0.005840541 0.0 0.015958995 0.00058888947 0.0
0.0 0.0 0.0 0.0 0.0 0.0 0.0 0.0
0.0 0.0 0.0 0.0 0.0 0.0 0.0 0.0
0.0 0.0 0.009008093 0.0 0.0 0.22360136 6.082575 0.28222933
0.0 0.0 0.0 0.09026411 0.0 0.2453709 0.00913251 0.0
0.0 0.0 0.0 0.0 0.0 0.0 0.0 0.0
0.0 0.0 0.0 0.0 0.0 0.0 0.0 0.0
0.0 0.0 0.007426076 0.0 0.0 0.18491134 5.019861 0.23309895
0.0 0.0 0.0 0.07452101 0.0 0.20231728 0.007536027 0.0
0.0 0.0 0.0008731126 0.0 0.0 0.021189801 0.5836625 0.026909012
0.0 0.0 0.0 0.008756683 0.0 0.023801837 0.0008826322 0.0
0.0 0.0 0.0054229666 0.0 0.0 0.13597782 3.6948984 0.17147961
0.0 0.0 0.0 0.05482869 0.0 0.14934653 0.005524044 0.0
0.0 0.0 0.0 0.0 0.0 0.0 0.0 0.0
0.0 0.0 0.0 0.0 0.0 0.0 0.0 0.0
0.0 0.0 0.0 0.0 0.0 0.0 0.0 0.0
0.0 0.0 0.0 0.0 0.0 0.0 0.0 0.0
0.0 0.0 0.0035225647 0.0 0.0 0.085855275 2.3626037 0.10894515
0.0 0.0 0.0 0.035354104 0.0 0.096250705 0.003564006 0.0
0.0 0.0 0.0009042472 0.0 0.0 0.022260888 0.60915273 0.02825083
0.0 0.0 0.0 0.009075605 0.0 0.024737235 0.0009171573 0.0
0.0 0.0 0.0 0.0 0.0 0.0 0.0 0.0
0.0 0.0 0.0 0.0 0.0 0.0 0.0 0.0
0.0 0.0 0.0 0.0 0.0 0.0 0.0 0.0
0.0 0.0 0.0 0.0 0.0 0.0 0.0 0.0
0.0 0.0 0.0006486691 0.0 0.0 0.016095193 0.4368545 0.02025311
0.0 0.0 0.0 0.0064926455 0.0 0.017581526 0.0006570221 0.0
0.0 0.0 6.4560018e-06 0.0 0.0 0.00012060746 0.0033215361 0.00015990136
0.0 0.0 0.0 5.3144122e-05 0.0 0.00013493132 6.363717e-06 0.0
0.0 0.0 0.006479687 0.0 0.0 0.5644909 13.171229 0.7812056
0.0 0.0 0.0 0.13062344 0.0 0.5177967 0.007509667 0.0

exp_avg f4 [32]
00000000: 5394 2ebb 0000 0000 b7c3 24bc 0000 0000
00000010: e557 153c 805d 433b 4781 993b 0000 0000
00000020: 0000 0000 2759 c93b b33d 49bb 0000 0000
00000030: 0000 0000 d8cc 2e3b dbc2 8839 6862 07bc
00000040: 2ae3 c5ba 0000 0000 8367 db3a 1db9 15bb
00000050: 1abf 613b a1b4 e4ba 0000 0000 0000 0000
00000060: 0000 0000 0000 0000 5549 88ba 9e03 28bb
00000070: 76a2 faba 0000 0000 a33c 963b 9948 c63a
-0.00266387 0.0 -0.010056428 0.0 0.009115194 0.002981037 0.0046846005 0.0
0.0 0.006144661 -0.0030706942 0.0 0.0 0.002667239 0.0002608512 -0.008263208
-0.0015097607 0.0 0.0016739223 -0.0022845932 0.003444618 -0.0017448851 0.0 0.0
0.0 0.0 -0.0010397831 -0.0025636922 -0.0019121903 0.0 0.004584865 0.0015127837

exp_avg_sq f4 [32]
00000000: bbdb 5d3b 0000 0000 921f 573d 0000 0000
00000010: 078f 313d 5d8b a43b afb9 023d 0000 0000
00000020: 0000 0000 0680 a63c 6a64 ac3b 0000 0000
00000030: 0000 0000 48ee 763b 0173 f237 96cf 513e
00000040: 3fc3 ac3a 0000 0000 5804 e73a 03bf 523b
00000050: 5823 d23b 89a9 b73a 0000 0000 0000 0000
00000060: 0000 0000 0000 0000 5de7 f539 c64e 803b
00000070: 6201 163b 0000 0000 4ecf 363c 1a79 9f3a
0.0033852893 0.0 0.052520342 0.0 0.043349292 0.005021496 0.031915363 0.0
0.0 0.020324718 0.0052609937 0.0 0.0 0.0037678648 2.8902201e-05 0.20489344
0.0013180746 0.0 0.0017625196 0.003215731 0.0064129047 0.0014012317 0.0 0.0
0.0 0.0 0.0004690242 0.0039156405 0.0022889008 0.0 0.011157824 0.0012166828

exp_avg f4 [16, 32]
00000000: 0000 0000 0000 0000 0000 0000 0000 0000
00000010: 0000 0000 0000 0000 0000 0000 0000 0000
00000020: 0000 0000 0000 0000 0000 0000 0000 0000
00000030: 0000 0000 0000 0000 0000 0000 0000 0000
00000040: 0000 0000 0000 0000 0000 0000 0000 0000
00000050: 0000 0000 0000 0000 0000 0000 0000 0000
00000060: 0000 0000 0000 0000 0000 0000 0000 0000
00000070: 0000 0000 0000 0000 0000 0000 0000 0000
00000080: 00ff bdbb 0000 0000 ad30 4e39 0000 0000
00000090: 5b8e 91ba 6ec0 5c3a 96e2 a7b9 0000 0000
000000a0: 0000 0000 681d b239 4c27 c6bb 0000 0000
000000b0: 0000 0000 51dc 07bb f136 c1bb 64b5 21ba
000000c0: e810 c6bb 0000 0000 d5e0 013b 8433 bdba
000000d0: 9bd3 8cbb afd9 f23a 0000 0000 0000 0000
000000e0: 0000 0000 0000 0000 da2e adbb 0374 65bb
000000f0: eaa2 07bb 0000 0000 b99f 5cbb e81c 98bb
00000100: 0000 0000 0000 0000 0000 0000 0000 0000
00000110: 0000 0000 0000 0000 0000 0000 0000 0000
00000120: 0000 0000 0000 0000 0000 0000 0000 0000
00000130: 0000 0000 0000 0000 0000 0000 0000 0000
00000140: 0000 0000 0000 0000 0000 0000 0000 0000
00000150: 0000 0000 0000 0000 0000 0000 0000 0000
00000160: 0000 0000 0000 0000 0000 0000 0000 0000
00000170: 0000 0000 0000 0000 0000 0000 0000 0000
00000180: 5d18 38bb 0000 0000 16db 283a 0000 0000
00000190: c103 07ba 0dc0 0f3b 3579 40b9 0000 0000
000001a0: 0000 0000 6e9b 9b3a 6c2a 39bb 0000 0000
000001b0: 0000 0000 5524 89ba b133 48bb 273d d3b9
000001c0: 96c1 8cbb 0000 0000 f25b 1a3b 5527 3b3a
000001d0: 265a 12bb 6095 393b 0000 0000 0000 0000
000001e0: 0000 0000 0000 0000 3493 bcba bf97 d6ba
000001f0: 3b15 2cba 0000 0000 819d ccba d7f4 15bb
00000200: fd03 353b 0000 0000 242d 29ba 0000 0000
00000210: 6bf0 043a 8cc3 0fbb 917a 3f39 0000 0000
00000220: 0000 0000 9ca8 9bba 9af4 353b 0000 0000
00000230: 0000 0000 910e 873a 313a 453b f57d d039
00000240: 2362 8b3b 0000 0000 09a2 19bb ab22 40ba
00000250: 0232 103b 7935 39bb 0000 0000 0000 0000
00000260: 0000 0000 0000 0000 3942 b63a 3ee9 d23a
00000270: 6219 273a 0000 0000 3f3e c93a cd98 133b
00000280: ab64 9fbb 0000 0000 fd6a 353a 0000 0000
00000290: 4394 6cba b6f1 1f3b 1042 99b9 0000 0000
000002a0: 0000 0000 55b3 a73a c9d6 a2bb 0000 0000
000002b0: 0000 0000 f68c e8ba 4b43 a8bb 029f 1fba
000002c0: 3a68 d1bb 0000 0000 418a 453b b082 2639
000002d0: 0a8f 75bb 4fa2 603b 0000 0000 0000 0000
000002e0: 0000 0000 0000 0000 481e 5bbb 61cf 3cbb
000002f0: 41ae b7ba 0000 0000 2d04 34bb 73a7 80bb
00000300: 0000 0000 0000 0000 0000 0000 0000 0000
00000310: 0000 0000 0000 0000 0000 0000 0000 0000
00000320: 0000 0000 0000 0000 0000 0000 0000 0000
00000330: 0000 0000 0000 0000 0000 0000 0000 0000
00000340: 0000 0000 0000 0000 0000 0000 0000 0000
00000350: 0000 0000 0000 0000 0000 0000 0000 0000
00000360: 0000 0000 0000 0000 0000 0000 0000 0000
00000370: 0000 0000 0000 0000 0000 0000 0000 0000
00000380: 0000 0000 0000 0000 0000 0000 0000 0000
00000390: 0000 0000 0000 0000 0000 0000 0000 0000
000003a0: 0000 0000 0000 0000 0000 0000 0000 0000
000003b0: 0000 0000 0000 0000 0000 0000 0000 0000
000003c0: 0000 0000 0000 0000 0000 0000 0000 0000
000003d0: 0000 0000 0000 0000 0000 0000 0000 0000
000003e0: 0000 0000 0000 0000 0000 0000 0000 0000
000003f0: 0000 0000 0000 0000 0000 0000 0000 0000
0.0 0.0 0.0 0.0 0.0 0.0 0.0 0.0
0.0 0.0 0.0 0.0 0.0 0.0 0.0 0.0
0.0 0.0 0.0 0.0 0.0 0.0 0.0 0.0
0.0 0.0 0.0 0.0 0.0 0.0 0.0 0.0
-0.0057982206 0.0 0.00019663824 0.0 -0.0011105047 0.0008421008 -0.00032021542 0.0
0.0 0.00033972715 -0.006047165 0.0 0.0 -0.0020730684 -0.005896442 -0.0006168692
-0.006044496 0.0 0.0019817848 -0.0014434909 -0.0042976863 0.001852801 0.0 0.0
0.0 0.0 -0.005285126 -0.0035011775 -0.002069647 0.0 -0.0033664538 -0.004642118
0.0 0.0 0.0 0.0 0.0 0.0 0.0 0.0
0.0 0.0 0.0 0.0 0.0 0.0 0.0 0.0
0.0 0.0 0.0 0.0 0.0 0.0 0.0 0.0
0.0 0.0 0.0 0.0 0.0 0.0 0.0 0.0
-0.0028090694 0.0 0.0006441338 0.0 -0.00051504007 0.002193454 -0.000183557 0.0
0.0 0.0011871883 -0.0028254045 0.0 0.0 -0.0010463098 -0.0030548389 -0.00040290618
-0.004295538 0.0 0.0023553339 0.0007139345 -0.0022331565 0.0028317794 0.0 0.0
0.0 0.0 -0.0014387132 -0.0016372128 -0.0006564443 0.0 -0.0015610905 -0.0022881532
0.0027620785 0.0 -0.0006453565 0.0 0.00050712255 -0.0021936623 0.00018260839 0.0
0.0 -0.0011875811 0.0027764202 0.0 0.0 0.0010304024 0.00300945 0.00039766697
0.004253642 0.0 -0.0023442528 -0.00073293847 0.0022002463 -0.0028260632 0.0 0.0
0.0 0.0 0.0013905234 0.001609124 0.0006374327 0.0 0.0015353634 0.0022521496
-0.0048642955 0.0 0.00069205445 0.0 -0.0009024778 0.0024405546 -0.00029231654 0.0
0.0 0.0012794534 -0.004969452 0.0 0.0 -0.0017742205 -0.005134975 -0.00060890627
-0.0063905986 0.0 0.003014222 0.00015879679 -0.003746929 0.003427643 0.0 0.0
0.0 0.0 -0.0033434797 -0.002881013 -0.0014013724 0.0 -0.002746831 -0.0039262115
0.0 0.0 0.0 0.0 0.0 0.0 0.0 0.0
0.0 0.0 0.0 0.0 0.0 0.0 0.0 0.0
0.0 0.0 0.0 0.0 0.0 0.0 0.0 0.0
0.0 0.0 0.0 0.0 0.0 0.0 0.0 0.0
0.0 0.0 0.0 0.0 0.0 0.0 0.0 0.0
0.0 0.0 0.0 0.0 0.0 0.0 0.0 0.0
0.0 0.0 0.0 0.0 0.0 0.0 0.0 0.0
0.0 0.0 0.0 0.0 0.0 0.0 0.0 0.0

exp_avg_sq f4 [16, 32]
00000000: 0000 0000 0000 0000 0000 0000 0000 0000
00000010: 0000 0000 0000 0000 0000 0000 0000 0000
00000020: 0000 0000 0000 0000 0000 0000 0000 0000
00000030: 0000 0000 0000 0000 0000 0000 0000 0000
00000040: 0000 0000 0000 0000 0000 0000 0000 0000
00000050: 0000 0000 0000 0000 0000 0000 0000 0000
00000060: 0000 0000 0000 0000 0000 0000 0000 0000
00000070: 0000 0000 0000 0000 0000 0000 0000 0000
00000080: 08c1 323e 0000 0000 b116 143c 0000 0000
00000090: a1f4 0c3c b082 f33d 6187 d83a 0000 0000
000000a0: 0000 0000 1ee4 6b3d 4b39 603e 0000 0000
000000b0: 0000 0000 a571 c13c dda6 373e 9d09 b939
000000c0: 4425 d03c 0000 0000 d7b6 0e3d d0db 203e
000000d0: e541 ca3d b06d 943d 0000 0000 0000 0000
000000e0: 0000 0000 0000 0000 de8d c73e 66da a23d
000000f0: abbf 383d 0000 0000 8522 a73d 6b64 fa3d
00000100: 0000 0000 0000 0000 0000 0000 0000 0000
00000110: 0000 0000 0000 0000 0000 0000 0000 0000
00000120: 0000 0000 0000 0000 0000 0000 0000 0000
00000130: 0000 0000 0000 0000 0000 0000 0000 0000
00000140: 0000 0000 0000 0000 0000 0000 0000 0000
00000150: 0000 0000 0000 0000 0000 0000 0000 0000
00000160: 0000 0000 0000 0000 0000 0000 0000 0000
00000170: 0000 0000 0000 0000 0000 0000 0000 0000
00000180: 8ee6 ec3d 0000 0000 302e c43b 0000 0000
00000190: 8933 ba3b 8c63 a13d e23a 8e3a 0000 0000
000001a0: 0000 0000 6661 1c3d c28f 143e 0000 0000
000001b0: 0000 0000 5456 803c 29a2 f33d f56e 7439
000001c0: f18f 893c 0000 0000 0205 bd3c 3a6e d53d
000001d0: 0b06 863d e421 453d 0000 0000 0000 0000
000001e0: 0000 0000 0000 0000 064e 843e ada8 573d
000001f0: 833e f53c 0000 0000 ee3c 5d3d cdf4 a53d
00000200: 3541 e73d 0000 0000 69be bf3b 0000 0000
00000210: ac7e b63b 8363 9d3d 2e3e 8b3a 0000 0000
00000220: 0000 0000 548b 183d 0101 113e 0000 0000
00000230: 0000 0000 261a 7a3c 5798 ed3d 145c 6d39
00000240: d6d1 863c 0000 0000 e286 b83c e0fd cf3d
00000250: c6be 823d e018 403d 0000 0000 0000 0000
00000260: 0000 0000 0000 0000 a303 813e a6a2 523d
00000270: 4efa ee3c 0000 0000 da35 583d 57fd a13d
00000280: 57b8 773e 0000 0000 9713 4e3c 0000 0000
00000290: ff25 463c 3f80 283e 4e08 1b3b 0000 0000
000002a0: 0000 0000 b518 a33d 1166 9b3e 0000 0000
000002b0: 0000 0000 0428 053d 7251 7d3e e5a5 003a
000002c0: 0927 123d 0000 0000 a04c 463d 859a 5d3e
000002d0: b807 0c3e 59c2 cb3d 0000 0000 0000 0000
000002e0: 0000 0000 0000 0000 16dc 093f fa80 e23d
000002f0: a6de 7d3d 0000 0000 dbdd e83d 5154 2d3e
00000300: 0000 0000 0000 0000 0000 0000 0000 0000
00000310: 0000 0000 0000 0000 0000 0000 0000 0000
00000320: 0000 0000 0000 0000 0000 0000 0000 0000
00000330: 0000 0000 0000 0000 0000 0000 0000 0000
00000340: 0000 0000 0000 0000 0000 0000 0000 0000
00000350: 0000 0000 0000 0000 0000 0000 0000 0000
00000360: 0000 0000 0000 0000 0000 0000 0000 0000
00000370: 0000 0000 0000 0000 0000 0000 0000 0000
00000380: 0000 0000 0000 0000 0000 0000 0000 0000
00000390: 0000 0000 0000 0000 0000 0000 0000 0000
000003a0: 0000 0000 0000 0000 0000 0000 0000 0000
000003b0: 0000 0000 0000 0000 0000 0000 0000 0000
000003c0: 0000 0000 0000 0000 0000 0000 0000 0000
000003d0: 0000 0000 0000 0000 0000 0000 0000 0000
000003e0: 0000 0000 0000 0000 0000 0000 0000 0000
000003f0: 0000 0000 0000 0000 0000 0000 0000 0000
0.0 0.0 0.0 0.0 0.0 0.0 0.0 0.0
0.0 0.0 0.0 0.0 0.0 0.0 0.0 0.0
0.0 0.0 0.0 0.0 0.0 0.0 0.0 0.0
0.0 0.0 0.0 0.0 0.0 0.0 0.0 0.0
0.17456448 0.0 0.009038613 0.0 0.008603246 0.11890161 0.0016519838 0.0
0.0 0.057590596 0.21896856 0.0 0.0 0.02361376 0.17934747 0.00035293112
0.025408395 0.0 0.03484234 0.15708852 0.0987585 0.07247484 0.0 0.0
0.0 0.0 0.38975424 0.079518124 0.045104664 0.0 0.08160881 0.122261845
0.0 0.0 0.0 0.0 0.0 0.0 0.0 0.0
0.0 0.0 0.0 0.0 0.0 0.0 0.0 0.0
0.0 0.0 0.0 0.0 0.0 0.0 0.0 0.0
0.0 0.0 0.0 0.0 0.0 0.0 0.0 0.0
0.11567412 0.0 0.0059869513 0.0 0.005682413 0.07880315 0.0010851289 0.0
0.0 0.038178824 0.14507964 0.0 0.0 0.015666164 0.11896164 0.00023310988
0.01679227 0.0 0.023073677 0.10421415 0.06544121 0.048128024 0.0 0.0
0.0 0.0 0.25840777 0.052651096 0.029937034 0.0 0.054013185 0.08103333
0.11291734 0.0 0.005851556 0.0 0.0055692997 0.07684996 0.0010623389 0.0
0.0 0.03724225 0.14160539 0.0 0.0 0.015265023 0.11601322 0.00022636383
0.01645748 0.0 0.022525255 0.10155845 0.063840434 0.046898723 0.0 0.0
0.0 0.0 0.25198087 0.051424645 0.029172089 0.0 0.05278573 0.07909649
0.24191414 0.0 0.012577913 0.0 0.01209402 0.16455172 0.0023656073 0.0
0.0 0.07963697 0.30351308 0.0 0.0 0.032508865 0.247381 0.0004907533
0.035681758 0.0 0.04841292 0.21640976 0.1367482 0.09949178 0.0 0.0
0.0 0.0 0.5385145 0.110597566 0.061979912 0.0 0.113704406 0.16926695
0.0 0.0 0.0 0.0 0.0 0.0 0.0 0.0
0.0 0.0 0.0 0.0 0.0 0.0 0.0 0.0
0.0 0.0 0.0 0.0 0.0 0.0 0.0 0.0
0.0 0.0 0.0 0.0 0.0 0.0 0.0 0.0
0.0 0.0 0.0 0.0 0.0 0.0 0.0 0.0
0.0 0.0 0.0 0.0 0.0 0.0 0.0 0.0
0.0 0.0 0.0 0.0 0.0 0.0 0.0 0.0
0.0 0.0 0.0 0.0 0.0 0.0 0.0 0.0

exp_avg f4 [16]
00000000: 0000 0000 4d54 c73b 0000 0000 334b b23b
00000010: ea13 b1bb 15e9 f53b 0000 0000 0000 0000
00000020: 0000 0000 0000 0000 0000 0000 645b 50bb
00000030: 0000 0000 0400 0080 0000 0000 0400 0000
0.0 0.0060830475 0.0 0.0054410934 -0.0054039853 0.007504592 0.0 0.0
0.0 0.0 0.0 -0.0031792754 0.0 -6e-45 0.0 6e-45

exp_avg_sq f4 [16]
00000000: 0000 0000 556f df3a 0000 0000 e99a 933a
00000010: 5ab9 8f3a b9cf 1c3b 0000 0000 0000 0000
00000020: 0000 0000 0000 0000 0000 0000 d051 d439
00000030: 0000 0000 857b ee2f 0000 0000 e3e6 c332
0.0 0.0017046729 0.0 0.0011261377 0.0010965273 0.0023927523 0.0 0.0
0.0 0.0 0.0 0.00040496746 0.0 4.3379714e-10 0.0 2.2805983e-08

exp_avg f4 [2, 16]
00000000: 0000 0000 5681 6f3b 0000 0000 d17d e03b
00000010: 926a 75bb 9d85 253b 0000 0000 0000 0000
00000020: 0000 0000 0000 0000 0000 0000 5a68 20bb
00000030: 0000 0000 0400 0080 0000 0000 0400 0080
00000040: 0000 0000 4581 6fbb 0000 0000 c47d e0bb
00000050: 906a 753b 8f85 25bb 0000 0000 0000 0000
00000060: 0000 0000 0000 0000 0000 0000 4f68 203b
00000070: 0000 0000 0400 0000 0000 0000 0400 0000
0.0 0.0036545596 0.0 0.006850936 -0.0037447554 0.0025256642 0.0 0.0
0.0 0.0 0.0 -0.002447626 0.0 -6e-45 0.0 -6e-45
0.0 -0.0036545557 0.0 -0.00685093 0.003744755 -0.002525661 0.0 0.0
0.0 0.0 0.0 0.0024476235 0.0 6e-45 0.0 6e-45

exp_avg_sq f4 [2, 16]
00000000: 0000 0000 2c94 413b 0000 0000 2ce1 ce3b
00000010: c306 073c 13f3 533b 0000 0000 0000 0000
00000020: 0000 0000 0000 0000 0000 0000 0334 0c3d
00000030: 0000 0000 cb98 0c33 0000 0000 36d7 2d31
00000040: 0000 0000 2d94 413b 0000 0000 2be1 ce3b
00000050: c306 073c 13f3 533b 0000 0000 0000 0000
00000060: 0000 0000 0000 0000 0000 0000 0334 0c3d
00000070: 0000 0000 c398 0c33 0000 0000 36d7 2d31
0.0 0.002953778 0.0 0.0063134637 0.008241358 0.0032340928 0.0 0.0
0.0 0.0 0.0 0.03422929 0.0 3.2735255e-08 0.0 2.5297147e-09
0.0 0.0029537783 0.0 0.006313463 0.008241358 0.0032340928 0.0 0.0
0.0 0.0 0.0 0.03422929 0.0 3.2735226e-08 0.0 2.5297147e-09

exp_avg f4 [2]
00000000: b04e 8cbb ae4e 8c3b
-0.004281841 0.0042818403

exp_avg_sq f4 [2]
00000000: 8739 553a 8a39 553a
0.00081338774 0.0008133879
